models/2023-06-30 16:42:31.407187/model-110.pt (torch, 798981 bytes, 130 tensors)

input_embedding.weight f4 [16, 32]
-0.011200174 0.069646955 0.06334659 -0.053044353 -0.051682305 0.09066158 -0.010330995 -0.07087871
0.023643577 -0.046358272 -0.06446334 0.042097688 -0.020235896 -0.0032385283 0.02820963 0.025579497
0.09580209 0.05923108 0.06418373 -0.055647608 -0.006413238 0.050408687 -0.02670775 -0.06676216
-0.012942824 0.0674174 -0.09481563 -0.07650404 0.006018356 0.0868373 0.09204972 0.07417126
-0.09230059 0.08158461 -0.03524549 -0.0058290004 0.044415902 -0.008158398 0.07177488 -0.084568374
0.07446691 0.03343886 -0.04323399 -0.022069324 0.05712856 0.015723169 -0.09913035 -0.013690627
-0.078126006 0.014735663 0.0624138 -0.080778636 -0.017318642 -0.0804804 -0.051912393 0.06021427
-0.0013820053 0.039574027 0.09322243 -0.028951764 -0.009283662 0.09238398 -0.041023053 -0.03211973
0.030244434 -0.066165686 0.043481123 -0.028640866 -0.057872295 -0.03983357 -0.0240278 0.0748376
-0.05973816 0.07188906 -0.067301214 0.093819164 -0.025144255 0.018473316 0.097228326 -0.027365852
0.00028941632 0.0091302395 0.03415748 0.021932995 -0.08485869 -0.042418968 0.05989728 -0.032370534
0.048665453 0.07871204 0.038272332 0.059359074 -0.04269215 0.030424202 0.061253157 0.012595952
-0.05249802 -0.014782227 0.008884645 -0.042651463 0.09720117 0.07049177 0.006404996 -0.033559192
0.035465527 0.062485468 -0.0011892319 -0.023541141 0.07876804 0.02306552 0.010497713 -0.086966835
-0.066449486 -0.054612722 0.014865267 -0.028849436 0.032092523 0.008818949 0.0685645 0.018304778
-0.03246646 -0.0030404925 0.09966749 0.06412192 -7.963181e-06 -0.075287245 -0.010293341 -0.097318076
-0.08493384 -0.030388607 0.0805768 -0.073879674 0.06406833 -0.02304765 -0.09686699 -0.062960796
0.0044232844 -0.054004516 -0.09275671 0.037289787 0.004500246 0.060231175 0.05586921 -0.0917679
0.090275995 0.042489614 0.028401602 -0.08363767 0.095541075 0.08921707 -0.05789858 -0.005576587
-0.05368147 0.077124275 0.08538226 -0.06549331 -0.08552208 -0.05174711 -0.024065757 0.014628566
-0.05038307 -0.011312306 0.040819254 -0.046345677 0.058809984 0.017912555 -0.085465565 -0.030736947
-0.098721795 -0.01734494 0.09496301 -0.0977077 -0.06424081 -0.046156313 -0.05167998 0.024454141
-0.059484363 -0.018191015 -0.021442784 0.04081993 0.08354417 -0.058603145 0.08783727 0.04597349
-0.09372052 -0.03743906 -0.06945702 -0.03356861 -0.07999599 0.040175524 -0.038856566 0.07496052
-0.035442747 -0.055592764 0.00025943518 -0.033038866 -0.048791196 0.09847989 -0.058044802 0.036063492
0.027525628 -0.08610306 -0.088616386 0.050713923 -0.061948072 0.03509275 -0.050699364 -0.028219892
0.01252935 -0.07367804 0.09606107 -0.05469024 -0.029316796 -0.043515112 0.06308333 0.06754948
0.053371526 0.077796735 -0.07097455 -0.08504645 -0.057941914 -0.036549237 0.01457982 0.054716792
0.064000525 0.04565115 0.044867504 -0.081078365 0.07684409 0.057290196 0.05622257 -0.043807533
-0.047344852 0.060950138 -0.08578598 0.023939515 0.07870104 -0.081014074 -0.09040244 -0.082742825
-0.085950136 -0.084423736 0.02877227 -0.00610739 -0.08390995 0.07087159 0.07402243 -0.061249863
0.08683918 0.013534546 0.096083276 0.030020548 -0.08594809 -0.08837416 0.012124694 -0.039530396
00000000: ef80 37bc 10a3 8e3d dbbb 813d 0945 59bd
00000010: d3b0 53bd c7ac b93d 5543 29bc db28 91bd
00000020: 2db0 c13c 2ce2 3dbd 5b05 84bd a06e 2c3d
00000030: c0c5 a5bc 7d3d 54bb e217 e73c 188c d13c
00000040: e333 c43d 4a9c 723d c272 833d bfee 63bd
00000050: 2426 d2bb 5779 4e3d 36ca dabc 99ba 88bd
00000060: 230e 54bc 2212 8a3d b22e c2bd 26ae 9cbd
00000070: a135 c53b c1d7 b13d 9084 bc3d 1ae7 973d
00000080: 1708 bdbd d515 a73d 935d 10bd 3301 bfbb
00000090: 73ed 353d cdaa 05bc b5fe 923d 2f32 adbd
000000a0: 1b82 983d 30f7 083d 2016 31bd baca b4bc
000000b0: a3ff 693d e0cd 803c da04 cbbd a74e 60bc
000000c0: 8700 a0bd da6d 713c 9da5 7f3d 456f a5bd
000000d0: d3df 8dbc e8d2 a4bd 17a2 54bd 3da3 763d
000000e0: 6724 b5ba 6018 223d 67eb be3d 402c edbc
000000f0: 801a 18bc d033 bd3d ca07 28bd fa8f 03bd
00000100: 2dc3 f73c e081 87bd 4319 323d 40a0 eabc
00000110: 800b 6dbd 8728 23bd f3d5 c4bc 7544 993d
00000120: 00b0 74bd 923a 933d 38d5 89bd 4324 c03d
00000130: 53fb cdbc 5a55 973c a51f c73d 5a2e e0bc
00000140: cdbc 9739 0097 153c b7e8 0b3d d3ac b33c
00000150: 65ca adbd 83bf 2dbd da56 753d f796 04bd
00000160: 6d55 473d c733 a13d 73c3 1c3d 8022 733d
00000170: f7dd 2ebd 2d3c f93c 97e4 7a3d 405f 4e3c
00000180: 2a08 57bd 2731 72bc e790 113c 4db3 2ebd
00000190: 6811 c73d fd5d 903d 00e1 d13b 5d75 09bd
000001a0: 4d44 113d c3f0 7f3d 00e0 9bba 5ad9 c0bc
000001b0: 2351 a13d e7f3 bc3c 9afe 2b3c ab1b b2bd
000001c0: ab16 88bd 97b1 5fbd 738d 733c a755 ecbc
000001d0: 7373 033d 5a7d 103c 8b6b 8c3d e7f3 953c
000001e0: 8dfb 04bd 0043 47bb 781e cc3d 5a52 833d
000001f0: 9a99 05b7 3330 9abd 67a5 28bc b34e c7bd
00000200: cbf1 adbd 87f1 f8bc 7305 a53d 3a4e 97bd
00000210: 4236 833d 6dce bcbc 3362 c6bd 97f1 80bd
00000220: 33f1 903b d733 5dbd 3bf7 bdbd 2dbd 183d
00000230: cd76 933b f7b4 763d 1dd7 643d cff0 bbbd
00000240: 9fe2 b83d 9709 2e3d 7aaa e83c 3a4a abbd
00000250: 0aab c33d 70b7 b63d 1027 6dbd cdbb b6bb
00000260: 1ae1 5bbd 55f3 9d3d e5dc ae3d 5b21 86bd
00000270: 3326 afbd c7f4 53bd 8d25 c5bc a7ac 6f3c
00000280: 7a5e 4ebd 4057 39bc 1732 273d f7d4 3dbd
00000290: bde2 703d 5abd 923c 9208 afbd 0dcc fbbc
000002a0: a72e cabd fa16 8ebc f77b c23d fa1a c8bd
000002b0: b090 83bd 670e 3dbd 63ae 53bd 0d54 c83c
000002c0: e0a5 73bd 5305 95bc c7a8 afbc cd32 273d
000002d0: 3519 ab3d da09 70bd 07e4 b33d b34e 3c3d
000002e0: 8bf0 bfbd b359 19bd 7b3f 8ebd 3d7f 09bd
000002f0: f0d4 a3bd 178f 243d 1028 1fbd e784 993d
00000300: 6a2c 11bd 3db5 63bd cd04 8839 c353 07bd
00000310: 47d9 47bd d3af c93d 63c0 6dbd 50b7 133d
00000320: 6d7d e13c cd56 b0bd 827c b5bd 67b9 4f3d
00000330: 43bd 7dbd 6abd 0f3d 23aa 4fbd 672d e7bc
00000340: e747 4d3c 83e4 96bd abbb c43d e002 60bd
00000350: c729 f0bc e73c 32bd d531 813d 6257 8a3d
00000360: 1a9c 5a3d e553 9f3d 1b5b 91bd d52c aebd
00000370: 8054 6dbd a7b4 15bd 33e0 6e3c b71e 603d
00000380: b512 833d b3fc 3a3d fdc6 373d 6a0c a6bd
00000390: 6f60 9d3d 20a9 6a3d a349 663d 876f 33bd
000003a0: adec 41bd daa6 793d 8fb0 afbd cd1c c43c
000003b0: 032e a13d b5ea a5bd ea24 b9bd 1275 a9bd
000003c0: a006 b0bd 5ae6 acbd d3b3 eb3c 8020 c8bb
000003d0: fbd8 abbd 2025 913d 1299 973d 23e1 7abd
000003e0: bdd8 b13d 00c0 5d3c 4fc7 c43d a7ed f53c
000003f0: 8d05 b0bd 83fd b4bd a7a6 463c a0ea 21bd

output_embedding.weight f4 [9, 32]
-0.089173526 -0.07348329 -0.047489878 0.056952488 -0.023406552 0.027706595 0.049800348 -0.06540457
0.07210149 -0.059473984 -0.026123758 -0.02799405 -0.041067727 0.059203576 -0.073462024 0.027565697
-0.0034895 0.0369339 0.05591518 0.017140955 0.081394635 -0.0473834 0.016053291 -0.0063002673
-0.07662237 -0.05489917 -0.09827838 -0.0693343 -0.07553723 -0.030874966 -0.05758341 -0.053659644
-0.041819107 0.016767383 0.08393072 0.08799782 0.002180791 -0.028568745 0.013181877 0.057441164
-0.08771002 -0.032833446 0.031591427 0.07157385 0.051784337 -0.048813667 -0.095655836 -0.04804374
0.0787636 -0.05010308 0.07813145 -0.007909143 -0.08476118 -0.088479005 -0.07194727 -0.05782033
0.08613645 0.05563375 0.07673859 -0.06755736 -0.04655912 -0.08796733 0.029419327 0.027468337
0.09499106 0.073852964 -0.058156945 0.068224005 -0.086313926 -0.051405966 -0.06120298 -0.055419736
-0.04442009 -0.08082099 -0.06932635 -0.036812488 0.064881645 -0.07218703 -0.011891812 0.029044144
0.037003238 0.055586975 0.00021009348 -0.070243806 -0.100999035 0.020170422 -0.036304664 -0.035299774
0.08756039 -0.06285732 0.050931763 0.07091792 0.02420995 0.113330975 0.05023705 0.013363875
0.011772173 0.033744153 -0.0806883 0.10486112 -0.04385029 -0.066515915 -0.033927195 0.045290906
-0.03084535 -0.051053826 -0.06448376 0.014675954 -0.031688567 -0.06880796 -0.040614586 -0.0034276366
-0.024293588 -0.005082049 -0.032661796 0.026755506 0.07316062 -0.0934848 0.09034652 0.09543776
0.09481383 0.07922265 0.009182132 -0.062106997 -0.0909714 0.033854354 -0.018431224 0.00923451
0.088143386 -0.064796045 0.048744857 0.09060758 0.021883322 0.02440145 0.03135251 -0.007803333
-0.053631164 -0.08257826 0.08564776 0.02998419 -0.020396411 -0.01676209 0.07670678 -0.037686635
-0.008464038 0.059793293 0.07533612 0.01690811 0.017673934 -0.057161104 -0.000323534 -0.0688522
0.052192092 0.03127545 0.001966548 0.067880355 -0.049316715 0.09953662 0.08606825 0.05379752
-0.07543149 0.06269129 -0.018362975 -0.07802737 -0.024166739 0.05744785 0.061126377 -0.06515594
0.05000156 0.07141501 -0.0684726 -0.036222972 0.0067180875 -0.01067996 0.008438289 -0.06372654
0.098848104 0.028631067 0.059454348 -0.051339306 0.058437776 -0.0791021 -0.07155037 -0.017504752
-0.08798156 -0.061557412 0.078462064 0.015490127 0.06501553 0.048593607 0.079404525 -0.048041094
-0.103727974 -0.042142257 0.006460027 0.04461554 -0.0871999 0.07357666 0.050589193 -0.0485693
0.040002234 -0.020239267 -0.092613935 -0.013680144 -0.01551232 -0.03611571 0.06039727 0.023744801
0.067033224 -0.085855894 -0.077318385 -0.03307918 0.06681026 0.018244188 -0.059377424 -0.075985916
-0.025729228 -0.03457735 0.027621737 -0.0050213845 -0.10463587 -0.048926916 0.03632719 0.029239764
0.06700258 0.063230634 -0.06499839 -0.063508905 0.071860075 0.071695104 0.012644408 0.059749927
0.06619366 0.002113904 0.050777704 -0.06269916 -0.028361078 0.0849243 -0.0039297566 -0.04430401
-0.09140828 0.059984818 -0.0077246777 0.015617955 -0.03985944 0.08315671 0.03655641 -0.06592275
0.10807686 -0.098521985 0.018100183 0.07144376 -0.023304367 -0.020111855 -0.10248474 0.028471919
00000000: 9ca0 b6bd 687e 96bd bf84 42bd 0347 693d
00000010: 19bf bfbc f1f8 e23c 73fb 4b3d d5f2 85bd
00000020: f2a9 933d fe9a 73bd 7e01 d6bc c753 e5bc
00000030: a236 28bd 737f 723d 4273 96bd 75d1 e13c
00000040: 18b0 64bb 0048 173d 5107 653d 306b 8c3c
00000050: 3bb2 a63d 1915 42bd 3182 833c 7972 cebb
00000060: 30ec 9cbd f4dd 60bd 2d46 c9bd 24ff 8dbd
00000070: 43b3 9abd 7fed fcbc 95dc 6bbd 37ca 5bbd
00000080: 834a 2bbd c05b 893c dfe3 ab3d 3338 b43d
00000090: 9aeb 0e3b 0009 eabc cdf8 573c 6d47 6b3d
000000a0: 50a1 b3bd 5d7c 06bd 0366 013d 5095 923d
000000b0: d01b 543d d7f0 47bd 35e7 c3bd 83c9 44bd
000000c0: cf4e a13d e338 4dbd 6203 a03d 5a95 01bc
000000d0: 4597 adbd 7b34 b5bd 1759 93bd 03d5 6cbd
000000e0: 4f68 b03d 37e0 633d 1f29 9d3d 835b 8abd
000000f0: c7b4 3ebd 3728 b4bd cd00 f13c 4705 e13c
00000100: ac8a c23d 3940 973d fa35 6ebd 07b9 8b3d
00000110: 5bc5 b0bd 108f 52bd faaf 7abd ceff 62bd
00000120: d7f1 35bd 7a85 a5bd f9fa 8dbd b1c8 16bd
00000130: abe0 843d cbd6 93bd e0d5 42bc fced ed3c
00000140: b590 173d 2baf 633d 8a4c 5c39 fcdb 8fbd
00000150: 95d8 cebd 713c a53c 33b4 14bd 7f96 10bd
00000160: dd52 b33d 57bb 80bd d39d 503d 6a3d 913d
00000170: f253 c63c 121a e83d 5dc5 4d3d 28f4 5a3c
00000180: 13e0 403c 4f37 0a3d e83f a5bd 6dc1 d63d
00000190: 5d9c 33bd 7f39 88bd 3ef7 0abd f582 393d
000001a0: 63af fcbc d11d 51bd 1010 84bd 6a73 703c
000001b0: dfcb 01bd 30eb 8cbd 7b5b 26bd 33a2 60bb
000001c0: 5903 c7bc 5187 a6bb 60c8 05bd 5d2e db3c
000001d0: 3cd5 953d f574 bfbd 9907 b93d df74 c33d
000001e0: c12d c23d 7c3f a23d a770 163c e863 7ebd
000001f0: 374f babd ddaa 0a3d 14fd 96bc 584c 173c
00000200: 8584 b43d cab3 84bd b0a8 473d 7890 b93d
00000210: a744 b33c 8de5 c73c 7d6b 003d 1ab3 ffbb
00000220: 5aac 5bbd ca1e a9bd 1868 af3d 67a1 f53c
00000230: 6016 a7bc a750 89bc 7218 9d3d 4d5d 1abd
00000240: c0ac 0abc d0e9 743d d349 9a3d e082 8a3c
00000250: edc8 903c c321 6abd 00a0 a9b9 6202 8dbd
00000260: 60c7 553d b01a 003d 33e1 003b db04 8b3d
00000270: 5300 4abd dbd9 cb3d 8d44 b03d ca5a 5c3d
00000280: d37b 9abd 4b64 803d f36d 96bc d0cc 9fbd
00000290: 53f9 c5bc 704e 6b3d a75f 7a3d 7a70 85bd
000002a0: 70ce 4c3d 0842 923d 5d3b 8cbd 8a5e 14bd
000002b0: 6723 dc3b 00fb 2ebc c040 0a3c 0f83 82bd
000002c0: e070 ca3d b38b ea3c 6786 733d 2a49 52bd
000002d0: 735c 6f3d 4800 a2bd 0089 92bd 2066 8fbc
000002e0: ad2f b4bd a023 7cbd b8b0 a03d 4dca 7d3c
000002f0: dd26 853d 170a 473d d79e a23d bdc6 44bd
00000300: 556f d4bd 5c9d 2cbd a2ae d33b c9be 363d
00000310: dc95 b2bd 5caf 963d 9d36 4f3d 9af0 46bd
00000320: 62d9 233d d2cc a5bc 60ac bdbd af22 60bc
00000330: 6327 7ebc 11ee 13bd 2163 773d 7584 c23c
00000340: b748 893d 37d5 afbd 1a59 9ebd 097e 07bd
00000350: d1d3 883d d674 953c be35 73bd 819e 9bbd
00000360: 1ac6 d2bc fba0 0dbd fb46 e23c 6d8a a4bb
00000370: 554b d6bd 9767 48bd d2cb 143d 3b88 ef3c
00000380: a638 893d 107f 813d e01d 85bd f510 82bd
00000390: 602b 933d e2d4 923d 7e2a 4f3c 57bc 743d
000003a0: 8b90 873d 6d89 0a3b 48fc 4f3d 6b68 80bd
000003b0: 7e55 e8bc cbec ad3d 30c5 80bb 1f78 35bd
000003c0: 4434 bbbd a4b2 753d 4b1f fdbb 73e2 7f3c
000003d0: a743 23bd 114e aa3d 2dbc 153d 8202 87bd
000003e0: 6757 dd3d e5c5 c9bd d646 943c 1b51 923d
000003f0: cde8 bebc 9ec1 a4bc 85e3 d1bd f13d e93c

input_position_embedding.weight f4 [16, 32]
-0.7769105 1.4109687 -2.9801016 -0.14783831 -0.43524566 1.102914 -0.7707665 -0.12708965
-0.8849663 1.9919541 -1.6945493 -0.6778328 1.2566321 -0.64623 0.1587921 -0.8832201
-2.423065 -0.9152468 0.6988031 -0.75343806 -0.99694264 -0.4038006 1.027094 -0.24930258
-2.1939194 -0.10939517 -1.5688585 0.5646506 -0.32708526 0.95311874 0.56998307 -0.82842404
-0.25852257 -0.60555947 -0.18824229 0.95960665 -1.0158776 -1.5295602 -1.217956 0.86829364
-1.2622582 0.58818084 -0.876556 -1.0352659 -0.14789845 -1.0799748 -0.13963893 -1.2574358
0.27074847 0.73014474 -1.2801203 -0.35817936 1.1896187 -0.17952175 -1.8232398 -0.051350996
-0.78011936 -0.02442266 -0.9445182 0.076086305 -0.058536 0.7728795 0.46894354 0.2598864
0.78823143 1.3645269 0.37365136 -1.0004339 -0.0038759024 1.1844231 0.7556854 1.2842718
-0.7115957 -0.12029962 1.2383082 0.19852312 0.012015263 0.2975897 0.8699716 -0.25100976
-1.2006737 1.0209576 -0.38697174 -0.056888476 1.1883639 -2.5419006 -0.35291457 -1.4154243
-1.301656 -1.3728253 1.6909324 -0.46219972 0.44270924 0.51388454 -0.6122332 -1.9468066
-2.100938 0.3899225 0.08734349 -0.8573598 -1.7075385 -0.7759469 0.45225295 -0.35945117
0.7733112 3.056697 -2.487803 -1.6961749 -0.94819355 -0.7358555 -0.18160823 -0.7909975
0.15138192 0.5188244 -0.58962095 1.0006802 1.1935203 -0.019759614 0.28028518 1.8110125
-0.32263434 0.16012698 -1.4835624 0.82337415 -1.1399391 -0.029833483 -0.009877592 0.07974975
-0.14822921 0.8930536 -0.7618318 -1.5387881 -0.622455 -0.35628182 1.9632155 0.23418485
-0.12531798 1.6862394 2.276239 -0.95678294 1.7846788 0.19328523 0.32471308 0.042486053
-1.4055302 0.11945226 -0.3312212 -0.84073514 0.2731132 -0.3586462 1.7215616 1.6728407
-0.62509567 0.81614923 -0.57106924 -0.11945282 0.34162006 -0.28768116 -0.49697083 0.086231254
0.074936196 0.5903223 0.3985564 -0.6358906 0.046868775 1.8201417 1.4570551 0.17799667
-0.0005353383 -1.1454397 2.006081 -0.17704834 -1.3716313 -0.70804393 0.023196524 -1.3573327
-0.46148816 0.03807703 -1.3240482 0.55482656 -1.0817466 -0.3301794 0.2717589 -1.0898194
0.81456995 -0.13941883 -0.36767042 -0.45735458 -0.72232294 0.52596426 -0.4362587 -0.18895209
-1.0473068 0.22511539 0.6798328 0.52886754 -0.79619277 -0.3146236 -1.0102874 -0.3654104
0.839758 -0.88198465 0.96504515 0.8688326 0.76758033 0.36635396 -0.5944339 -0.2099745
0.36241758 0.22211488 0.27903175 -0.31517342 -2.265795 1.0990885 0.16391335 -0.42015174
-1.6339619 0.5374267 1.082613 -1.7104684 0.5069581 0.19360597 0.66807514 -1.3739041
0.66026926 -1.4120629 1.834581 0.45619485 0.46298212 0.88024884 -0.7825316 0.3034793
0.60516965 1.3176558 1.0710047 -1.2217151 1.0098188 -0.24514253 0.8217547 1.3023179
0.6759259 0.8625015 1.7967968 -1.5077322 0.16280083 -0.63826615 0.89797306 -0.38365328
-1.496334 -0.9824753 0.7183938 0.44021195 -0.102452934 -1.7265348 -0.4846317 0.71209735
00000000: 9be3 46bf 9f9a b43f fcb9 3ec0 ed62 17be
00000010: 85d8 debe 492c 8d3f f450 45bf ca23 02be
00000020: 278d 62bf 5af8 fe3f fee6 d8bf 7386 2dbf
00000030: 52d9 a03f 546f 25bf 659a 223e b61a 62bf
00000040: 7f13 1bc0 9d4d 6abf c3e4 323f 51e1 40bf
00000050: a237 7fbf f4be cebe d177 833f 2d49 7fbe
00000060: 2d69 0cc0 930a e0bd 5bd0 c8bf f18c 103f
00000070: b877 a7be 97ff 733f 69ea 113f 9913 54bf
00000080: 125d 84be f205 1bbf 96c2 40be c8a8 753f
00000090: 4708 82bf a1c8 c3bf fbe5 9bbf 7e48 5e3f
000000a0: ad91 a1bf 0593 163f f965 60bf 9883 84bf
000000b0: b172 17be 9d3c 8abf 82fd 0ebe a8f3 a0bf
000000c0: 8b9f 8a3e c4ea 3a3f fbda a3bf 4963 b7be
000000d0: 6d45 983f 8dd4 37be ec5f e9bf 6c55 52bd
000000e0: e7b5 47bf 0812 c8bc f2cb 71bf 23d3 9b3d
000000f0: 72c3 6fbd 6edb 453f 5e19 f03e d50f 853e
00000100: 89c9 493f d1a8 ae3f 3b4f bf3e 380e 80bf
00000110: da02 7ebb 2d9b 973f 9974 413f 0563 a43f
00000120: 232b 36bf a65f f6bd e280 9e3f a549 4b3e
00000130: aadb 443c ad5d 983e 75b6 5e3f 5a84 80be
00000140: adaf 99bf bdae 823f 2921 c6be e403 69bd
00000150: 4f1c 983f 80ae 22c0 38b1 b4be a02c b5bf
00000160: aa9c a6bf bdb8 afbf 7970 d83f 71a5 ecbe
00000170: c9aa e23e f08d 033f 51bb 1cbf f530 f9bf
00000180: c575 06c0 eca3 c73e 25e1 b23d ef7b 5bbf
00000190: 9f90 dabf 75a4 46bf b38d e73e fc09 b8be
000001a0: b9f7 453f eca0 4340 2a38 1fc0 421c d9bf
000001b0: d0bc 72bf 0761 3cbf 82f7 39be d07e 4abf
000001c0: dd03 1b3e add1 043f 66f1 16bf 4a16 803f
000001d0: 46c5 983f eade a1bc 8a81 8f3e 42cf e73f
000001e0: 5430 a5be 54f8 233e 5fe5 bdbf a6c8 523f
000001f0: 86e9 91bf 5965 f4bc a0d5 21bc d653 a33d
00000200: 66c9 17be 299f 643f 6907 43bf 02f7 c4bf
00000210: 3659 1fbf 926a b6be a54a fb3f 27ce 6f3e
00000220: 5b53 00be b1d6 d73f e6ad 1140 baef 74bf
00000230: 5b70 e43f 90ec 453e cb40 a63e db05 2e3d
00000240: 6ae8 b3bf 63a3 f43d d395 a9be 6b3a 57bf
00000250: 7ed5 8b3e 7aa0 b7be 215c dc3f a51f d63f
00000260: 4506 20bf 28ef 503f 9831 12bf aea3 f4bd
00000270: d3e8 ae3e f24a 93be f672 febe 039a b03d
00000280: 2678 993d 5d1f 173f 960f cc3e bac9 22bf
00000290: 79f9 3f3d 67fa e83f c880 ba3f c244 363e
000002a0: f255 0cba c59d 92bf a263 0040 294c 35be
000002b0: 9d91 afbf 5e42 35bf a306 be3c 14bd adbf
000002c0: 2d48 ecbe a9f6 1b3d 697a a9bf 1d09 0e3f
000002d0: ac76 8abf 460d a9be fc23 8b3e 347f 8bbf
000002e0: a887 503f cfc3 0ebe 4c3f bcbe 612a eabe
000002f0: 28ea 38bf 98a5 063f 4d5d dfbe a87c 41be
00000300: 260e 86bf a684 663e 8609 2e3f dd63 073f
00000310: 4ad3 4bbf 5816 a1be 1951 81bf 1217 bbbe
00000320: 61fa 563f bfc9 61bf 330d 773f d06b 5e3f
00000330: 2580 443f bf92 bb3e d22c 18bf 8e03 57be
00000340: cc8e b93e 1572 633e 40dd 8e3e 695e a1be
00000350: c902 11c0 efae 8c3f e7d8 273e 211e d7be
00000360: aa25 d1bf cc94 093f 1093 8a3f a1f0 dabf
00000370: 02c8 013f a540 463e f906 2b3f 17dc afbf
00000380: 6807 293f 7abe b4bf 8dd3 ea3f 5f92 e93e
00000390: fe0b ed3e fd57 613f fe53 48bf a461 9b3e
000003a0: 66ec 1a3f f2a8 a83f af16 893f 2961 9cbf
000003b0: be41 813f a506 7bbe 845e 523f 5ab2 a63f
000003c0: 7b09 2d3f e6cc 5c3f 70fd e53f 5efd c0bf
000003d0: 43b5 263e 6965 23bf 90e1 653f 346e c4be
000003e0: df87 bfbf 8083 7bbf a8e8 373f 7663 e13e
000003f0: d8d2 d1bd 18ff dcbf a521 f8be 034c 363f

target_position_embedding.weight f4 [9, 32]
0.11295776 0.26003447 -1.8838052 -0.5601779 -0.7692795 0.19027929 -0.6306659 0.5108063
0.030801173 -0.4931817 0.73426455 1.2706784 0.8045079 1.3335924 0.83874357 0.25396505
0.8036522 -1.1017728 -0.7409457 0.82705885 -0.6680799 -0.597412 1.2892878 1.1914277
1.8684609 -1.1129196 -0.14844559 -0.33922172 1.4541935 0.623073 -0.59390587 0.77178603
-0.24860446 -1.345234 -0.29988685 -2.1943 0.38470736 2.5597467 0.42305708 0.23777714
1.2142788 2.4895084 -0.74531037 -1.7158865 -2.3675025 -0.40279162 1.0124404 -2.4555666
1.4671623 -1.4540313 -1.6336757 -0.74156904 -0.45550877 -1.1780775 -0.65346444 -1.3295729
0.21990158 0.8785276 -0.054417633 -0.44812444 -0.118224815 -1.7947576 0.23838453 -1.2876717
1.1820844 0.40565002 -1.1136445 0.8542965 0.52671576 2.127739 0.90466034 0.40963492
3.0111575 -0.4861017 0.2468804 -0.15929516 -2.2985244 -0.8701355 -0.7119543 0.7950716
-1.0886545 -0.79259074 0.9020839 -0.26902342 -0.5590352 0.08674661 -0.2647513 -1.158217
-0.97328365 -0.21572311 -1.4037042 1.0522394 -1.1249048 0.5860156 -0.19362924 1.0066161
-1.949389 1.8517402 -0.4203436 -0.11693568 1.7899375 -0.022912137 0.37225744 -0.38047037
-0.041813675 1.4613979 2.2861974 1.2090964 0.04450521 -0.012062333 -0.5848155 -1.2651898
-0.7613897 0.28205743 0.4075014 1.199339 -0.14589882 -0.71388197 -0.48568684 0.67956173
0.20549726 0.04237947 0.17049706 -0.05534556 1.9296671 0.46216384 0.54828775 0.27606696
0.55699825 -0.74697787 0.059455987 1.1190741 -0.8364673 -0.053849448 -0.88816285 -0.5382533
-0.866782 1.2486879 -0.8373648 0.22470933 0.8228442 0.0400055 1.7866033 -2.0963614
0.7814424 -0.5328567 -0.92558146 -0.20309313 1.039508 0.38472366 0.09753136 1.5235505
-0.15724595 0.9396962 -0.14913908 -0.1435869 -0.005817629 -0.10315532 1.7682251 0.77085346
0.31730154 0.6298072 -0.4704444 0.21505082 2.2342122 -1.9402286 0.577203 -0.16669667
-0.023467494 -0.45105034 -2.1999989 1.4691974 -1.758133 -0.5704101 -1.0403551 -0.6276397
1.3985728 0.27512747 -0.33359185 -0.677762 -0.24716724 -0.29072464 -0.98695636 0.17398274
-0.9719205 0.2252612 -0.62667954 1.6608349 0.9729926 0.22342412 2.283593 -1.1459644
-0.855373 -2.0558555 -1.3465893 -0.030200804 0.38575056 0.056945615 -0.6712879 -0.088430524
0.5580591 -0.10127759 0.28299958 1.0537797 -0.5619221 -0.28945565 0.66189355 0.25534976
1.6343416 -2.3300242 -0.2712007 0.25827232 -0.55873156 -0.4625533 -0.4136808 -1.0452082
-0.8389777 -0.0399012 0.09867478 0.96010894 0.94393504 -0.7524244 -2.2473829 0.117475756
0.40728942 -0.23464946 -0.30812332 -1.7924294 1.0259446 -1.0371057 -1.130311 -0.3708612
2.7140186 -0.5352605 1.4881631 -1.6824268 -0.05693459 -1.8635736 0.342329 -0.3759275
0.096692726 0.08005253 -0.45404604 0.3550429 0.28014264 -0.33870524 0.8095397 0.03006149
-0.6730056 0.3991257 0.2534308 0.19258985 1.338338 -1.2951076 0.17000522 0.13659188
00000000: 6656 e73d 3d23 853e 8720 f1bf d267 0fbf
00000010: 80ef 44bf 93d8 423e 5273 21bf 34c4 023f
00000020: be52 fc3c 5082 fcbe c3f8 3b3f 97a5 a23f
00000030: 3bf4 4d3f 28b3 aa3f e6b7 563f b507 823e
00000040: 27bc 4d3f e406 8dbf 9eae 3dbf 21ba 533f
00000050: 4907 2bbf feef 18bf 6207 a53f b480 983f
00000060: ba29 ef3f 2674 8ebf 1f02 18be 78ae adbe
00000070: 0323 ba3f b681 1f3f 370a 18bf c593 453f
00000080: 2b92 7ebe a130 acbf c58a 99be 696f 0cc0
00000090: 5df8 c43e e4d2 2340 f09a d83e da7b 733e
000000a0: 7d6d 9b3f 1b54 1f40 a9cc 3ebf 2ba2 dbbf
000000b0: 2985 17c0 b43a cebe a697 813f 0128 1dc0
000000c0: f9cb bb3f b31d babf 491c d1bf 78d7 3dbf
000000d0: 7238 e9be 3ecb 96bf 7249 27bf 722f aabf
000000e0: e12d 613e 2fe7 603f 06e5 5ebd 9170 e5be
000000f0: da1f f2bd 9eba e5bf 131b 743e 6dd2 a4bf
00000100: 8b4e 973f 5cb1 cf3e e78b 8ebf 2db3 5a3f
00000110: d8d6 063f e02c 0840 d297 673f abbb d13e
00000120: ceb6 4040 52e2 f8be 37ce 7c3e 451e 23be
00000130: 061b 13c0 33c1 5ebf a342 36bf d089 4b3f
00000140: 0859 8bbf 3ae7 4abf f8ee 663f 70bd 89be
00000150: ee1c 0fbf 35a8 b13d 7b8d 87be 7440 94bf
00000160: 1e29 79bf 85e6 5cbe 94ac b3bf c8af 863f
00000170: e1fc 8fbf 1e05 163f be46 46be ccd8 803f
00000180: 9485 f9bf d305 ed3f 4737 d7be f97b efbd
00000190: ac1c e53f 3cb2 bbbc 8798 be3e 03cd c2be
000001a0: d144 2bbd 160f bb3f 0f51 1240 acc3 9a3f
000001b0: 184b 363d 17a1 45bc 78b6 15bf bdf1 a1bf
000001c0: 6fea 42bf d569 903e 06a4 d03e f183 993f
000001d0: 8066 15be f8c0 36bf f2ab f8be c2f7 2d3f
000001e0: e06d 523e 1896 2d3d c896 2e3e 07b2 62bd
000001f0: 55ff f63f bda0 ec3e 965c 0c3f a658 8d3e
00000200: 7097 0e3f f139 3fbf 1f88 733d d23d 8f3f
00000210: b922 56bf 3d91 5cbd a45e 63bf f8ca 09bf
00000220: 6de5 5dbf 01d5 9f3f 8a5d 56bf 341a 663e
00000230: eba5 523f cfdc 233d 6baf e43f c92a 06c0
00000240: 9c0c 483f 4c69 08bf e8f2 6cbf a5f7 4fbe
00000250: 990e 853f 80fa c43e 86be c73d b403 c33f
00000260: 1505 21be ee8f 703f eab7 18be 7208 13be
00000270: cfa1 bebb 1943 d3bd 3355 e23f a756 453f
00000280: 5975 a23e 0b3b 213f 17de f0be 4836 5c3e
00000290: 55fd 0e40 6959 f8bf 93c3 133f 88b2 2abe
000002a0: e73e c0bc 12f0 e6be c8cc 0cc0 a90e bc3f
000002b0: 810a e1bf 6506 12bf 5b2a 85bf ffac 20bf
000002c0: 6f04 b33f 82dd 8c3e 8dcc aabe cf81 2dbf
000002d0: 6919 7dbe dcd9 94be 2ca9 7cbf 8828 323e
000002e0: c8cf 78bf dfaa 663e 126e 20bf 3d96 d43f
000002f0: 0b16 793f 4bc9 643e 6326 1240 f6ae 92bf
00000300: baf9 5abf 2393 03c0 0a5d acbf ad67 f7bc
00000310: 1981 c53e ce3f 693d 86d9 2bbf 101b b5bd
00000320: f6dc 0e3f a06a cfbd 52e5 903e 41e2 863f
00000330: 20da 0fbf 8833 94be db71 293f 34bd 823e
00000340: 1b32 d13f 1e1f 15c0 d1da 8abe 453c 843e
00000350: 0809 0fbf c9d3 ecbe f8cd d3be 62c9 85bf
00000360: 3ec7 56bf 716f 23bd 0116 ca3d b3c9 753f
00000370: baa5 713f e39e 40bf 1fd5 0fc0 2197 f03d
00000380: 3d88 d03e f347 70be 57c2 9dbe 546e e5bf
00000390: 2752 833f e1bf 84bf 08ae 90bf 85e1 bdbe
000003a0: 7bb2 2d40 d506 09bf 217c be3f c359 d7bf
000003b0: 3f34 69bd 9489 eebf bf45 af3e 9279 c0be
000003c0: d606 c63d 95f2 a33d b978 e8be 2fc8 b53e
000003d0: db6e 8f3e c66a adbe fe3d 4f3f 8443 f63c
000003e0: 184a 2cbf 345a cc3e afc1 813e 4636 453e
000003f0: a94e ab3f 16c6 a5bf d915 2e3e bede 0b3e

transformer.encoder.layers.0.self_attn.in_proj_weight f4 [96, 32]
-0.089564785 0.14227492 -0.08195318 0.011098011 -0.14403224 0.032751694 0.17194177 0.16155264
-0.050323993 -0.13736905 -0.08565615 0.14887169 -0.16258548 -0.19365336 -0.030936288 -0.20125456
0.16032247 -0.17512903 -0.20761576 0.2043884 0.019345071 0.1181879 0.1425694 0.076813094
0.17466792 -0.01651323 0.13507563 -0.05204509 0.021829337 -0.124972165 -0.13475774 -0.14951812
-0.15039462 -0.09435607 -0.026969736 0.11714173 -0.1788282 0.18584412 0.027865391 0.1884023
0.03554994 0.15620261 -0.16481027 -0.057121642 -0.022356883 -0.112247616 0.020452783 -0.02602477
-0.18858744 0.0646379 0.1400142 0.13185702 -0.08136253 -0.080877475 -0.22030815 0.10781058
-0.20735765 -0.20039323 0.20973335 -0.11122395 -0.08316299 -0.04084288 -0.06975368 -0.15281262
0.013284351 -0.09716595 -0.09107508 0.08087787 0.01640728 -0.012561771 -0.021770725 -0.0094437795
0.18269503 -0.029423276 0.19520758 0.038638804 -0.09681512 0.12832059 -0.13499641 0.004094811
0.012890089 -0.051578414 -0.04146921 -0.053943213 0.059700053 0.047838397 -0.0030505443 -0.14585233
-0.08929492 0.06388999 0.0010369532 0.1558478 -0.036209773 0.10304228 0.20415807 -0.18933491
-0.15748402 0.18871154 0.03762533 -0.16701879 0.050963007 -0.05919599 0.025871547 -0.06592591
-0.16910267 -0.19485699 -0.20527306 0.18024646 -0.11241829 0.035489462 -0.077454984 -0.15567522
0.16114628 -0.029085383 -0.032932412 0.13151832 -0.108354926 -5.3554395e-05 0.02102182 0.12054247
-0.1878037 -0.15277769 0.180448 0.080436386 0.12907855 0.027737243 -0.018320676 -0.07258733
-0.13764021 0.010920353 -0.12921795 -0.103966236 -0.068443224 -0.1872818 0.02366986 0.20608024
-0.17968898 0.02926415 -0.13987406 0.0007719203 -0.12189585 -0.18286346 -0.07928121 0.13213134
0.174104 -0.1668131 -0.0007987142 -0.19832389 0.07913954 0.20229779 -0.078095704 0.074417554
-0.118888155 -0.04520621 0.17299648 -0.12029698 -0.16563311 -0.10095084 -0.08571991 -0.11755987
0.13743468 0.060895458 0.15290874 0.096675634 0.21460356 0.12199334 -0.022461602 -0.006925622
-0.06327329 -0.16854875 0.010983859 0.004636382 -0.044427972 -0.017942341 -0.12030589 0.16288267
-0.18737221 0.20013458 0.20530611 -0.16419777 0.05410951 0.01961145 -0.15301044 0.11240928
-0.18533538 0.059231382 -0.16559282 -0.045970127 0.18211539 0.013995019 0.13637774 0.08273473
0.10382629 0.036315527 -0.1224712 -0.06913144 -0.04075614 -0.09029758 -0.11372817 0.040711414
0.0059974617 0.12703936 -0.04162813 0.16046396 -0.021328658 0.14183414 0.038715087 -0.19624048
0.16089022 -0.100871876 0.15089548 0.0045575956 0.14032964 -0.0391547 0.2122967 0.14614245
0.082625814 0.12028037 0.06652893 0.06192795 -0.1785991 0.015533888 0.15406135 -0.14941993
0.17422645 0.0955055 -0.018279476 -0.11978046 -0.17216782 -0.14856277 0.022861231 0.20227058
-0.07379973 -0.18107203 -0.14847842 0.20621306 0.066182666 0.15001523 -0.13867612 -0.022137914
0.10456521 -0.04598253 -0.059960846 -0.016875472 -0.013877608 -0.13608408 0.14130808 -0.06988828
0.20275636 -0.0424781 0.19459969 0.20015301 0.11632088 -0.020538846 0.20850378 0.191199
00000000: be6d b7bd 84b0 113e 12d7 a7bd 6fd4 353c
00000010: 307d 13be a426 063d 8111 303e 0e6e 253e
00000020: 8820 4ebd 79aa 0cbe 7e6c afbd d271 183e
00000030: cf7c 26be 114d 46be 196e fdbc ad15 4ebe
00000040: 932b 243e 0655 33be 3a99 54be 314b 513e
00000050: 8e79 9e3c 7f0c f23d b6fd 113e 2f50 9d3d
00000060: 26dc 323e c146 87bc 4451 0a3e 3b2d 55bd
00000070: 70d3 b23c 68f1 ffbd effd 09be 471b 19be
00000080: 0c01 1abe c13d c1bd a3ef dcbc 01e8 ef3d
00000090: bd1e 37be ec4d 3e3e f645 e43c 88ec 403e
000000a0: d09c 113d 94f3 1f3e 06c4 28be 62f8 69bd
000000b0: c825 b7bc 14e2 e5bd 988c a73c e631 d5bc
000000c0: 111d 41be e060 843d e25f 0f3e 8705 073e
000000d0: 66a1 a6bd 17a3 a5bd 7698 61be cbcb dc3d
000000e0: 9055 54be e233 4dbe 57c4 563e 62c9 e3bd
000000f0: 5c51 aabd dd4a 27bd 04db 8ebd e97a 1cbe
00000100: 9ba6 593c f1fe c6bd 9285 babd 4ca3 a53d
00000110: 8f68 863c e3cf 4dbc 8558 b2bc 15ba 1abc
00000120: 6814 3b3e 1509 f1bc 7fe4 473e b943 1e3d
00000130: 0147 c6bd 7966 033e 803c 0abe c42d 863b
00000140: f430 533c e343 53bd 9edb 29bd 8ff3 5cbd
00000150: 0b88 743d 32f2 433d a4eb 47bb 505a 15be
00000160: 41e0 b6bd c1d8 823d 60ea 873a 9196 1f3e
00000170: b350 14bd d507 d33d d00e 513e 03e1 41be
00000180: 7e43 21be 993d 413e 051d 1a3d f906 2bbe
00000190: 96be 503d 7f77 72bd 91f0 d33c 2a04 87bd
000001a0: 4029 2dbe 9788 47be 1a33 52be 8792 383e
000001b0: 8f3b e6bd 665d 113d b8a0 9ebd 5369 1fbe
000001c0: 8803 253e 7844 eebc 23e4 06bd bdac 063e
000001d0: 30e9 ddbd 989f 60b8 f435 ac3c f8de f63d
000001e0: 9d4f 40be c171 1cbe 5cc7 383e d5bb a43d
000001f0: 2b2d 043e 3739 e33c 3e15 96bc aba8 94bd
00000200: 8ef1 0cbe 48eb 323c b651 04be 40ec d4bd
00000210: f62b 8cbd cdc6 3fbe 4be7 c13c b306 533e
00000220: 6300 38be 5fbb ef3c 253b 0fbe b25a 4a3a
00000230: 88a4 f9bd 8f40 3bbe 305e a2bd 704d 073e
00000240: 5248 323e 0ed1 2abe cd60 51ba 6b15 4bbe
00000250: e913 a23d 2727 4f3e a4f0 9fbd 3b68 983d
00000260: a27b f3bd 262a 39bd fd25 313e 435e f6bd
00000270: ba9b 29be 50bf cebd ec8d afbd 3bc3 f0bd
00000280: adbb 0c3e 846d 793d 1c94 1c3e e0fd c53d
00000290: 09c1 5b3e a5d7 f93d 6501 b8bc 54f0 e2bb
000002a0: 6d95 81bd 0b98 2cbe a5f5 333c cbec 973b
000002b0: 1bfa 35bd d1fb 92bc ef62 f6bd b7ca 263e
000002c0: 80de 3fbe 14f0 4c3e c43b 523e 7623 28be
000002d0: efa1 5d3d 31a8 a03c c5ae 1cbe d636 e63d
000002e0: 8fc8 3dbe 9b9c 723d 2a91 29be 2c4b 3cbd
000002f0: 757c 3a3e 5d4b 653c 9ba6 0b3e d370 a93d
00000300: e1a2 d43d 97bf 143d 2ed2 fabd c994 8dbd
00000310: e9ef 26bd f0ed b8bd 51ea e8bd 03c1 263d
00000320: 5b86 c43b 9b16 023e 4282 2abd aa50 243e
00000330: 70b9 aebc f83c 113e b693 1e3d 44f3 48be
00000340: 68c0 243e ea95 cebd 5884 1a3e e257 953b
00000350: 93b2 0f3e ae60 20bd 4e64 593e 5ea6 153e
00000360: b937 a93d 8e55 f63d 5240 883d 29a8 7d3d
00000370: afe2 36be d981 7e3c 42c2 1d3e 8a01 19be
00000380: 6b68 323e 6398 c33d d7be 95bc 754f f5bd
00000390: c34c 30be d720 18be 7a47 bb3c 0520 4f3e
000003a0: 5024 97bd f26a 39be ba0a 18be 8429 533e
000003b0: c78a 873d 989d 193e 1d01 0ebe 925a b5bc
000003c0: 4926 d63d 2d58 3cbd 8199 75bd 6e3e 8abc
000003d0: e85e 63bc a059 0bbe 11b3 103e 9621 8fbd
000003e0: 5d9f 4f3e 84fd 2dbd 2445 473e e9f4 4c3e
000003f0: a439 ee3d 1541 a8bc 0482 553e acc9 433e

transformer.encoder.layers.0.self_attn.in_proj_bias f4 [96]
0.004233234 0.0005735051 -0.004099992 -0.0044838623 0.0046379236 -0.0015020414 -0.003966821 0.0049359975
-0.0046289507 -0.0042293067 0.0049158316 -0.0036215195 0.0039428305 -0.004248361 0.0051742275 0.005011047
0.0019695887 -0.0010062051 -0.003810411 -0.0014283197 -0.0006219009 -0.0007160857 0.002818047 -0.0008521056
0.00076660427 0.003676507 -0.0011821862 -0.00027299553 0.000542297 -0.0037842945 0.0036710373 0.0038515201
1.1446306e-06 -8.1714046e-07 -1.0071726e-07 6.163795e-07 1.347009e-07 -7.454765e-08 6.1434014e-07 1.0359142e-06
8.822155e-08 -6.1427535e-08 -4.2809816e-07 -7.0178436e-07 -2.0827254e-07 -1.3452201e-07 -4.7612172e-08 2.3217619e-07
-3.800754e-06 -1.2508305e-06 2.7956319e-06 2.1698274e-07 1.9743036e-06 -1.1830689e-06 -9.136024e-07 1.5061034e-06
-2.9402344e-07 -2.3623575e-06 -1.0405951e-07 1.911016e-06 -1.5608168e-07 1.0323869e-06 -4.285611e-07 5.151117e-07
0.0021134366 0.00016244885 0.00065911555 -0.0009711028 -1.4066064e-05 -5.496766e-06 0.0007859348 -0.0019393914
-0.002259089 -0.0017591929 -0.0012512394 -0.00062089664 0.00016853024 0.0008580838 -0.0007410614 -0.00012413127
0.0006977402 0.0009611421 0.0016596996 -0.00020884234 -0.00030034044 -0.0016191179 0.001706492 -0.000640816
0.0035590546 0.0013763878 9.4157724e-05 -0.000790139 -0.00010786165 -0.0016505581 -0.00091565284 -0.00066389877
00000000: f1b6 8a3b 4757 163a 3a59 86bb 5ded 92bb
00000010: b9f9 973b 25e0 c4ba 1bfc 81bb 26be a13b
00000020: 74ae 97bb ff95 8abb fc14 a13b 0457 6dbb
00000030: dc32 813b d635 8bbb 918c a93b b533 a43b
00000040: 3714 013b a4e2 83ba 17b8 79bb 7536 bbba
00000050: 1007 23ba b3b7 3bba fcae 383b d75f 5fba
00000060: f1f5 483a 8df1 703b 96f3 9aba d720 8fb9
00000070: f028 0e3a ed01 78bb c995 703b c969 7c3b
00000080: 35a1 9935 7759 5bb5 e649 d8b3 4775 2535
00000090: 4da2 1034 0117 a0b3 22e9 2435 be09 8b35
000000a0: 4f74 bd33 25ea 83b3 5dd5 e5b4 4162 3cb5
000000b0: 85a1 5fb4 2171 10b4 237e 4cb3 1b4c 7934
000000c0: 7510 7fb6 35e2 a7b5 979c 3b36 c3fb 6834
000000d0: 477e 0436 f0c9 9eb5 473e 75b5 5225 ca35
000000e0: 46da 9db4 fe88 1eb6 5277 dfb3 013f 0036
000000f0: 6897 27b4 8b90 8a35 fd14 e6b4 3546 0a35
00000100: 9581 0a3b 0857 2a39 7fc8 2c3a 9b91 7eba
00000110: 49fd 6bb7 dc70 b8b6 3107 4e3a 2d33 feba
00000120: 390d 14bb b894 e6ba a100 a4ba abc3 22ba
00000130: 7eb7 3039 07f1 603a ca43 42ba 3c29 02b9
00000140: 8de8 363a 28f5 7b3a 478a d93a b0fc 5ab9
00000150: 0377 9db9 9538 d4ba 5fac df3a 6ffc 27ba
00000160: 073f 693b e967 b43a 8b76 c538 5521 4fba
00000170: c833 e2b8 8a57 d8ba 6c08 70ba 7e09 2eba

transformer.encoder.layers.0.self_attn.out_proj.weight f4 [32, 32]
0.18613179 0.190609 0.15930024 -0.25236169 0.18404686 0.27568462 0.02813049 -0.25198793
0.25825596 -0.16502742 0.15175752 0.04378309 0.2064639 -0.005959704 -0.039334837 -0.27576956
-0.24514055 0.039392717 -0.11686573 -0.10184642 0.25292468 -0.04824915 0.020601708 -0.1357528
0.27646518 0.016860122 0.019785145 0.07365066 -0.13978165 0.03214672 0.06449767 -0.18933246
-0.13489994 -0.3034789 0.036935 -0.0452616 -0.11128113 0.20383352 -0.28326562 -0.18927446
0.23054875 0.056293402 -0.25277287 0.2405946 -0.114300705 -0.16716947 0.19228256 0.061424904
0.23342851 0.016773822 -0.052649967 -0.06322834 0.19242212 0.211039 0.12437027 0.12757517
0.1298801 -0.123617776 -0.061378952 0.00032519223 -0.19141278 0.30319893 0.24038772 -0.18145284
0.181379 -0.044633985 0.21946675 -0.14659467 0.29897803 -0.075521246 0.21965605 0.25265908
0.020031702 -0.013653663 -0.05054735 -0.29745078 0.05000902 0.056263022 -0.14026822 0.0908292
0.22312513 -0.29265067 0.24575657 0.031541914 0.13363574 0.08257032 0.26098022 0.22788432
0.14922948 -0.061088465 -0.08833744 -0.25907132 -0.27096093 -0.29866937 0.2733033 -0.30256546
0.22407496 -0.2942006 0.28102612 0.08860698 0.07183224 -0.07734871 -0.045896858 0.27132326
0.0055732797 0.0145146195 0.07910688 0.23426022 -0.12769526 0.14244217 -0.018160487 -0.14074157
0.12558818 0.10272972 -0.14801975 -0.23883097 -0.23142087 -0.20329851 0.28955293 0.2119934
-0.2528922 0.24682984 -0.052079324 0.0063993614 0.18164892 0.24985431 0.005065424 0.03361628
0.03811639 -0.29049486 -4.237321e-05 -0.27402306 0.22420181 -0.23659068 0.07179541 0.24727158
0.24362934 -0.2880296 -0.08068214 0.17423622 -0.23847431 0.0006937033 -0.11822736 0.020108726
0.12276401 0.07269394 0.1082157 -0.06503814 -0.2383063 0.17912021 0.2513141 0.23411366
-0.2961599 -0.10767165 -0.19796956 -0.19871219 -0.29278508 0.10509191 0.017772328 0.0045507136
-0.25346678 0.13617317 0.01880137 0.04214572 -0.020659331 -0.052820727 0.11827533 0.09244384
-0.05567336 0.24434924 0.20597261 0.07636416 0.13720337 -0.10290623 -0.09454906 -0.105871476
0.126983 0.09542926 -0.27023783 -0.035998303 0.21215445 0.2647495 0.0966048 -0.0022338557
-0.16235614 -0.1714666 -0.02389224 -0.030524904 -0.18386489 0.30688134 0.14386766 0.16859916
-0.2264724 0.058491938 0.17592362 0.13755523 0.2705807 -0.049426436 -0.2142443 -0.14151153
-0.29755884 0.2567451 -0.09996878 0.15977435 0.14857139 0.035890628 0.02032036 -0.23649344
0.016069299 -0.016270366 0.047855414 0.10963504 0.060027137 0.22952332 -0.034447003 0.25165415
-0.2079754 -0.24809806 0.054665912 0.20763585 0.22763254 0.19993947 0.2604875 0.059934925
-0.15379825 -0.15096377 0.103418805 0.0869704 0.10286508 -0.06626024 -0.06488598 0.07704286
0.068747245 -0.05140085 -0.08799552 0.1437211 -0.034120157 0.09176538 -0.25115657 0.20860223
-0.17100239 -0.21212399 0.03757786 0.03221914 0.0062366994 -0.28565606 -0.09957569 0.26291233
0.15011771 0.109302826 0.26246613 -0.034786753 -0.2872652 -0.07073862 -0.18925436 0.0052137813
00000000: 5599 3e3e 012f 433e 9a1f 233e 8d35 81be
00000010: c876 3c3e 8926 8d3e ea71 e63c 9004 81be
00000020: 203a 843e f3fc 28be 5366 1b3e e655 333d
00000030: 466b 533e 9f49 c3bb 911d 21bd ab31 8dbe
00000040: 2006 7bbe 425a 213d 4d57 efbd db94 d0bd
00000050: 587f 813e e7a0 45bd eac4 a83c c802 0bbe
00000060: d88c 8d3e 3d1e 8a3c 7514 a23c 28d6 963d
00000070: ec22 0fbe 47ac 033d 5b17 843d 5ee0 41be
00000080: 3623 0abe 9661 9bbe 2849 173d 3a64 39bd
00000090: 5ce7 e3bd bcb9 503e 3108 91be 2ad1 41be
000000a0: f914 6c3e e993 663d 726b 81be 6e5e 763e
000000b0: 7d16 eabd 792e 2bbe b8e5 443e ae98 7b3d
000000c0: e207 6f3e 4169 893c 7ea7 57bd dc7d 81bd
000000d0: 4e0a 453e 9c1a 583e d7b5 fe3d 11a3 023e
000000e0: 4aff 043e 512b fdbd 7f68 7bbd 907e aa39
000000f0: b601 44be e43c 9b3e 3328 763e c6ce 39be
00000100: 6bbb 393e 20d2 36bd e4bb 603e ea1c 16be
00000110: a613 993e e2aa 9abd 84ed 603e 885c 813e
00000120: 8619 a43c 9db3 5fbc bd0a 4fbd 784b 98be
00000130: 42d6 4c3d 0e74 663d 79a2 0fbe a904 ba3d
00000140: ea7a 643e 4fd6 95be 9ca7 7b3e 1832 013d
00000150: cfd7 083e a11a a93d 339f 853e 825a 693e
00000160: 9dcf 183e e637 7abd 42ea b4bd ffa4 84be
00000170: 64bb 8abe 31eb 98be 69ee 8b3e dce9 9abe
00000180: e873 653e 76a1 96be a8e2 8f3e 9477 b53d
00000190: c81c 933d 0069 9ebd 58fe 3bbd e2ea 8a3e
000001a0: 0fa0 b63b bace 6d3c ca02 a23d e9e1 6f3e
000001b0: 8cc2 02be 5cdc 113e 4dc5 94bc 8f1e 10be
000001c0: 309a 003e f663 d23d 7d92 17be 1b90 74be
000001d0: 98f9 6cbe 7c2d 50be 4840 943e cc14 593e
000001e0: 167b 81be f6c0 7c3e 2151 55bd bcb1 d13b
000001f0: 2d02 3a3e cfd9 7f3e dbfb a53b 39b1 093d
00000200: ef1f 1c3d bebb 94be e3b9 31b8 c04c 8cbe
00000210: 2995 653e d444 72be 7909 933d c334 7d3e
00000220: f879 793e 9e78 93be ae3c a5bd fb6a 323e
00000230: 9c32 74be a4d9 353a 3021 f2bd 0ebb a43c
00000240: b36b fb3d 8fe0 943d 31a0 dd3d b732 85bd
00000250: 9106 74be 4a6b 373e 3eac 803e 7ebb 6f3e
00000260: 45a2 97be f482 dcbd 88b8 4abe 357b 4bbe
00000270: ede7 95be 6d3a d73d 4697 913c 271e 953b
00000280: 66c6 81be fb70 0b3e 5505 9a3c fea0 2c3d
00000290: c23d a9bc 8c5a 58bd 563a f23d 3253 bd3d
000002a0: c009 64bd b036 7a3e 7cea 523e d064 9c3d
000002b0: 0a7f 0c3e 80c0 d2bd f0a2 c1bd 25d3 d8bd
000002c0: d507 023e 6a70 c33d 9d5c 8abe f572 13bd
000002d0: 043f 593e 3f8d 873e bdd8 c53d e165 12bb
000002e0: b040 26be f194 2fbe a9b9 c3bc 5d0f fabc
000002f0: 1447 3cbe 8d1f 9d3e 0b52 133e 42a5 2c3e
00000300: 61e8 67be 3e95 6f3d 5225 343e 47db 0c3e
00000310: 8e89 8a3e 6073 4abd dc62 5bbe 66e8 10be
00000320: a259 98be 1874 833e 6fbc ccbd e39b 233e
00000330: 1923 183e 0d02 133d e276 a63c 562b 72be
00000340: c3a3 833c 6e49 85bc 0a04 443d 5688 e03d
00000350: 04df 753d 2908 6b3e 4d18 0dbd d0d8 803e
00000360: 81f7 54be 6b0d 7ebe 5de9 5f3d 7e9e 543e
00000370: 8118 693e efbc 4c3e 9e5e 853e 537e 753d
00000380: 4a7d 1dbe 3f96 1abe 3dcd d33d 891d b23d
00000390: edaa d23d 73b3 87bd f1e2 84bd a6c8 9d3d
000003a0: 5bcb 8c3d b389 52bd ff36 b4bd a02b 133e
000003b0: 94c1 0bbd 7def bb3d 9897 80be d39b 553e
000003c0: 401b 2fbe 0837 59be 3eeb 193d 38f8 033d
000003d0: 3a5d cc3b 8341 92be 57ee cbbd 729c 863e
000003e0: 75b8 193e 29da df3d f661 863e 8e7c 0ebd
000003f0: 6d14 93be 69df 90bd e5cb 41be 5ed8 aa3b

transformer.encoder.layers.0.self_attn.out_proj.bias f4 [32]
-0.0012589159 -0.0012840927 0.00166762 -0.0002404861 -0.0001478914 -0.0019316971 -0.001153721 0.00039497367
0.00012442534 -0.00013843125 0.00033479434 0.0006677874 -0.0015547159 0.0006501929 -0.00057924766 0.00015162225
0.0020548725 -4.1867337e-05 0.0004057313 -0.0023900236 0.00065954856 0.0009639436 -0.00011628608 0.0005703246
-0.00057768286 -0.0014864474 -0.00094023615 -0.0001930389 -0.00027962544 0.0010158896 0.00087957096 -6.456354e-05
00000000: 3502 a5ba 004f a8ba 0b94 da3a ff2a 7cb9
00000010: 4c13 1bb9 0031 fdba 7438 97ba 7814 cf39
00000020: 2c78 0239 db27 11b9 5687 af39 740e 2f3a
00000030: 9cc7 cbba b571 2a3a a7d8 17ba cafc 1e39
00000040: 0aab 063b b69a 2fb8 55b8 d439 f1a1 1cbb
00000050: 8ee5 2c3a 29b1 7c3a 9dde f3b8 d681 153a
00000060: a46f 17ba e6d4 c2ba 2e7a 76ba 7c6a 4ab9
00000070: b19a 92b9 9927 853a 0293 663a 4966 87b8

transformer.encoder.layers.0.linear1.weight f4 [256, 32]
0.020848319 0.07650689 0.0056397584 0.10090852 -0.060184065 0.115712814 0.07111374 -0.014652899
0.066164136 0.116971366 0.042482026 0.1335753 -0.065350495 0.06296965 0.039394643 -0.13862135
-0.13212489 -0.11930866 -0.06236911 -0.12888761 0.09819171 0.082280315 0.115555145 -0.004820419
-0.025928441 -0.04933714 0.08859125 0.1305368 -0.09698485 0.052629616 0.087917976 0.031131627
-0.037351362 0.051703963 -0.11226939 0.09388369 0.059544124 0.13784206 0.045303006 -0.03181103
0.10160421 -0.105094776 0.0022174136 0.09735507 -0.12602563 -0.015358937 0.11961546 -0.113789886
-0.09127716 -0.013858883 -0.0749536 0.019256772 -0.05755283 -0.11182194 0.08469846 -0.036878232
-0.11006738 -0.09407407 -0.14208105 -0.045294087 0.08680948 0.09596771 -0.09481081 -0.09005402
-0.08451706 -0.043412182 0.075932674 0.046543166 0.12014519 0.07749843 0.12855428 0.102818124
-0.0062772688 0.070806086 -0.06847071 -0.016105112 0.10342614 -0.12193655 -0.041458156 -0.05892214
0.08222597 0.004965536 0.10181215 0.10283921 -0.12747484 -0.08859529 -0.12209909 -0.09513632
0.058652803 0.11744788 -0.015215386 -0.082942136 0.13188557 -0.07044572 0.14102653 -0.06218458
0.102688536 0.041293725 -0.05507705 0.13915144 0.08879372 -0.11197696 0.12710525 0.123552285
0.008973761 -0.028101332 0.11343105 -0.009841746 -0.12605408 -0.05258756 -0.096425645 -0.069591135
-0.13976547 -0.09353455 -0.12967497 0.056373335 0.044389192 -0.13796669 -0.12532394 -0.038672645
0.005454246 -0.004111422 -0.011478398 -0.033531185 -0.015546966 0.0155508 -0.040480584 0.058241554
-0.062860005 0.10709438 0.04292641 0.0602581 -0.106405206 0.092734925 0.11163861 -0.0648552
0.04754389 0.061913144 0.03398924 0.037860606 -0.08428911 -0.060356498 0.12057631 0.094865404
-0.015769657 -0.14209692 0.035635356 0.11603754 0.047360018 -0.12439351 0.05562302 0.066797614
-0.10741347 -0.074322544 0.0399664 -0.12035468 -0.078697406 0.09744988 -0.09307122 -0.061273117
0.06257326 0.08378275 0.12507771 -0.124044284 -0.1336451 0.051746484 0.07725248 0.08691812
-0.13284107 0.10638672 -0.069686174 0.007034206 -0.13297974 0.01786625 0.052165966 -0.048307136
-0.0036366857 -0.066072516 0.009328949 -0.10501906 -0.11561414 -0.050859798 -0.1326678 0.1086001
-0.041204005 0.091777995 0.029410385 0.04878654 0.0016782719 -0.033892523 0.102774456 0.13852912
0.00908964 0.07281048 -0.01064347 0.013388985 0.08576498 0.015822997 -0.10136072 -0.06925565
-0.13924444 -0.0077381 0.0717586 -0.104844026 -0.13071217 -0.13644455 -0.09107101 0.049115427
0.11682365 0.12736952 0.14005624 -0.08586296 0.039149676 0.010965447 -0.028194955 0.048693996
0.11611024 -0.10376665 0.025326796 0.12521209 -0.018045746 -0.108683206 0.121773235 -0.00550579
0.06452132 -0.040110707 0.044270884 -0.1440996 0.01560601 -0.09284188 0.086106844 0.09436821
0.113547504 -0.13992536 -0.110365115 0.10806532 0.06762242 -0.045659773 0.12534563 0.127623
-0.03444086 0.07403516 0.08716645 0.026200257 -0.035583217 0.05888346 -0.031150313 -0.052796755
-0.020063715 0.07141451 0.067226075 -0.025861228 -0.073174685 -0.066303015 -0.10899093 0.0010992616
00000000: 18ca aa3c a5af 9c3d b9cd b83b 20a9 ce3d
00000010: 9183 76bd d7fa ec3d 15a4 913d b612 70bc
00000020: 1081 873d af8e ef3d a201 2e3d f7c7 083e
00000030: 7bd6 85bd 3bf6 803d 475c 213d c1f2 0dbe
00000040: bf4b 07be 1958 f4bd c076 7fbd 1dfb 03be
00000050: bc18 c93d 9582 a83d 2da8 ec3d 9bf4 9dbb
00000060: e267 d4bc be15 4abd 546f b53d 70ab 053e
00000070: fe9f c6bd 2792 573d 570e b43d c107 ff3c
00000080: befd 18bd 89c7 533d 7eed e5bd 1846 c03d
00000090: 8ae4 733d 7826 0d3e a58f 393d 484c 02bd
000000a0: de15 d03d ee3b d7bd 0752 113b 1862 c73d
000000b0: dd0c 01be 0da4 7bbc f3f8 f43d ac0a e9bd
000000c0: 85ef babd 5e10 63bc 4681 99bd 61c0 9d3c
000000d0: 84bc 6bbd e702 e5bd 6376 ad3d a10d 17bd
000000e0: 026b e1bd e8a9 c0bd b27d 11be 4b86 39bd
000000f0: 2bc9 b13d b88a c43d 2c2c c2bd 3e6e b8bd
00000100: 4817 adbd f9d0 31bd 9782 9b3d 0ca4 3e3d
00000110: ae0e f63d 7fb7 9e3d bca3 033e 4f92 d23d
00000120: 8cb1 cdbb c802 913d 5f3a 8cbd deee 83bc
00000130: 16d1 d33d dfb9 f9bd 07d0 29bd 5858 71bd
00000140: 1766 a83d efb5 a23b e382 d03d 5d9d d23d
00000150: c488 02be 7371 b5bd 160f fabd d5d6 c2bd
00000160: ec3d 703d 8488 f03d f449 79bc 91dd a9bd
00000170: 030d 073e d845 90bd 4269 103e 42b5 7ebd
00000180: 5e4e d23d 9c23 293d 7998 61bd b77d 0e3e
00000190: 7bd9 b53d 2d54 e5bd e127 023e fb08 fd3d
000001a0: af06 133c c434 e6bc 8a4e e83d 463f 21bc
000001b0: 5214 01be 0e66 57bd cf7a c5bd cc85 8ebd
000001c0: ae1e 0fbe 0b8f bfbd 84c9 04be bae7 663d
000001d0: 71d1 353d 2447 0dbe eb54 00be 3567 1ebd
000001e0: 88b9 b23b 1cb9 86bb e40f 3cbc ff57 09bd
000001f0: b4b8 7ebc c8c8 7e3c f8ce 25bd b28e 6e3d
00000200: bfbc 80bd 4c54 db3d 9ad3 2f3d 33d1 763d
00000210: f9ea d9bd cfeb bd3d c9a2 e43d ced2 84bd
00000220: 62bd 423d a398 7d3d 4d38 0b3d b913 1b3d
00000230: c59f acbd 6038 77bd b6f0 f63d cb48 c23d
00000240: 5e2f 81bc db81 11be 61f6 113d 17a5 ed3d
00000250: 94fc 413d 06c2 febd f7d4 633d 30cd 883d
00000260: 98fb dbbd 6b36 98bd cfb3 233d 847c f6bd
00000270: 1b2c a1bd cd93 c73d 209c bebd 85f9 7abd
00000280: 6926 803d 4a96 ab3d 5f14 003e ee0a febd
00000290: 43da 08be 1ff4 533d 8c36 9e3d 2102 b23d
000002a0: 7d07 08be 48e1 d93d a0b7 8ebd 327f e63b
000002b0: d72b 08be 3e5c 923c fbab 553d b4dd 45bd
000002c0: 7655 6ebb 0751 87bd 73d8 183c 3c14 d7bd
000002d0: 1bc7 ecbd 5d52 50bd 11da 07be bb69 de3d
000002e0: 88c5 28bd 1af6 bb3d 0cee f03c 65d4 473d
000002f0: 76f9 db3a e3d2 0abd 6a7b d23d 94da 0d3e
00000300: b7ec 143c a91d 953d f361 2ebc 795d 5b3c
00000310: 8da5 af3d 3b9f 813c 3696 cfbd e8d5 8dbd
00000320: 1896 0ebe e38f fdbb 2cf6 923d 77b8 d6bd
00000330: 69d9 05be 1fb8 0bbe 7083 babd 422d 493d
00000340: 3d41 ef3d 286d 023e e76a 0f3e ebd8 afbd
00000350: 695b 203d 6ba8 333c 1bf9 e6bc 5b73 473d
00000360: 35cb ed3d 9c83 d4bd 247a cf3c 9937 003e
00000370: acd4 93bc 4d95 debd 3f64 f93d ea69 b4bb
00000380: c123 843d 204b 24bd 6355 353d d88e 13be
00000390: 5ab0 7f3c e223 bebd c958 b03d 1f44 c13d
000003a0: 988b e83d 9848 0fbe 1b07 e2bd 5a51 dd3d
000003b0: a07d 8a3d be05 3bbd 9b5a 003e 9baf 023e
000003c0: dc11 0dbd bf9f 973d 5384 b23d eca1 d63c
000003d0: b5bf 11bd c82f 713d f12e ffbc 6941 58bd
000003e0: a95c a4bc c541 923d d3ad 893d edda d3bc
000003f0: 9cdc 95bd e0c9 87bd a336 dfbd 1915 903a
