models/2023-06-30 16:23:23.620774/model.pt (torch, 400579 bytes, 70 tensors)

input_embedding.weight f4 [16, 32]
0	0xbbed1b9f	-0.0072359587
1	0xbd188604	-0.037237182
2	0x3daebc30	0.08531988
3	0xbd016301	-0.031588558
4	0x3dcf7ebe	0.10131596
5	0xbc0c867e	-0.008576987
6	0xbd8e33b4	-0.06943455
7	0xbd8c6949	-0.06856019
8	0x3d88a5f7	0.0667228
9	0x3c72e2fd	0.014824626
10	0x3d23de56	0.040006958
11	0xbcff4401	-0.031160356
12	0x3d6fc00f	0.05853277
13	0xbd3e2f7b	-0.046432
14	0x3c765b65	0.015036439
15	0xbaf0ffbc	-0.0018386762
16	0xbce835c7	-0.028345956
17	0x3c74c664	0.014939878
18	0x3c5eba46	0.013594216
19	0x3a603912	0.0008553426
20	0xbd680397	-0.05664405
21	0xbdcfbf5e	-0.10143922
22	0x3d276373	0.040866327
23	0x3c19019c	0.009338763
24	0xbd9c6119	-0.076357074
25	0xbd5c64cb	-0.05380706
26	0x3dcf6621	0.101269014
27	0x3cc80d5c	0.024420433
28	0xbbb30f3d	-0.005464463
29	0x3d9c06b4	0.07618466
30	0x3d9f24e0	0.07770705
31	0x3d320c17	0.04346856
32	0xbd4242cd	-0.047426987
33	0xbdc2898a	-0.0949889
34	0x3d871d6b	0.06597408
35	0xbc82fa87	-0.015988601
36	0x3d2bcaad	0.041941334
37	0x3d2b078a	0.041755237
38	0x3d7e2f1a	0.06205664
39	0x3c9a2027	0.01881416
40	0xbd855b52	-0.065115586
41	0xbda3d1cf	-0.07999002
42	0xbd1d090a	-0.0383387
43	0x3d93d038	0.07217449
44	0x3ce7ab00	0.028279781
45	0x3d2cc69d	0.0421816
46	0xbc9cd620	-0.019145072
47	0x3d513330	0.051074207
48	0xbd19561a	-0.03743563
49	0xbd9f0688	-0.077649176
50	0xbd040083	-0.03222705
51	0x3d043c50	0.03228408
52	0x3d45192a	0.0481197
53	0x3d9faa9f	0.07796215
54	0xbdcb4b2b	-0.099264465
55	0xbd38602a	-0.045013584
56	0xbb339500	-0.0027402043
57	0xbd47b970	-0.04876083
58	0xbcd134e0	-0.025537908
59	0xbdabfa72	-0.08397378
60	0x3d90badb	0.0706689
61	0x3d9ef32f	0.07761227
62	0xbdaa5380	-0.083167076
63	0xbc273727	-0.01020602
64	0x3dad0cf5	0.08449737
65	0xbdba7bf2	-0.09105672
66	0xbd46a46d	-0.048496652
67	0xbd88efc5	-0.066863574
68	0x3d10130a	0.035174407
69	0x3bac30e7	0.005254853
70	0xbc7d880d	-0.015474332
71	0xbcb1736d	-0.021661485
72	0x3d1eec67	0.03879967
73	0x3dc571ba	0.09640832
74	0x3d8e7a22	0.06956889
75	0xbd9ce4b7	-0.076608114
76	0x3d13c763	0.036078822
77	0xbb0e0100	-0.0021668077
78	0xbceaf493	-0.028681075
79	0xbd060c40	-0.032726526
80	0x3d93670d	0.0719739
81	0x3d4799f3	0.0487308
82	0xbd996b1f	-0.07491135
83	0xbd87d81a	-0.06633015
84	0xbd6fe317	-0.05856618
85	0x3d9ec4cb	0.07752379
86	0xbcc17280	-0.023614168
87	0x3d6d5070	0.05793804
88	0x3d82f3ab	0.06394132
89	0xbda16d87	-0.07882219
90	0xbd891627	-0.06693678
91	0xbd9f182d	-0.07768283
92	0xbcf938a0	-0.030422509
93	0x3dc50733	0.09620514
94	0x3ca8e360	0.020616233
95	0xbce121cd	-0.027481938
96	0xbd7a90ed	-0.06117337
97	0xbd6259ad	-0.055261303
98	0xbd81c9fb	-0.06337353
99	0xbdb3b76a	-0.08775218
100	0x3d39eb8d	0.045390654
101	0xbd42bbf0	-0.047542512
102	0xbc3e1b8d	-0.011603248
103	0x3beb8bcd	0.0071882964
104	0xbbb40133	-0.005493307
105	0xbd1b37ca	-0.037895
106	0xbdc7832d	-0.09741817
107	0xbdac4cc7	-0.084130816
108	0x3cc738ed	0.024319137
109	0x3da36f78	0.07980245
110	0xbc9db5d3	-0.01925174
111	0xbd8d272a	-0.068922356
112	0xbd8109c5	-0.063006915
113	0x3c449d67	0.012000418
114	0x3d399ab0	0.045313537
115	0xbd734d67	-0.05939999
116	0x3c8ebe67	0.017424775
117	0x3d01c220	0.031679273
118	0xbd49a64a	-0.04923085
119	0xbd6bff8a	-0.057616748
120	0xbd8f0ba3	-0.069846414
121	0xbd515bda	-0.051112987
122	0x3cdd6600	0.027026176
123	0xbd9396ba	-0.07206483
124	0x3dc8e293	0.098088406
125	0x3c386380	0.011254191
126	0xbcbe5160	-0.023232162
127	0x3da8bb95	0.082389034
128	0x3d83f152	0.064425126
129	0x3dbe0f23	0.09280231
130	0xbc71c040	-0.014755309
131	0x3d1fa18d	0.038972426
132	0x3d5c28c7	0.053749826
133	0xbce4d533	-0.027933693
134	0xbdb88a5d	-0.09010766
135	0x3c8e6473	0.017381882
136	0xbcf25bcd	-0.02958479
137	0x3d9725e3	0.07380273
138	0x3d2f7f50	0.042846024
139	0x3c861253	0.01636616
140	0x3d4d5d20	0.05013764
141	0xbbc82100	-0.0061074495
142	0xbc8c637a	-0.017137278
143	0x3d800865	0.06251601
144	0xbd715290	-0.05891663
145	0x3db40023	0.087890886
146	0xbd210577	-0.039311852
147	0x3da742c5	0.08167032
148	0x3ceedd60	0.029158294
149	0xbc0bed67	-0.008540488
150	0x3dbcad78	0.09212774
151	0xbdb92cb8	-0.090417325
152	0xbda8bee3	-0.08239534
153	0xbd8cb315	-0.06870095
154	0xbd6f04a0	-0.05835402
155	0xbd13b2f0	-0.03605932
156	0xbdb7854f	-0.089609735
157	0x3cbbe0c0	0.022934318
158	0xbdb0091f	-0.0859549
159	0x3dbeedad	0.09322677
160	0xbb83499a	-0.0040065767
161	0xbcd832c7	-0.0263914
162	0x3ce8d847	0.028423442
163	0xbd38f7ca	-0.045158185
164	0xbb959133	-0.0045644282
165	0x3d75a120	0.059968114
166	0xbd88f18f	-0.06686699
167	0xbcb9f12d	-0.02269801
168	0x3b89a84d	0.004200971
169	0x3db574a8	0.08860141
170	0x3d623eca	0.05523566
171	0xbc7e9c1a	-0.015540147
172	0xbd8eb512	-0.0696813
173	0x3cff259a	0.03114586
174	0xbd8ceb40	-0.06880808
175	0xbd9d7292	-0.07687868
176	0x3da474d7	0.08030098
177	0xbd984b02	-0.074361816
178	0xbdbbbeb0	-0.0916723
179	0xbbbd6b1a	-0.0057805898
180	0xbd3a54f3	-0.04549117
181	0x3cfb9b0d	0.030713582
182	0xbbfa1f9a	-0.0076331617
183	0x3d9e4a80	0.077290535
184	0x3d7773ca	0.06041316
185	0x3d87cc93	0.06630816
186	0x3cb72107	0.022354616
187	0xbcc85e20	-0.024458945
188	0x3d8d529b	0.06900521
189	0x3da8913a	0.08230825
190	0xbd14697d	-0.036233414
191	0xbd474cea	-0.048657335
192	0xbcbb953a	-0.022898305
193	0xbd91b13d	-0.07113884
194	0x3d498d5a	0.04920707
195	0xbcda6c1a	-0.026662875
196	0xbd937e9d	-0.07201884
197	0xbb81bab3	-0.003959024
198	0xbc98c96d	-0.018650735
199	0x3da10158	0.078615844
200	0xbd12cf97	-0.035842504
201	0xbacacf33	-0.0015473127
202	0xbc5fcaa7	-0.013659156
203	0x3cdabb00	0.026700497
204	0xbda84330	-0.0821594
205	0x3d83bbb8	0.06432289
206	0x3ce51640	0.027964711
207	0xbd6dd56a	-0.058064856
208	0x3d8a74ab	0.06760534
209	0xbc50401a	-0.0127105955
210	0xba1b28cd	-0.00059188606
211	0x3d795a13	0.060876917
212	0xbd96f5aa	-0.073710755
213	0x3d8d2183	0.068911575
214	0xbd0b6297	-0.03402957
215	0x3d0860d3	0.033295464
216	0x3d8c6de0	0.068568945
217	0x3d4b2440	0.049595118
218	0xbc1569a7	-0.009119428
219	0xbd94eb92	-0.07271494
220	0x3dbe6e33	0.092983626
221	0xbda117c2	-0.078658596
222	0x3d25b24a	0.040453233
223	0xbd7f37b0	-0.062308967
224	0xbdb5db07	-0.08879667
225	0xbbb1f800	-0.005431175
226	0xbc529c00	-0.012854576
227	0x3d805c85	0.06267647
228	0xbd67b13a	-0.0565655
229	0xbda2aed7	-0.07943504
230	0xbd965de8	-0.0734213
231	0xbd1eb040	-0.038742304
232	0xbd971a3f	-0.07378053
233	0xbd9fb49d	-0.07798121
234	0xba5ce8cd	-0.0008427024
235	0xbd1ada07	-0.037805583
236	0x3d565b03	0.05233289
237	0xbc516173	-0.012779581
238	0xbda7a077	-0.08184903
239	0xbd57df73	-0.052703332
240	0xbc4e848d	-0.012604845
241	0x3d505e0d	0.050870944
242	0xbd41b10d	-0.04728799
243	0x3cd30b5a	0.025762249
244	0x3dac0270	0.083989024
245	0xbd44fc53	-0.048092198
246	0x3da3ae00	0.07992172
247	0xbc84785a	-0.01617067
248	0x3d72665d	0.059179652
249	0xbd90d55a	-0.070719436
250	0xbd7316cd	-0.059347916
251	0xbce4b140	-0.02791655
252	0xbd8b8f7a	-0.06814475
253	0xbd8c51c5	-0.06851534
254	0x3d09b5ad	0.033620525
255	0xbcede46d	-0.029039586

output_embedding.weight f4 [9, 32]
0	0xbd99641c	-0.074897975
1	0xbd4923ce	-0.04910641
2	0xbcce2e45	-0.025168547
3	0xbd884820	-0.06654382
4	0xbb9dbea6	-0.004813987
5	0x3d5e25b2	0.054235168
6	0x3d904ebd	0.07046268
7	0xbd37a5e6	-0.044835947
8	0x3dd22ae6	0.102620885
9	0x3bc59a8f	0.0060303877
10	0x3d31a8d1	0.043373886
11	0xbd617f0c	-0.055052802
12	0xbd9003a2	-0.07031943
13	0xbc3e341a	-0.011609102
14	0xbd067e25	-0.032835145
15	0xbd7a3800	-0.061088562
16	0x3db46c5b	0.0880973
17	0xbcb23752	-0.021754894
18	0x3d1ad683	0.03780223
19	0x3dbcc490	0.09217179
20	0xbdb5aa1f	-0.08870339
21	0xbd916ef9	-0.071012445
22	0xbd50771c	-0.05089484
23	0x3d242d51	0.04008228
24	0xbd04ef5b	-0.03245483
25	0x3db40c6d	0.087914325
26	0xbdac603c	-0.08416793
27	0x3c1803ce	0.009278251
28	0x3d872b81	0.066000946
29	0x3d85bd18	0.065302074
30	0x3d8d84be	0.06910084
31	0xbd7b024d	-0.06128149
32	0xbd56f0ad	-0.05247562
33	0xbcabdc40	-0.020979047
34	0x3db03195	0.08603207
35	0x3d863892	0.06553759
36	0x3cd592e0	0.026071012
37	0x3d03572d	0.03206556
38	0xbd11bfed	-0.035583425
39	0xbce4caa7	-0.027928663
40	0xbdc00360	-0.09375644
41	0xbca8466d	-0.020541394
42	0xbda01f68	-0.0781849
43	0xbd25e98d	-0.040505935
44	0x3d4ccf30	0.050002277
45	0xbbef27b3	-0.0072984337
46	0x3bc83300	0.0061095953
47	0xbd2245ba	-0.039617278
48	0xbdc0d57b	-0.09415718
49	0xbdbf7e58	-0.0935027
50	0x3d9ca2fd	0.07648275
51	0x3d5d09c3	0.053964388
52	0x3dc65dd5	0.09685866
53	0xbdc0d1d2	-0.0941502
54	0xbdbae64b	-0.09125956
55	0xbdb875e3	-0.0900686
56	0x3c5b44b3	0.013383078
57	0xbcb6ecc0	-0.022329688
58	0x3db67353	0.08908715
59	0x3d6b9bcd	0.05752163
60	0x3d2af09d	0.041733373
61	0x3da37425	0.07981137
62	0x3d9fcd4a	0.07802828
63	0x3d2b421a	0.041811086
64	0x3cebd387	0.028787388
65	0x3d6a435c	0.057193145
66	0x3d315f7b	0.043303948
67	0xbdb74adb	-0.089498244
68	0xbc21b171	-0.0098689655
69	0xbcc14335	-0.023591617
70	0x3d424e6e	0.047438078
71	0x3d945764	0.07243231
72	0x3d9632c9	0.07333905
73	0xbdbcb4c5	-0.092141666
74	0xbd6ee571	-0.05832428
75	0x3c0d4285	0.0086218165
76	0x3d88458f	0.06653892
77	0xbdb606c3	-0.088880084
78	0xbd5e7af8	-0.05431649
79	0x3d93116f	0.071810596
80	0xbd50f05f	-0.051010486
81	0xbc71328d	-0.014721525
82	0xbd9e1b42	-0.07720043
83	0xbc8b2122	-0.016983572
84	0x3d26319f	0.040574666
85	0xbc89cfc4	-0.016822703
86	0xbd73b849	-0.05950192
87	0x3b950303	0.004547478
88	0xbcf8f477	-0.030390007
89	0x3bfca019	0.007709515
90	0x3db21357	0.08695095
91	0x3db75307	0.08951383
92	0x3dbc2cc2	0.091882244
93	0x3d63e2ec	0.05563633
94	0x3d3f6b5a	0.046733238
95	0x3c317b71	0.010832653
96	0x3d3c078a	0.045905627
97	0xba8d5af3	-0.0010784551
98	0x3c741220	0.014896899
99	0x3d427ab3	0.047480296
100	0x3d82b463	0.06382062
101	0xbd76b02e	-0.06022661
102	0xbc31c917	-0.010851166
103	0x3d9df727	0.07713156
104	0xbd8652e5	-0.065587796
105	0xbd4218d3	-0.047386955
106	0xbd360f2c	-0.044448063
107	0xbdc5f533	-0.09665909
108	0x3b80dda9	0.003932674
109	0xbda49e3b	-0.080379926
110	0xbdb1d046	-0.08682303
111	0x3c62d1ce	0.013843967
112	0x3d6c39cd	0.05767231
113	0x3dc3493f	0.09535455
114	0xbd8514cb	-0.064981066
115	0xbc8f343c	-0.017480962
116	0x3c19069c	0.009339955
117	0xbd2059db	-0.039148193
118	0xbd6f1547	-0.0583699
119	0xbc7b463a	-0.015336568
120	0x3dbf913f	0.09353875
121	0xbd8bd85b	-0.06828376
122	0xbdb29bb5	-0.08721105
123	0xbd6453d6	-0.055744015
124	0xbd87fcb4	-0.06639996
125	0x3d972602	0.07380296
126	0x3b50223f	0.0031758694
127	0xbd8cddfd	-0.068782784
128	0xbd7bd423	-0.061481606
129	0xbd9468eb	-0.07246574
130	0x3d2f3be3	0.04278172
131	0x3d907f82	0.0705557
132	0xbd872d0b	-0.06600388
133	0xbd36ba1a	-0.044611074
134	0x3d8bff1f	0.0683577
135	0x3d5227c3	0.05130745
136	0x3db2c202	0.0872841
137	0x3d7bcc9a	0.06147442
138	0x3d840847	0.06446891
139	0x3dc6173b	0.096723996
140	0xbccf23e7	-0.025285674
141	0xbd8ddc4a	-0.069267824
142	0x3d54fbb3	0.05199785
143	0xbbd78c1a	-0.0065779807
144	0xbd31b5a7	-0.043386128
145	0xbdab64ed	-0.083688594
146	0x3d89239a	0.066962436
147	0x3d8675e3	0.06565454
148	0x3d77cb30	0.06049651
149	0xbdb94ee0	-0.09048247
150	0xbda68435	-0.08130685
151	0x3dc30073	0.0952157
152	0x3dbdac50	0.092613816
153	0xbd2aee30	-0.04173106
154	0x3d82d11b	0.0638754
155	0xbd3d04c7	-0.046147134
156	0xbd96b86a	-0.07359393
157	0xbc8676ad	-0.01641401
158	0x3d282cba	0.04105828
159	0xbc5e988d	-0.013586176
160	0xbce10da0	-0.027472317
161	0xbd13f3dd	-0.036121238
162	0xbdc4a082	-0.09600927
163	0x3cc3e39a	0.02391224
164	0x3d70b48a	0.058765925
165	0xbb3af533	-0.0028527498
166	0x3da996b5	0.08280698
167	0x3d69ba47	0.057062414
168	0xbd61e40a	-0.055149116
169	0xbcee19a7	-0.029064966
170	0x3d9a394d	0.075304605
171	0xbd12cd60	-0.035840392
172	0xbda973fb	-0.08274075
173	0xbd51b3d7	-0.0511969
174	0xbbd3569a	-0.0064495327
175	0x3d307f37	0.04309007
176	0x3cfdd227	0.030983998
177	0xbbc8dd33	-0.0061298846
178	0x3db64a8b	0.08900937
179	0x3d696c10	0.056987822
180	0xbd9dc748	-0.077040255
181	0xbca57ed3	-0.020202076
182	0xbd661930	-0.056176364
183	0x3cba55e0	0.022746027
184	0xbcca4013	-0.024688756
185	0xbdbd38e3	-0.09239366
186	0x3c7db940	0.015486062
187	0x3d266acd	0.040629197
188	0x3bd2469a	0.006417108
189	0x3d834ceb	0.06411155
190	0xbd2d1180	-0.042253017
191	0xbce7bc87	-0.028288139
192	0x3d0094d7	0.031391945
193	0xbcb4bcfa	-0.022062767
194	0xbc8409b8	-0.016117916
195	0x3c39f5e9	0.011350133
196	0x3cb51618	0.022105262
197	0xbdc90106	-0.09814648
198	0x3cfc5a59	0.0308048
199	0x3c8e086a	0.017337997
200	0xbca9c4c3	-0.020723706
201	0xbd83f2a6	-0.06442766
202	0xbdabad20	-0.0838263
203	0x3d14551e	0.036213987
204	0xbd0c0bea	-0.03419105
205	0xbc3953a2	-0.0113114435
206	0xbca6c139	-0.020355808
207	0x3c50e47e	0.012749789
208	0x3d207163	0.039170634
209	0x3c465e24	0.012107406
210	0xbc8f1c78	-0.01746963
211	0xbcd7919e	-0.026314553
212	0xbc6e1284	-0.014530782
213	0x3c831650	0.01600185
214	0xbd6aa3bb	-0.05728505
215	0xbd8b4541	-0.068003185
216	0xbdbc3dcc	-0.09191474
217	0x3dadfa26	0.08494978
218	0x3d0568d1	0.032570664
219	0x3da98fbc	0.08279368
220	0xbda0d1be	-0.07852505
221	0x3d6fdbbe	0.05855917
222	0xbd6aef9a	-0.057357408
223	0x3d81ca0d	0.06337366
224	0x3d253fa4	0.040343896
225	0xbd2fc1b1	-0.042909328
226	0x3cc0af14	0.023520984
227	0x3d63f81e	0.055656545
228	0xbcef83cb	-0.029237648
229	0xbcbea900	-0.023273945
230	0xbd52cc9e	-0.05146467
231	0x3cbdc27c	0.023164026
232	0xbda08b7a	-0.07839103
233	0x3ccaaeb8	0.024741516
234	0xbd2aaf04	-0.041670814
235	0x3db8ca0c	0.090229124
236	0xbca675c4	-0.020319827
237	0xbd9f1be3	-0.07768991
238	0x3d1828db	0.037148338
239	0xbd9860c4	-0.074403316
240	0xbcbea81b	-0.023273518
241	0xbca22969	-0.019795137
242	0x3d8bbded	0.06823335
243	0x3dc19640	0.09452486
244	0xbd9028c6	-0.07039027
245	0xbd8bb68f	-0.0682193
246	0x3d842dab	0.06454023
247	0xbb16bb1e	-0.0022999714
248	0x3da77b46	0.081778094
249	0xbcbb728f	-0.022881774
250	0x3d5490d6	0.05189594
251	0xbd36546c	-0.044514105
252	0xbce5ef7f	-0.028068302
253	0x3d795cc6	0.06087949
254	0x3d5f1cdd	0.054470886
255	0xbd56e7ab	-0.05246703

input_position_embedding.weight f4 [16, 32]
0	0xbf47b9e9	-0.7801805
1	0x3fb444fa	1.408355
2	0xc03ea30b	-2.9787014
3	0xbe15554d	-0.14583321
4	0xbeddc5ab	-0.4331487
5	0x3f8d02b4	1.101645
6	0xbf453225	-0.7702964
7	0xbe029634	-0.1275261
8	0xbf62bcf4	-0.8856957
9	0x3fffa88a	1.9973309
10	0xbfd91840	-1.6960526
11	0xbf2c5794	-0.67321134
12	0x3fa0e0a3	1.2568554
13	0xbf264e06	-0.64962804
14	0x3e23c666	0.15993652
15	0xbf618743	-0.8809702
16	0xc01ac1ff	-2.4180906
17	0xbf6ab263	-0.91678447
18	0x3f341bac	0.70354724
19	0xbf4150a9	-0.755137
20	0xbf80831a	-1.0040009
21	0xbed0eedd	-0.40807238
22	0x3f834a35	1.0257021
23	0xbe81fd2c	-0.25388467
24	0xc00c7407	-2.1945817
25	0xbde69fe9	-0.11260969
26	0xbfc883df	-1.5665244
27	0x3f0fc6ef	0.56162924
28	0xbea9b59f	-0.33146378
29	0x3f7515df	0.957365
30	0x3f128888	0.5723958
31	0xbf53bc0a	-0.827088
32	0xbe845d12	-0.25852257
33	0xbf1b05f2	-0.60555947
34	0xbe40c296	-0.18824229
35	0x3f75a8c8	0.95960665
36	0xbf820847	-1.0158776
37	0xbfc3c8a1	-1.5295602
38	0xbf9be5fb	-1.217956
39	0x3f5e487e	0.86829364
40	0xbfa191ad	-1.2622582
41	0x3f169305	0.58818084
42	0xbf6065f9	-0.876556
43	0xbf848398	-1.0352659
44	0xbe1772b1	-0.14789845
45	0xbf8a3c9d	-1.0799748
46	0xbe0efd82	-0.13963893
47	0xbfa0f3a8	-1.2574358
48	0x3e8a9f8b	0.27074847
49	0x3f3aeac4	0.73014474
50	0xbfa3dafb	-1.2801203
51	0xbeb76349	-0.35817936
52	0x3f98456d	1.1896187
53	0xbe37d48d	-0.17952175
54	0xbfe95fec	-1.8232398
55	0xbd52556c	-0.051350996
56	0xbf47b5e7	-0.78011936
57	0xbcc81208	-0.02442266
58	0xbf71cbf2	-0.9445182
59	0x3d9bd323	0.076086305
60	0xbd6fc372	-0.058536
61	0x3f45db6e	0.7728795
62	0x3ef0195e	0.46894354
63	0x3e850fd5	0.2598864
64	0x3f49c989	0.78823143
65	0x3faea8d1	1.3645269
66	0x3ebf4f3b	0.37365136
67	0xbf800e38	-1.0004339
68	0xbb7e02da	-0.0038759024
69	0x3f979b2d	1.1844231
70	0x3f417499	0.7556854
71	0x3fa46305	1.2842718
72	0xbf362b23	-0.7115957
73	0xbdf65fa6	-0.12029962
74	0x3f9e80e2	1.2383082
75	0x3e4b49a5	0.19852312
76	0x3c44dbaa	0.012015263
77	0x3e985dad	0.2975897
78	0x3f5eb675	0.8699716
79	0xbe80845a	-0.25100976
80	0xbf99afad	-1.2006737
81	0x3f82aebd	1.0209576
82	0xbec62129	-0.38697174
83	0xbd6903e4	-0.056888476
84	0x3f981c4f	1.1883639
85	0xc022ae80	-2.5419006
86	0xbeb4b138	-0.35291457
87	0xbfb52ca0	-1.4154243
88	0xbfa69caa	-1.301656
89	0xbfafb8bd	-1.3728253
90	0x3fd87079	1.6909324
91	0xbeeca571	-0.46219972
92	0x3ee2aac9	0.44270924
93	0x3f038df0	0.51388454
94	0xbf1cbb51	-0.6122332
95	0xbff930f5	-1.9468066
96	0xc00675c5	-2.100938
97	0x3ec7a3ec	0.3899225
98	0x3db2e125	0.08734349
99	0xbf5b7bef	-0.8573598
100	0xbfda909f	-1.7075385
101	0xbf46a475	-0.7759469
102	0x3ee78db3	0.45225295
103	0xbeb809fc	-0.35945117
104	0x3f45f7b9	0.7733112
105	0x4043a0ec	3.056697
106	0xc01f382a	-2.487803
107	0xbfd91c42	-1.6961749
108	0xbf72bcd0	-0.94819355
109	0xbf3c6107	-0.7358555
110	0xbe39f782	-0.18160823
111	0xbf4a7ed0	-0.7909975
112	0x3e1b03dd	0.15138192
113	0x3f04d1ad	0.5188244
114	0xbf16f166	-0.58962095
115	0x3f80164a	1.0006802
116	0x3f98c546	1.1935203
117	0xbca1deea	-0.019759614
118	0x3e8f818a	0.28028518
119	0x3fe7cf42	1.8110125
120	0xbea53054	-0.32263434
121	0x3e23f854	0.16012698
122	0xbfbde55f	-1.4835624
123	0x3f52c8a6	0.82337415
124	0xbf91e986	-1.1399391
125	0xbcf46559	-0.029833483
126	0xbc21d5a0	-0.009877592
127	0x3da353d6	0.07974975
128	0xbe17c966	-0.14822921
129	0x3f649f29	0.8930536
130	0xbf430769	-0.7618318
131	0xbfc4f702	-1.5387881
132	0xbf1f5936	-0.622455
133	0xbeb66a92	-0.35628182
134	0x3ffb4aa5	1.9632155
135	0x3e6fce27	0.23418485
136	0xbe00535b	-0.12531798
137	0x3fd7d6b1	1.6862394
138	0x4011ade6	2.276239
139	0xbf74efba	-0.95678294
140	0x3fe4705b	1.7846788
141	0x3e45ec90	0.19328523
142	0x3ea640cb	0.32471308
143	0x3d2e05db	0.042486053
144	0xbfb3e86a	-1.4055302
145	0x3df4a363	0.11945226
146	0xbea995d3	-0.3312212
147	0xbf573a6b	-0.84073514
148	0x3e8bd57e	0.2731132
149	0xbeb7a07a	-0.3586462
150	0x3fdc5c21	1.7215616
151	0x3fd61fa5	1.6728407
152	0xbf200645	-0.62509567
153	0x3f50ef28	0.81614923
154	0xbf123198	-0.57106924
155	0xbdf4a3ae	-0.11945282
156	0x3eaee8d3	0.34162006
157	0xbe934af2	-0.28768116
158	0xbefe72f6	-0.49697083
159	0x3db09a03	0.086231254
160	0x3d997826	0.074936196
161	0x3f171f5d	0.5903223
162	0x3ecc0f96	0.3985564
163	0xbf22c9ba	-0.6358906
164	0x3d3ff979	0.046868775
165	0x3fe8fa67	1.8201417
166	0x3fba80c8	1.4570551
167	0x3e3644c2	0.17799667
168	0xba0c55f2	-0.0005353383
169	0xbf929dc5	-1.1454397
170	0x400063a2	2.006081
171	0xbe354c29	-0.17704834
172	0xbfaf919d	-1.3716313
173	0xbf35425e	-0.70804393
174	0x3cbe06a3	0.023196524
175	0xbfadbd14	-1.3573327
176	0xbeec482d	-0.46148816
177	0x3d1bf6a9	0.03807703
178	0xbfa97a69	-1.3240482
179	0x3f0e091d	0.55482656
180	0xbf8a76ac	-1.0817466
181	0xbea90d46	-0.3301794
182	0x3e8b23fc	0.2717589
183	0xbf8b7f34	-1.0898194
184	0x3f5087a8	0.81456995
185	0xbe0ec3cf	-0.13941883
186	0xbebc3f4c	-0.36767042
187	0xbeea2a61	-0.45735458
188	0xbf38ea28	-0.72232294
189	0x3f06a598	0.52596426
190	0xbedf5d4d	-0.4362587
191	0xbe417ca8	-0.18895209
192	0xbf860e26	-1.0473068
193	0x3e6684a6	0.22511539
194	0x3f2e0986	0.6798328
195	0x3f0763dd	0.52886754
196	0xbf4bd34a	-0.79619277
197	0xbea11658	-0.3146236
198	0xbf815119	-1.0102874
199	0xbebb1712	-0.3654104
200	0x3f56fa61	0.839758
201	0xbf61c9bf	-0.88198465
202	0x3f770d33	0.96504515
203	0x3f5e6bd0	0.8688326
204	0x3f448025	0.76758033
205	0x3ebb92bf	0.36635396
206	0xbf182cd2	-0.5944339
207	0xbe57038e	-0.2099745
208	0x3eb98ecc	0.36241758
209	0x3e637215	0.22211488
210	0x3e8edd40	0.27903175
211	0xbea15e69	-0.31517342
212	0xc01102c9	-2.265795
213	0x3f8caeef	1.0990885
214	0x3e27d8e7	0.16391335
215	0xbed71e21	-0.42015174
216	0xbfd125aa	-1.6339619
217	0x3f0994cc	0.5374267
218	0x3f8a9310	1.082613
219	0xbfdaf0a1	-1.7104684
220	0x3f01c802	0.5069581
221	0x3e4640a5	0.19360597
222	0x3f2b06f9	0.66807514
223	0xbfafdc17	-1.3739041
224	0x3f290768	0.66026926
225	0xbfb4be7a	-1.4120629
226	0x3fead38d	1.834581
227	0x3ee9925f	0.45619485
228	0x3eed0bfe	0.46298212
229	0x3f6157fd	0.88024884
230	0xbf4853fe	-0.7825316
231	0x3e9b61a4	0.3034793
232	0x3f1aec66	0.60516965
233	0x3fa8a8f2	1.3176558
234	0x3f8916af	1.0710047
235	0xbf9c6129	-1.2217151
236	0x3f8141be	1.0098188
237	0xbe7b06a5	-0.24514253
238	0x3f525e84	0.8217547
239	0x3fa6b25a	1.3023179
240	0x3f2d097b	0.6759259
241	0x3f5ccce6	0.8625015
242	0x3fe5fd70	1.7967968
243	0xbfc0fd5e	-1.5077322
244	0x3e26b543	0.16280083
245	0xbf236569	-0.63826615
246	0x3f65e190	0.89797306
247	0xbec46e34	-0.38365328
248	0xbfbf87df	-1.496334
249	0xbf7b8380	-0.9824753
250	0x3f37e8a8	0.7183938
251	0x3ee16376	0.44021195
252	0xbdd1d2d8	-0.102452934
253	0xbfdcff18	-1.7265348
254	0xbef821a5	-0.4846317
255	0x3f364c03	0.71209735

target_position_embedding.weight f4 [9, 32]
0	0x3de6e779	0.11274619
1	0x3e8af13e	0.27137178
2	0xbff14c35	-1.8851382
3	0xbf0ada4b	-0.5423934
4	0xbf455b19	-0.7709213
5	0x3e462820	0.19351244
6	0xbf201664	-0.62534165
7	0x3f032985	0.5123523
8	0x3ce7c075	0.028290013
9	0xbefd0a57	-0.4942195
10	0x3f3db324	0.7410147
11	0x3fa2e9ba	1.2727578
12	0x3f519360	0.818655
13	0x3fa887da	1.3166459
14	0x3f57ca6d	0.8429325
15	0x3e7b9059	0.24566783
16	0x3f4d65a2	0.80233204
17	0xbf8d0cab	-1.1019491
18	0xbf3cc72a	-0.737414
19	0x3f52c183	0.82326525
20	0xbf2da431	-0.6782866
21	0xbf19197f	-0.5980453
22	0x3fa41043	1.2817463
23	0x3f98635b	1.1905321
24	0x3feff143	1.8745502
25	0xbf8def08	-1.1088572
26	0xbe176987	-0.14786349
27	0xbeb2dd66	-0.3493454
28	0x3fba347e	1.4547269
29	0x3f20d950	0.6283159
30	0xbf197440	-0.5994301
31	0x3f47aa70	0.7799444
32	0xbe7e922b	-0.24860446
33	0xbfac30a1	-1.345234
34	0xbe998ac5	-0.29988685
35	0xc00c6f69	-2.1943
36	0x3ec4f85d	0.38470736
37	0x4023d2e4	2.5597467
38	0x3ed89af0	0.42305708
39	0x3e737bda	0.23777714
40	0x3f9b6d7d	1.2142788
41	0x401f541b	2.4895084
42	0xbf3ecca9	-0.74531037
43	0xbfdba22b	-1.7158865
44	0xc0178529	-2.3675025
45	0xbece3ab4	-0.40279162
46	0x3f8197a6	1.0124404
47	0xc01d2801	-2.4555666
48	0x3fbbcbf9	1.4671623
49	0xbfba1db3	-1.4540313
50	0xbfd11c49	-1.6336757
51	0xbf3dd778	-0.74156904
52	0xbee93872	-0.45550877
53	0xbf96cb3e	-1.1780775
54	0xbf274972	-0.65346444
55	0xbfaa2f72	-1.3295729
56	0x3e612de1	0.21990158
57	0x3f60e72f	0.8785276
58	0xbd5ee506	-0.054417633
59	0xbee57091	-0.44812444
60	0xbdf21fda	-0.118224815
61	0xbfe5ba9e	-1.7947576
62	0x3e741b13	0.23838453
63	0xbfa4d26d	-1.2876717
64	0x3f969a08	1.1765757
65	0x3ec84aaa	0.39119464
66	0xbf8cf549	-1.1012355
67	0x3f57af5f	0.8425197
68	0x3f057fd5	0.5214818
69	0x40077475	2.116483
70	0x3f69059d	0.9102419
71	0x3ed08c9e	0.40732282
72	0x4041aa88	3.0260334
73	0xbefa7651	-0.48918393
74	0x3e74934e	0.23884317
75	0xbe239260	-0.15973806
76	0xc0136651	-2.30312
77	0xbf60baf3	-0.8778526
78	0xbf355181	-0.7082749
79	0x3f49eea2	0.7887975
80	0xbf894677	-1.0724629
81	0xbf4c2d0f	-0.79756254
82	0x3f64a142	0.8930856
83	0xbe8edd31	-0.2790313
84	0xbf0d7ea2	-0.5527135
85	0x3db3bf03	0.08776667
86	0xbe889977	-0.26679584
87	0xbf92d964	-1.1472592
88	0xbf74fee6	-0.95701444
89	0xbe62040f	-0.2207186
90	0xbfb4bb96	-1.4119747
91	0x3f87e432	1.0616515
92	0xbf9026b2	-1.1261809
93	0x3f1386ed	0.57627755
94	0xbe48d8c0	-0.19613934
95	0x3f8011e9	1.0005466
96	0xbff90ee4	-1.9457669
97	0x3feb7273	1.8394302
98	0xbed782fe	-0.42092127
99	0xbe042dcc	-0.12908095
100	0x3fe3868f	1.7775439
101	0xbcbeb9f6	-0.023282032
102	0x3ebd2233	0.36940154
103	0xbec961c8	-0.39332414
104	0xbcff8d8f	-0.03119543
105	0x3fbbf8fe	1.4685361
106	0x4012a4db	2.291312
107	0x3f9ac535	1.2091433
108	0x3d523f9b	0.05133019
109	0xbc3b6765	-0.011438225
110	0xbf1342a0	-0.57523537
111	0xbfa3a616	-1.278506
112	0xbf3faa7d	-0.7486952
113	0x3e939455	0.28824106
114	0x3ed923dc	0.4241017
115	0x3f98f67f	1.1950225
116	0xbe12ab73	-0.14323215
117	0xbf365d6a	-0.7123629
118	0xbef75ad9	-0.483115
119	0x3f2e0858	0.6798148
120	0x3e53d677	0.2068728
121	0x3d461bac	0.048366234
122	0x3e223de2	0.15843919
123	0xbd7b6e0d	-0.06138425
124	0x3ff5968c	1.9186568
125	0x3ee8e27d	0.45485297
126	0x3f0a19e2	0.53945744
127	0x3e8988e8	0.26862264
128	0x3f0e9770	0.55699825
129	0xbf3f39f1	-0.74697787
130	0x3d73881f	0.059455987
131	0x3f8f3dd2	1.1190741
132	0xbf5622b9	-0.8364673
133	0xbd5c913d	-0.053849448
134	0xbf635ea4	-0.88816285
135	0xbf09caf8	-0.5382533
136	0xbf5de56d	-0.866782
137	0x3f9fd501	1.2486879
138	0xbf565d8a	-0.8373648
139	0x3e661a34	0.22470933
140	0x3f52a5eb	0.8228442
141	0x3d23dccf	0.0400055
142	0x3fe4af6b	1.7866033
143	0xc0062ac9	-2.0963614
144	0x3f480c9c	0.7814424
145	0xbf08694c	-0.5328567
146	0xbf6cf2e8	-0.92558146
147	0xbe4ff7a5	-0.20309313
148	0x3f850e99	1.039508
149	0x3ec4fa80	0.38472366
150	0x3dc7be86	0.09753136
151	0x3fc303b4	1.5235505
152	0xbe210515	-0.15724595
153	0x3f708fee	0.9396962
154	0xbe18b7ea	-0.14913908
155	0xbe130872	-0.1435869
156	0xbbbea1cf	-0.005817629
157	0xbdd34319	-0.10315532
158	0x3fe25533	1.7682251
159	0x3f4556a7	0.77085346
160	0x3ea27559	0.31730154
161	0x3f213b0b	0.6298072
162	0xbef0de17	-0.4704444
163	0x3e5c3648	0.21505082
164	0x400efd55	2.2342122
165	0xbff85969	-1.9402286
166	0x3f13c393	0.577203
167	0xbe2ab288	-0.16669667
168	0xbcc03ee7	-0.023467494
169	0xbee6f012	-0.45105034
170	0xc00cccc8	-2.1999989
171	0x3fbc0ea9	1.4691974
172	0xbfe10a81	-1.758133
173	0xbf120665	-0.5704101
174	0xbf852a5b	-1.0403551
175	0xbf20acff	-0.6276397
176	0x3fb3046f	1.3985728
177	0x3e8cdd82	0.27512747
178	0xbeaacc8d	-0.33359185
179	0xbf2d81cf	-0.677762
180	0xbe7d1969	-0.24716724
181	0xbe94d9dc	-0.29072464
182	0xbf7ca92c	-0.98695636
183	0x3e322888	0.17398274
184	0xbf78cfc8	-0.9719205
185	0x3e66aadf	0.2252612
186	0xbf206e12	-0.62667954
187	0x3fd4963d	1.6608349
188	0x3f79160b	0.9729926
189	0x3e64c94b	0.22342412
190	0x40122663	2.283593
191	0xbf92aef6	-1.1459644
192	0xbf5938ad	-0.84852105
193	0xc003362a	-2.050181
194	0xbfad5da3	-1.3544201
195	0xbccc01e9	-0.024903255
196	0x3ec8ae25	0.39195362
197	0x3d642e71	0.055708352
198	0xbf2a590d	-0.6654213
199	0xbdbadfa6	-0.09124689
200	0x3f0e7771	0.55651003
201	0xbdd69835	-0.1047825
202	0x3e8f5504	0.2799455
203	0x3f85c475	1.0450579
204	0xbf10c84a	-0.56555617
205	0xbe929663	-0.2863036
206	0x3f26f849	0.65222603
207	0x3e835191	0.25648168
208	0x3fd0159c	1.6256595
209	0xc015ce0d	-2.3407013
210	0xbe8f10f7	-0.2794263
211	0x3e85de6e	0.26146263
212	0xbf0e4b2c	-0.55583453
213	0xbeebc8fd	-0.4605178
214	0xbed48e12	-0.4151464
215	0xbf85b117	-1.0444669
216	0xbf57925b	-0.84207696
217	0xbd150c73	-0.036388826
218	0x3dcf941e	0.10135673
219	0x3f7767e9	0.9664293
220	0x3f731b5e	0.94963634
221	0xbf3d5286	-0.73954046
222	0xc01009b0	-2.2505913
223	0x3df762a1	0.12079359
224	0x3ed30764	0.41216576
225	0xbe63e163	-0.22253947
226	0xbea2ce01	-0.31797794
227	0xbfe3e412	-1.7803977
228	0x3f83771d	1.0270725
229	0xbf844735	-1.0334231
230	0xbf915a1e	-1.1355627
231	0xbeb9fdbb	-0.36326393
232	0x402d5fa0	2.7089615
233	0xbf08bfa2	-0.5341741
234	0x3fc07b2d	1.503759
235	0xbfd79920	-1.6843605
236	0xbd410c0a	-0.047130622
237	0xbfef857e	-1.8712614
238	0x3eb20e44	0.3477651
239	0xbeb9d0f0	-0.3629222
240	0x3db3a6c3	0.08772042
241	0x3db73d71	0.08947266
242	0xbee3668c	-0.44414175
243	0x3eb53ae2	0.35396487
244	0x3e8d163a	0.2755602
245	0xbeaf9bd1	-0.34298566
246	0x3f4f1be0	0.8090191
247	0x3d140ab6	0.036143027
248	0xbf302ad0	-0.68815327
249	0x3eca6949	0.3953345
250	0x3e8233a5	0.25430027
251	0x3e4a8818	0.19778478
252	0x3faae8cc	1.3352294
253	0xbfa75c6e	-1.3075082
254	0x3e3867d4	0.18008357
255	0x3e1494c3	0.14509873

transformer.encoder.layers.0.self_attn.in_proj_weight f4 [96, 32]
0	0xbdaad2e3	-0.08341005
1	0x3e0f9b09	0.14023985
2	0xbdaa2570	-0.08307922
3	0x3c69837c	0.01425254
4	0xbe1ae18b	-0.151251
5	0x3d093b42	0.03350378
6	0x3e298807	0.16555797
7	0x3e1fc937	0.15604101
8	0xbd3d3d00	-0.046200752
9	0xbe127584	-0.14302641
10	0xbda8b3eb	-0.08237442
11	0x3e1d8de1	0.15386154
12	0xbe2b7857	-0.16745125
13	0xbe476bae	-0.1947467
14	0xbd1a1f9e	-0.03762781
15	0xbe49e595	-0.19716485
16	0x3e284d96	0.16435847
17	0xbe38b349	-0.18037142
18	0xbe5ae02b	-0.21374576
19	0x3e4f8ebe	0.20269296
20	0x3ca2004b	0.01977553
21	0x3de4f871	0.11180199
22	0x3e125d69	0.14293446
23	0x3d994fc5	0.07485918
24	0x3e330b27	0.17484723
25	0xbcbfdccd	-0.023420716
26	0x3e0aa3a8	0.13538992
27	0xbd68c112	-0.05682475
28	0x3c8be5ce	0.017077353
29	0xbe04e883	-0.12979321
30	0xbe0fb55b	-0.14034025
31	0xbe14c399	-0.1452774
32	0xbe199f1d	-0.15002103
33	0xbdc8cfc3	-0.098052524
34	0xbcd2e737	-0.025745017
35	0x3df5795f	0.1198604
36	0xbe371a6b	-0.17881171
37	0x3e3e1d12	0.18565777
38	0x3cfafbe7	0.030637695
39	0x3e3def50	0.18548322
40	0x3d2176ee	0.03942006
41	0x3e1d28c1	0.15347578
42	0xbe276cb5	-0.16350062
43	0xbd6659f8	-0.056238145
44	0xbcba12ec	-0.0227141
45	0xbdeb3fbd	-0.114867665
46	0x3c95f7fc	0.018306725
47	0xbcb84e01	-0.022498133
48	0xbe40ad9a	-0.18816224
49	0x3d84e3ac	0.064887375
50	0x3e0d25a9	0.13783897
51	0x3e045cab	0.12925975
52	0xbda9e3f1	-0.082954295
53	0xbda9a431	-0.0828327
54	0xbe5f1b8d	-0.21787854
55	0x3dd7568e	0.10514556
56	0xbe5515e8	-0.20809138
57	0xbe4f0c17	-0.20219456
58	0x3e595795	0.21224816
59	0xbde77f69	-0.113035984
60	0xbdb04cc6	-0.08608393
61	0xbd2e6b7e	-0.04258298
62	0xbd95a693	-0.07307162
63	0xbe193b65	-0.14964063
64	0x3bf08565	0.0073401206
65	0xbdd248b3	-0.102677725
66	0xbdb919d6	-0.09038131
67	0x3db05788	0.08610445
68	0x3cb867f9	0.022510516
69	0xbc164412	-0.009171503
70	0xbc7936a1	-0.015210778
71	0xbbba401d	-0.0056839124
72	0x3e3b8de8	0.18315852
73	0xbccc3f93	-0.024932658
74	0x3e42fa73	0.19040851
75	0x3d010181	0.031495575
76	0xbdb952bd	-0.09048984
77	0x3dfc7b91	0.12328256
78	0xbe04ff1e	-0.12987944
79	0x3be2526f	0.0069067995
80	0x3be15fe9	0.0068778885
81	0xbd3dd016	-0.046341024
82	0xbd159f15	-0.036528666
83	0xbd6abf0d	-0.057311106
84	0x3d4df4e7	0.050282385
85	0x3d5965ad	0.05307548
86	0x3b116284	0.0022183964
87	0xbe1a9c0e	-0.15098593
88	0xbdc49b49	-0.09599931
89	0x3d8dd792	0.069258824
90	0x3a4e0ad6	0.0007859891
91	0x3e256dc9	0.16155161
92	0xbd0912b1	-0.03346509
93	0x3ddc0ada	0.10744257
94	0x3e557005	0.20843513
95	0xbe44d2b7	-0.19221006
96	0xbe282fe4	-0.16424519
97	0x3e3a085b	0.1816725
98	0x3d1f9b66	0.03896656
99	0xbe25577b	-0.16146652
100	0x3d6da5d5	0.058019478
101	0xbd673541	-0.05644727
102	0x3d0adfac	0.033904716
103	0xbd7b1b93	-0.061305594
104	0xbe2dfd10	-0.16991067
105	0xbe4240bb	-0.18970005
106	0xbe57d891	-0.21078707
107	0x3e30382c	0.17208928
108	0xbdd77353	-0.10520043
109	0x3d034a29	0.032053147
110	0xbd92b9cd	-0.07164345
111	0xbe1da472	-0.15394762
112	0x3e1dff2e	0.15429375
113	0xbcb5c72c	-0.0221897
114	0xbcdfe429	-0.027330475
115	0x3e077a15	0.13230164
116	0xbdf49a65	-0.11943511
117	0x3bc23642	0.005926878
118	0x3cc790a8	0.02436097
119	0x3def77fa	0.116928056
120	0xbe47bb8f	-0.19505142
121	0xbe163192	-0.14667347
122	0x3e38c442	0.18043616
123	0x3db1e97e	0.08687113
124	0x3e083d98	0.13304746
125	0x3d06981c	0.032859907
126	0xbc59e77f	-0.013299822
127	0xbd9c5a1f	-0.07634377
128	0xbe05ed50	-0.13078809
129	0x3ca2df02	0.019881729
130	0xbe066ff8	-0.1312865
131	0xbddf82ab	-0.10913595
132	0xbd996ee8	-0.07491857
133	0xbe41ac41	-0.18913366
134	0x3c851f90	0.016250402
135	0x3e4d536a	0.20051351
136	0xbe376e4d	-0.1791317
137	0x3cc40124	0.023926325
138	0xbe09b4c3	-0.13447861
139	0x3c0dd8f6	0.008657685
140	0xbe041e11	-0.12902094
141	0xbe3ad7a9	-0.1824633
142	0xbdaf6680	-0.08564472
143	0x3e049400	0.12947083
144	0x3e392fed	0.18084688
145	0xbe31927c	-0.17341036
146	0xbbdaddc0	-0.0066792667
147	0xbe4d0e7c	-0.20025057
148	0x3db336eb	0.08750709
149	0x3e484523	0.19557624
150	0xbda1d57d	-0.07902048
151	0x3d9946a4	0.07484177
152	0xbde7773a	-0.113020375
153	0xbd54c881	-0.051949028
154	0x3e307e60	0.17235708
155	0xbe01bd60	-0.12669897
156	0xbe2ecbb9	-0.17069902
157	0xbdd948e5	-0.10609607
158	0xbdba2519	-0.09089107
159	0xbde914cf	-0.11380922
160	0x3e0a1b4e	0.13486978
161	0x3d876fdc	0.06613132
162	0x3e1b1446	0.15144452
163	0x3dc123d7	0.09430664
164	0x3e5d5928	0.21616042
165	0x3dfadea2	0.12249495
166	0xbcc68454	-0.02423302
167	0xbb6b2023	-0.003587731
168	0xbd8d61b4	-0.06903401
169	0xbe2773c0	-0.16352749
170	0x3c0f4a8a	0.008745799
171	0x3b7ec026	0.0038871854
172	0xbd324e61	-0.04353178
173	0xbc8572f7	-0.016290171
174	0xbdee2071	-0.116272815
175	0x3e20fb37	0.15720831
176	0xbe40dc58	-0.18834054
177	0x3e4c9e49	0.19982256
178	0x3e56aa04	0.20963293
179	0xbe26781e	-0.16256759
180	0x3d6253b8	0.05525562
181	0x3cb61074	0.022224642
182	0xbe1e4b94	-0.15458518
183	0x3de9a1db	0.114078246
184	0xbe3da246	-0.18518934
185	0x3d7f7683	0.06236888
186	0xbe2c19a8	-0.16806662
187	0xbd33384d	-0.043754864
188	0x3e3d3744	0.18478113
189	0x3c93b2f1	0.018029662
190	0x3e10eaec	0.14152116
191	0x3d9ff42a	0.078102425
192	0x3dc85f8b	0.097838484
193	0x3d004b91	0.031322066
194	0xbdfabd1a	-0.122430995
195	0xbd83c241	-0.06433535
196	0xbd0d69a2	-0.034524567
197	0xbdb12ad9	-0.08650751
198	0xbddb8569	-0.10718805
199	0x3d313570	0.043263853
200	0x3be064c1	0.0068479483
201	0x3e0658bc	0.13119787
202	0xbd3e0d6e	-0.046399526
203	0x3e1cebf3	0.15324382
204	0xbc74efc0	-0.014949739
205	0x3e0c4951	0.13699843
206	0x3d334fd9	0.04377732
207	0xbe45fa55	-0.19333775
208	0x3e1e8dd2	0.15483788
209	0xbdc44075	-0.09582607
210	0x3e1f67c2	0.15566924
211	0x3a5417c7	0.00080907013
212	0x3e068b72	0.13139132
213	0xbd0ae63a	-0.033910967
214	0x3e5eb2e8	0.21747935
215	0x3e10b825	0.14132746
216	0x3d9b6e92	0.07589449
217	0x3e00b096	0.12567362
218	0x3d86fb61	0.065909155
219	0x3d8a8d5a	0.06765242
220	0xbe363883	-0.17794995
221	0x3ca1c75a	0.019748379
222	0x3e21c9a8	0.15799582
223	0xbe1b8f11	-0.15191294
224	0x3e39a4a8	0.18129218
225	0x3dd417d3	0.103561066
226	0xbca9cf86	-0.020728838
227	0xbdf90798	-0.121596515
228	0xbe373d38	-0.17894447
229	0xbe198cda	-0.14995137
230	0x3c7ba34a	0.015358755
231	0x3e49049a	0.19630662
232	0xbd96d65a	-0.07365103
233	0xbe3f18de	-0.1866183
234	0xbe127cb5	-0.14305384
235	0x3e5b429f	0.21412133
236	0x3d716b94	0.058940485
237	0x3e18e3b3	0.1493061
238	0xbe14f325	-0.14545877
239	0xbcc3f28d	-0.023919368
240	0x3de4296c	0.11140713
241	0xbd579325	-0.052630562
242	0xbd87706b	-0.06613239
243	0xbc9f0241	-0.019410254
244	0xbbf4af8b	-0.0074672154
245	0xbe12ace5	-0.14323767
246	0x3e108aa8	0.14115393
247	0xbd91118f	-0.07083427
248	0x3e54a336	0.20765385
249	0xbd4b695f	-0.049661037
250	0x3e463184	0.19354826
251	0x3e464429	0.19361939
252	0x3de316f5	0.11088363
253	0xbcd34f1f	-0.025794564
254	0x3e50086f	0.20315717
255	0x3e478bba	0.19486895

transformer.encoder.layers.0.self_attn.in_proj_bias f4 [96]
0	0xbb00e62a	-0.0019668438
1	0xbad38a3b	-0.0016139218
2	0x3a6cc6ae	0.0009032291
3	0x3a9be309	0.0011893223
4	0xbaadc4a9	-0.0013257462
5	0x3b396bde	0.0028293054
6	0x3a69080d	0.0008889444
7	0xbaadeceb	-0.001326946
8	0x3ae512d3	0.0017476924
9	0x3a4d2e4c	0.0007827028
10	0xbac9e6bf	-0.0015403851
11	0x3a4e759b	0.0007875801
12	0xba754e50	-0.0009357678
13	0x3af70ee9	0.0018849048
14	0xbac8d207	-0.0015321382
15	0xbad236bc	-0.0016038041
16	0x39214ff6	0.00015383944
17	0x3a18e926	0.00058330817
18	0x399ab8e1	0.00029510914
19	0x39e65f88	0.00043940195
20	0xb95c0777	-0.00020983616
21	0xb9488027	-0.00019121227
22	0xba8541a9	-0.0010166663
23	0xb9331201	-0.00017077477
24	0xba002fed	-0.0004889954
25	0xb9051537	-0.00012691772
26	0x3a3513de	0.00069075625
27	0xb9ad116d	-0.00033010115
28	0xb9ca980c	-0.00038641726
29	0x39c16a5b	0.0003689107
30	0xb93782a5	-0.00017500909
31	0xb9a0a517	-0.0003064058
32	0xb45bac94	-2.0458748e-07
33	0x34a19f05	3.010429e-07
34	0x33ab0540	7.963763e-08
35	0x333d6bda	4.4103082e-08
36	0x32fe303b	2.9591424e-08
37	0xb4054f49	-1.2415434e-07
38	0xb2e664df	-2.6821395e-08
39	0xb49f5f4b	-2.9685393e-07
40	0x33fc845e	1.1758742e-07
41	0xb4508d80	-1.9422987e-07
42	0x3466a963	2.1482042e-07
43	0x3467e940	2.1598407e-07
44	0xb4f4ea31	-4.5618938e-07
45	0x355e5c97	8.283618e-07
46	0xb47f32a4	-2.3767149e-07
47	0xb2ecc819	-2.756501e-08
48	0xb52b2851	-6.376113e-07
49	0x35066ff0	5.008178e-07
50	0x357c32c9	9.395122e-07
51	0x34b05a02	3.2848044e-07
52	0xb435cd71	-1.6931678e-07
53	0xb212b2ad	-8.538945e-09
54	0xb40f2125	-1.3329971e-07
55	0xb3306334	-4.1068418e-08
56	0xb425967d	-1.542157e-07
57	0x3405415d	1.2410369e-07
58	0x355e0792	8.271246e-07
59	0x33f093e4	1.1202772e-07
60	0xb497f01a	-2.830064e-07
61	0x34aa8f88	3.17694e-07
62	0xb49da364	-2.936241e-07
63	0x350ffe59	5.3641776e-07
64	0xba85e07f	-0.0010214
65	0x3aee7e8f	0.0018195676
66	0xbae04097	-0.0017109093
67	0xbad64d49	-0.0016349937
68	0xbb30a965	-0.0026956436
69	0x3b01623b	0.0019742388
70	0xbadefb30	-0.0017012116
71	0xbb4774dc	-0.0030434644
72	0x3b6219cc	0.003450024
73	0xbb19af65	-0.002345049
74	0x399c2d1c	0.00029788248
75	0x399c7d64	0.00029848062
76	0xbb394568	-0.002827013
77	0x3aca93d2	0.0015455431
78	0x3b1480b2	0.0022659716
79	0x3af03f10	0.0018329341
80	0xbb0df829	-0.0021662808
81	0x3b334a40	0.002735749
82	0xbb358aae	-0.0027701068
83	0x3af89da1	0.0018967876
84	0xbb394583	-0.0028270192
85	0x3a8f9feb	0.0010957693
86	0x3b50937a	0.0031826184
87	0xbb289f28	-0.002572963
88	0xba5c708d	-0.00084091054
89	0xbacbba04	-0.0015543108
90	0xb9e7a273	-0.00044180788
91	0x3b028961	0.001991831
92	0x3b123464	0.002230906
93	0x37d82c25	2.5769763e-05
94	0x3afa969d	0.0019118373
95	0x3a0c796d	0.000535867

transformer.encoder.layers.0.self_attn.out_proj.weight f4 [32, 32]
0	0x3e3a6b1a	0.18204919
1	0x3e4a2870	0.19741988
2	0x3e29195e	0.16513583
3	0xbe8225d4	-0.25419486
4	0x3e4195ac	0.18904752
5	0x3e8f35e4	0.27970803
6	0x3d0912f3	0.033465337
7	0xbe839b57	-0.25704452
8	0x3e87a0d3	0.26489887
9	0xbe2f7b50	-0.17136884
10	0x3e1225e0	0.1427226
11	0x3d53d28a	0.051714458
12	0x3e5d0904	0.2158547
13	0xbc529bea	-0.012854556
14	0xbd1d317a	-0.038377263
15	0xbe89d635	-0.2692124
16	0xbe7f3852	-0.24923828
17	0x3d007053	0.03135712
18	0xbdfa3ea9	-0.12218983
19	0xbddd8f27	-0.1081832
20	0x3e82585c	0.25458038
21	0xbd62f4a2	-0.05540908
22	0x3cbcb6e0	0.02303642
23	0xbe0725a6	-0.13197955
24	0x3e8a4efd	0.27013388
25	0x3c0ce997	0.008600614
26	0x3ca8889c	0.020572953
27	0x3d83715c	0.06418106
28	0xbe15bd2f	-0.14622949
29	0x3cf9cfbe	0.030494567
30	0x3d6c0d4a	0.05762986
31	0xbe389eac	-0.18029279
32	0xbe0a62ec	-0.13514298
33	0xbe9a7cd7	-0.3017337
34	0x3d1dab76	0.038493596
35	0xbd36e90e	-0.044655852
36	0xbde452b6	-0.11148588
37	0x3e51764e	0.20455286
38	0xbe908a11	-0.28230336
39	0xbe4310c2	-0.19049361
40	0x3e6cc0b2	0.23120382
41	0x3d666a63	0.056253802
42	0xbe80d1e7	-0.25160143
43	0x3e75d9f2	0.24008921
44	0xbded0a33	-0.11574211
45	0xbe2d26ed	-0.1690938
46	0x3e44daf3	0.19224147
47	0x3d7a5221	0.06111348
48	0x3e6ec4f7	0.23317324
49	0x3c8c31aa	0.017113525
50	0xbd576873	-0.052589845
51	0xbd862afa	-0.06551166
52	0x3e453854	0.19259769
53	0x3e58434a	0.21119419
54	0x3dfcde71	0.12347115
55	0x3e034937	0.12820898
56	0x3e05d092	0.13067845
57	0xbdfd8930	-0.12379682
58	0xbd784fd1	-0.060622994
59	0x3a36cdf9	0.00069734413
60	0xbe4608a5	-0.19339235
61	0x3e9b4b71	0.30330995
62	0x3e73ea9b	0.23819964
63	0xbe3b489a	-0.18289414
64	0x3e37a79f	0.17935036
65	0xbd469419	-0.04848108
66	0x3e5c8903	0.21536641
67	0xbe100f27	-0.1406828
68	0x3e965e31	0.29368737
69	0xbd8f5540	-0.06998682
70	0x3e5ffbba	0.2187337
71	0x3e826008	0.2546389
72	0x3c5cb94b	0.013471912
73	0xbc7a45be	-0.015275417
74	0xbd3d3df8	-0.046201676
75	0xbe99d87b	-0.30047974
76	0x3d3c67c9	0.045997415
77	0x3d805ed4	0.06268087
78	0xbe1144b1	-0.1418636
79	0x3dadca0a	0.084858015
80	0x3e62309b	0.22088854
81	0xbe9392d7	-0.28822967
82	0x3e803dbd	0.25047103
83	0x3d1a1c7c	0.03762482
84	0x3e0aab43	0.13541894
85	0x3da3d359	0.07999296
86	0x3e82fe2b	0.2558454
87	0x3e67f3b3	0.22651558
88	0x3e1f5b8b	0.15562265
89	0xbd6328b3	-0.055458736
90	0xbda89c3f	-0.082329266
91	0xbe83c714	-0.25737822
92	0xbe88ca59	-0.2671688
93	0xbe9845cb	-0.29740748
94	0x3e8f4796	0.27984303
95	0xbe9d3ac4	-0.30708897
96	0x3e612d10	0.21989846
97	0xbe94edea	-0.29087764
98	0x3e90f772	0.28313786
99	0x3db99ae7	0.090627484
100	0x3d911e93	0.0708591
101	0xbd9a48ef	-0.07533442
102	0xbd362fc6	-0.044479154
103	0x3e8aede3	0.27134618
104	0x3bc37c1a	0.005965722
105	0x3c0f1e50	0.008735254
106	0x3d98a8e7	0.074540906
107	0x3e7283d5	0.23683102
108	0xbdfe1301	-0.124059685
109	0x3e10db42	0.1414614
110	0xbcae1874	-0.021251895
111	0xbe10c5e5	-0.14137991
112	0x3df6cf0b	0.12051209
113	0x3dc38a59	0.09547872
114	0xbe1747fb	-0.14773552
115	0xbe76f50f	-0.2411692
116	0xbe68afef	-0.22723363
117	0xbe56cdd4	-0.20976955
118	0x3e92a02d	0.2863783
119	0x3e58b5bc	0.21163076
120	0xbe811826	-0.25213736
121	0x3e7adab4	0.24497491
122	0xbd4d3ca3	-0.050106656
123	0x3af8d872	0.0018985404
124	0x3e364703	0.17800526
125	0x3e816f1a	0.25280076
126	0x3b8a387d	0.0042181597
127	0x3d1b94cc	0.0379837
128	0x3d21655c	0.039403304
129	0xbe946025	-0.28979602
130	0x3b227d1e	0.0024793814
131	0xbe8ccf46	-0.27501887
132	0x3e6998f3	0.22812252
133	0xbe731893	-0.23739843
134	0x3d95f28a	0.07321651
135	0x3e7aaf21	0.24480869
136	0x3e7c94cf	0.24666141
137	0xbe939268	-0.28822637
138	0xbdaa1fa3	-0.083068155
139	0x3e33504a	0.17511097
140	0xbe72f440	-0.23725986
141	0xbb8e3a97	-0.0043404805
142	0xbdee473e	-0.11634682
143	0x3cb9ca30	0.022679418
144	0x3dfc309e	0.123139605
145	0x3d936b7c	0.071982354
146	0x3dd620c0	0.10455465
147	0xbd908348	-0.0705629
148	0xbe755184	-0.23956877
149	0x3e377ac0	0.17917919
150	0x3e81b72d	0.25335065
151	0x3e71f5c3	0.23628907
152	0xbe99a60d	-0.300095
153	0xbde01ede	-0.109433874
154	0xbe4c4c72	-0.19951037
155	0xbe4cec0e	-0.20011923
156	0xbe96bf28	-0.29442716
157	0x3dd191a1	0.10232855
158	0x3c4e89ba	0.012606079
159	0x3bce6ccb	0.00629959
160	0xbe82d456	-0.25552624
161	0x3e0caf09	0.13738646
162	0x3ca7dc98	0.02049093
163	0x3d2563be	0.040378325
164	0xbc9ff76f	-0.019527165
165	0xbd5c6bd5	-0.053813774
166	0x3df1ffab	0.11816343
167	0x3dbe95eb	0.09305938
168	0xbd53fd9e	-0.05175554
169	0x3e777182	0.24164394
170	0x3e4f0757	0.20217644
171	0x3da13a70	0.07872474
172	0x3e0f93ac	0.14021176
173	0xbddb21d5	-0.10699812
174	0xbdc4eb97	-0.09615248
175	0xbdd64aba	-0.10463472
176	0x3dff9093	0.12478747
177	0x3db81817	0.0898897
178	0xbe8aac7a	-0.27084714
179	0xbd293591	-0.04131085
180	0x3e5b59a7	0.21420918
181	0x3e862842	0.2620259
182	0x3dc4764a	0.09592874
183	0xbb40094e	-0.002930242
184	0xbe283f46	-0.16430387
185	0xbe328f02	-0.17437366
186	0xbcc8fd1a	-0.02453475
187	0xbd097010	-0.033554137
188	0xbe3de5a0	-0.18544626
189	0x3e9e0352	0.30861908
190	0x3e0ef232	0.13959578
191	0x3e3066c0	0.17226696
192	0xbe69e0ad	-0.22839613
193	0x3d6db8ee	0.05803769
194	0x3e33810a	0.17529693
195	0x3e0d0fd0	0.13775563
196	0x3e89d37a	0.26919156
197	0xbd426716	-0.04746159
198	0xbe5c0103	-0.21484761
199	0xbe100b60	-0.14066839
200	0xbe97a611	-0.29618886
201	0x3e823201	0.25428775
202	0xbdd55068	-0.10415727
203	0x3e261871	0.16220261
204	0x3e1ba730	0.15200496
205	0x3d16e8ae	0.036842994
206	0x3c999a78	0.018750414
207	0xbe739ec6	-0.23791036
208	0x3c6695e4	0.014073823
209	0xbca60bb3	-0.02026925
210	0x3d493530	0.04912299
211	0x3de1f4b0	0.110329986
212	0x3d7d53ed	0.061847616
213	0x3e676c0b	0.22599809
214	0xbd150f4d	-0.036391545
215	0x3e804fbc	0.25060833
216	0xbe5390fa	-0.20660773
217	0xbe80b169	-0.25135353
218	0x3d6b9307	0.057513263
219	0x3e515e3b	0.20446102
220	0x3e696b36	0.22794804
221	0x3e4e3509	0.20137419
222	0x3e85dffa	0.26147443
223	0x3d8272e1	0.06369568
224	0xbe1f8e2f	-0.15581582
225	0xbe1d4a77	-0.15360437
226	0x3dcde896	0.10054128
227	0x3db00fa4	0.08596733
228	0x3dcd4ea4	0.10024765
229	0xbd8595d8	-0.06522721
230	0xbd893c5c	-0.06700966
231	0x3da23236	0.07919733
232	0x3d931721	0.07182146
233	0xbd5f1773	-0.054465722
234	0xbdbb2831	-0.09138525
235	0x3e163b2b	0.14671008
236	0xbcfff75e	-0.031245884
237	0x3dc2095b	0.09474441
238	0xbe81f425	-0.2538158
239	0x3e520f17	0.20513569
240	0xbe31cb98	-0.17362821
241	0xbe5b39ad	-0.2140872
242	0x3d249982	0.04018546
243	0x3d0d6f6f	0.0345301
244	0x3c11e7bf	0.00890535
245	0xbe941ab2	-0.28926617
246	0xbdd1b242	-0.10239078
247	0x3e855184	0.26038754
248	0x3e1c779e	0.15280005
249	0x3dda9d81	0.10674573
250	0x3e876a52	0.26448303
251	0xbd1d0192	-0.038331576
252	0xbe91cf68	-0.2847855
253	0xbd8d044a	-0.06885584
254	0xbe3ef4ce	-0.18648073
255	0x3c0076aa	0.007840792

transformer.encoder.layers.0.self_attn.out_proj.bias f4 [32]
0	0x3b2b1c5b	0.002610943
1	0xba8ce54c	-0.0010749488
2	0xba811ea2	-0.0009851048
3	0xbad9220b	-0.0016565932
4	0x3b31c4ef	0.0027125438
5	0xbb346683	-0.0027526922
6	0xbb1d6c80	-0.002402097
7	0xbb0df1f3	-0.0021659106
8	0x3b3ea7da	0.0029091747
9	0x3a82b074	0.00099708
10	0x3b53eaab	0.0032335918
11	0xbb0b7079	-0.0021276756
12	0xba91ca18	-0.0011122851
13	0xb9ed43eb	-0.00045254765
14	0xbb10e402	-0.002210856
15	0x391f09b6	0.00015167039
16	0xbb12c1b9	-0.00223933
17	0xbb25ab40	-0.0025279075
18	0x3aedca6e	0.0018141994
19	0x3b1403bf	0.002258524
20	0xba055cd4	-0.000508738
21	0x3aabfd64	0.0013121781
22	0x38cfdeba	9.912015e-05
23	0xbb7ae9b9	-0.0038286282
24	0x39fa1ac7	0.00047703666
25	0x3ab77325	0.0013996108
26	0xbb49311e	-0.0030699442
27	0x3b692ba8	0.0035579
28	0x39347c0d	0.0001721235
29	0x3afb8f54	0.0019192495
30	0xbab93515	-0.00141302
31	0x3b215611	0.002461795
