models/2023-06-30 16:24:30.710330/model-115.pt (torch, 405283 bytes, 70 tensors)

input_embedding.weight f4 [16, 32]
0	0xbc93673c	-0.017993562
1	0xbcceb188	-0.025231138
2	0x3db704ac	0.08936438
3	0xbd06c5e3	-0.032903563
4	0x3dd6425f	0.10461878
5	0xbc7d86d8	-0.015474044
6	0xbd8ddb48	-0.0692659
7	0xbd897144	-0.06711057
8	0x3d8078c7	0.062730365
9	0x3bfe895f	0.0077678408
10	0x3d2b50af	0.041824993
11	0xbd27bcab	-0.040951412
12	0x3d6f8522	0.058476575
13	0xbd5ce5a4	-0.05392994
14	0x3c81c177	0.015839322
15	0xbb45cb3d	-0.0030180954
16	0xbcd14bd2	-0.02554885
17	0x3c4dee7a	0.012569064
18	0x3c85f4ea	0.016352136
19	0x3b037e7c	0.0020064404
20	0xbd621b8c	-0.055202052
21	0xbdda8384	-0.10669616
22	0x3d386f5a	0.045028068
23	0x3c14b8bf	0.00907725
24	0xbd9c7611	-0.07639707
25	0xbd6decfa	-0.058087327
26	0x3dd4e73d	0.10395668
27	0x3ceafff5	0.028686503
28	0xbbf9e307	-0.0076259407
29	0x3d9d7d52	0.076899186
30	0x3d937d28	0.07201606
31	0x3d0be68e	0.03415542
32	0xbd4242cd	-0.047426987
33	0xbdc2898a	-0.0949889
34	0x3d871d6b	0.06597408
35	0xbc82fa87	-0.015988601
36	0x3d2bcaad	0.041941334
37	0x3d2b078a	0.041755237
38	0x3d7e2f1a	0.06205664
39	0x3c9a2027	0.01881416
40	0xbd855b52	-0.065115586
41	0xbda3d1cf	-0.07999002
42	0xbd1d090a	-0.0383387
43	0x3d93d038	0.07217449
44	0x3ce7ab00	0.028279781
45	0x3d2cc69d	0.0421816
46	0xbc9cd620	-0.019145072
47	0x3d513330	0.051074207
48	0xbd19561a	-0.03743563
49	0xbd9f0688	-0.077649176
50	0xbd040083	-0.03222705
51	0x3d043c50	0.03228408
52	0x3d45192a	0.0481197
53	0x3d9faa9f	0.07796215
54	0xbdcb4b2b	-0.099264465
55	0xbd38602a	-0.045013584
56	0xbb339500	-0.0027402043
57	0xbd47b970	-0.04876083
58	0xbcd134e0	-0.025537908
59	0xbdabfa72	-0.08397378
60	0x3d90badb	0.0706689
61	0x3d9ef32f	0.07761227
62	0xbdaa5380	-0.083167076
63	0xbc273727	-0.01020602
64	0x3dad0cf5	0.08449737
65	0xbdba7bf2	-0.09105672
66	0xbd46a46d	-0.048496652
67	0xbd88efc5	-0.066863574
68	0x3d10130a	0.035174407
69	0x3bac30e7	0.005254853
70	0xbc7d880d	-0.015474332
71	0xbcb1736d	-0.021661485
72	0x3d1eec67	0.03879967
73	0x3dc571ba	0.09640832
74	0x3d8e7a22	0.06956889
75	0xbd9ce4b7	-0.076608114
76	0x3d13c763	0.036078822
77	0xbb0e0100	-0.0021668077
78	0xbceaf493	-0.028681075
79	0xbd060c40	-0.032726526
80	0x3d93670d	0.0719739
81	0x3d4799f3	0.0487308
82	0xbd996b1f	-0.07491135
83	0xbd87d81a	-0.06633015
84	0xbd6fe317	-0.05856618
85	0x3d9ec4cb	0.07752379
86	0xbcc17280	-0.023614168
87	0x3d6d5070	0.05793804
88	0x3d82f3ab	0.06394132
89	0xbda16d87	-0.07882219
90	0xbd891627	-0.06693678
91	0xbd9f182d	-0.07768283
92	0xbcf938a0	-0.030422509
93	0x3dc50733	0.09620514
94	0x3ca8e360	0.020616233
95	0xbce121cd	-0.027481938
96	0xbd7a90ed	-0.06117337
97	0xbd6259ad	-0.055261303
98	0xbd81c9fb	-0.06337353
99	0xbdb3b76a	-0.08775218
100	0x3d39eb8d	0.045390654
101	0xbd42bbf0	-0.047542512
102	0xbc3e1b8d	-0.011603248
103	0x3beb8bcd	0.0071882964
104	0xbbb40133	-0.005493307
105	0xbd1b37ca	-0.037895
106	0xbdc7832d	-0.09741817
107	0xbdac4cc7	-0.084130816
108	0x3cc738ed	0.024319137
109	0x3da36f78	0.07980245
110	0xbc9db5d3	-0.01925174
111	0xbd8d272a	-0.068922356
112	0xbd8109c5	-0.063006915
113	0x3c449d67	0.012000418
114	0x3d399ab0	0.045313537
115	0xbd734d67	-0.05939999
116	0x3c8ebe67	0.017424775
117	0x3d01c220	0.031679273
118	0xbd49a64a	-0.04923085
119	0xbd6bff8a	-0.057616748
120	0xbd8f0ba3	-0.069846414
121	0xbd515bda	-0.051112987
122	0x3cdd6600	0.027026176
123	0xbd9396ba	-0.07206483
124	0x3dc8e293	0.098088406
125	0x3c386380	0.011254191
126	0xbcbe5160	-0.023232162
127	0x3da8bb95	0.082389034
128	0x3d83f152	0.064425126
129	0x3dbe0f23	0.09280231
130	0xbc71c040	-0.014755309
131	0x3d1fa18d	0.038972426
132	0x3d5c28c7	0.053749826
133	0xbce4d533	-0.027933693
134	0xbdb88a5d	-0.09010766
135	0x3c8e6473	0.017381882
136	0xbcf25bcd	-0.02958479
137	0x3d9725e3	0.07380273
138	0x3d2f7f50	0.042846024
139	0x3c861253	0.01636616
140	0x3d4d5d20	0.05013764
141	0xbbc82100	-0.0061074495
142	0xbc8c637a	-0.017137278
143	0x3d800865	0.06251601
144	0xbd715290	-0.05891663
145	0x3db40023	0.087890886
146	0xbd210577	-0.039311852
147	0x3da742c5	0.08167032
148	0x3ceedd60	0.029158294
149	0xbc0bed67	-0.008540488
150	0x3dbcad78	0.09212774
151	0xbdb92cb8	-0.090417325
152	0xbda8bee3	-0.08239534
153	0xbd8cb315	-0.06870095
154	0xbd6f04a0	-0.05835402
155	0xbd13b2f0	-0.03605932
156	0xbdb7854f	-0.089609735
157	0x3cbbe0c0	0.022934318
158	0xbdb0091f	-0.0859549
159	0x3dbeedad	0.09322677
160	0xbb83499a	-0.0040065767
161	0xbcd832c7	-0.0263914
162	0x3ce8d847	0.028423442
163	0xbd38f7ca	-0.045158185
164	0xbb959133	-0.0045644282
165	0x3d75a120	0.059968114
166	0xbd88f18f	-0.06686699
167	0xbcb9f12d	-0.02269801
168	0x3b89a84d	0.004200971
169	0x3db574a8	0.08860141
170	0x3d623eca	0.05523566
171	0xbc7e9c1a	-0.015540147
172	0xbd8eb512	-0.0696813
173	0x3cff259a	0.03114586
174	0xbd8ceb40	-0.06880808
175	0xbd9d7292	-0.07687868
176	0x3da474d7	0.08030098
177	0xbd984b02	-0.074361816
178	0xbdbbbeb0	-0.0916723
179	0xbbbd6b1a	-0.0057805898
180	0xbd3a54f3	-0.04549117
181	0x3cfb9b0d	0.030713582
182	0xbbfa1f9a	-0.0076331617
183	0x3d9e4a80	0.077290535
184	0x3d7773ca	0.06041316
185	0x3d87cc93	0.06630816
186	0x3cb72107	0.022354616
187	0xbcc85e20	-0.024458945
188	0x3d8d529b	0.06900521
189	0x3da8913a	0.08230825
190	0xbd14697d	-0.036233414
191	0xbd474cea	-0.048657335
192	0xbcbb953a	-0.022898305
193	0xbd91b13d	-0.07113884
194	0x3d498d5a	0.04920707
195	0xbcda6c1a	-0.026662875
196	0xbd937e9d	-0.07201884
197	0xbb81bab3	-0.003959024
198	0xbc98c96d	-0.018650735
199	0x3da10158	0.078615844
200	0xbd12cf97	-0.035842504
201	0xbacacf33	-0.0015473127
202	0xbc5fcaa7	-0.013659156
203	0x3cdabb00	0.026700497
204	0xbda84330	-0.0821594
205	0x3d83bbb8	0.06432289
206	0x3ce51640	0.027964711
207	0xbd6dd56a	-0.058064856
208	0x3d8a74ab	0.06760534
209	0xbc50401a	-0.0127105955
210	0xba1b28cd	-0.00059188606
211	0x3d795a13	0.060876917
212	0xbd96f5aa	-0.073710755
213	0x3d8d2183	0.068911575
214	0xbd0b6297	-0.03402957
215	0x3d0860d3	0.033295464
216	0x3d8c6de0	0.068568945
217	0x3d4b2440	0.049595118
218	0xbc1569a7	-0.009119428
219	0xbd94eb92	-0.07271494
220	0x3dbe6e33	0.092983626
221	0xbda117c2	-0.078658596
222	0x3d25b24a	0.040453233
223	0xbd7f37b0	-0.062308967
224	0xbdb5db07	-0.08879667
225	0xbbb1f800	-0.005431175
226	0xbc529c00	-0.012854576
227	0x3d805c85	0.06267647
228	0xbd67b13a	-0.0565655
229	0xbda2aed7	-0.07943504
230	0xbd965de8	-0.0734213
231	0xbd1eb040	-0.038742304
232	0xbd971a3f	-0.07378053
233	0xbd9fb49d	-0.07798121
234	0xba5ce8cd	-0.0008427024
235	0xbd1ada07	-0.037805583
236	0x3d565b03	0.05233289
237	0xbc516173	-0.012779581
238	0xbda7a077	-0.08184903
239	0xbd57df73	-0.052703332
240	0xbc4e848d	-0.012604845
241	0x3d505e0d	0.050870944
242	0xbd41b10d	-0.04728799
243	0x3cd30b5a	0.025762249
244	0x3dac0270	0.083989024
245	0xbd44fc53	-0.048092198
246	0x3da3ae00	0.07992172
247	0xbc84785a	-0.01617067
248	0x3d72665d	0.059179652
249	0xbd90d55a	-0.070719436
250	0xbd7316cd	-0.059347916
251	0xbce4b140	-0.02791655
252	0xbd8b8f7a	-0.06814475
253	0xbd8c51c5	-0.06851534
254	0x3d09b5ad	0.033620525
255	0xbcede46d	-0.029039586

output_embedding.weight f4 [9, 32]
0	0xbdc4e696	-0.09614293
1	0xbd675b27	-0.056483414
2	0xbd111001	-0.035415653
3	0xbd638abf	-0.05555224
4	0xbbb8255b	-0.0056196875
5	0x3d6aa224	0.057283536
6	0x3d74e54b	0.059788983
7	0xbd5d5cb6	-0.054043494
8	0x3dd5ac84	0.10433295
9	0x3c1aee3b	0.009456213
10	0x3d58c2cb	0.052920144
11	0xbd821f70	-0.063536525
12	0xbd748b86	-0.059703372
13	0xbcc99e1e	-0.024611529
14	0xbd1bd762	-0.038047202
15	0xbda111c4	-0.07864717
16	0x3d8b8eb1	0.068143256
17	0xbcebd7ba	-0.02878939
18	0x3d4790b8	0.048722
19	0x3dab46c5	0.083631076
20	0xbdbeb4bc	-0.09311816
21	0xbd6a6c27	-0.05723205
22	0xbd033268	-0.032030493
23	0x3d1846b9	0.03717682
24	0xbc838023	-0.016052311
25	0x3dcb3ec2	0.099240795
26	0xbdc06c52	-0.093956605
27	0x3becf3a0	0.007231191
28	0x3da08a25	0.07838849
29	0x3d5a34dd	0.05327307
30	0x3d6b9fbd	0.057525385
31	0xbd5b773c	-0.053580508
32	0xbd56f0ad	-0.05247562
33	0xbcabdc40	-0.020979047
34	0x3db03195	0.08603207
35	0x3d863892	0.06553759
36	0x3cd592e0	0.026071012
37	0x3d03572d	0.03206556
38	0xbd11bfed	-0.035583425
39	0xbce4caa7	-0.027928663
40	0xbdc00360	-0.09375644
41	0xbca8466d	-0.020541394
42	0xbda01f68	-0.0781849
43	0xbd25e98d	-0.040505935
44	0x3d4ccf30	0.050002277
45	0xbbef27b3	-0.0072984337
46	0x3bc83300	0.0061095953
47	0xbd2245ba	-0.039617278
48	0xbdc0d57b	-0.09415718
49	0xbdbf7e58	-0.0935027
50	0x3d9ca2fd	0.07648275
51	0x3d5d09c3	0.053964388
52	0x3dc65dd5	0.09685866
53	0xbdc0d1d2	-0.0941502
54	0xbdbae64b	-0.09125956
55	0xbdb875e3	-0.0900686
56	0x3c5b44b3	0.013383078
57	0xbcb6ecc0	-0.022329688
58	0x3db67353	0.08908715
59	0x3d6b9bcd	0.05752163
60	0x3d2af09d	0.041733373
61	0x3da37425	0.07981137
62	0x3d9fcd4a	0.07802828
63	0x3d2b421a	0.041811086
64	0x3cdfc32d	0.027314747
65	0x3d83683c	0.064163655
66	0x3d4f8875	0.050667245
67	0xbdc89a19	-0.09795017
68	0xba20bf1a	-0.0006131992
69	0xbc627002	-0.01382065
70	0x3d1b59a5	0.03792729
71	0x3da27958	0.07933301
72	0x3d96509a	0.07339592
73	0xbdcee421	-0.10102106
74	0xbd849c35	-0.064751066
75	0x3bb6093c	0.0055553
76	0x3d89c16f	0.06726348
77	0xbdb33f1d	-0.08752272
78	0xbd8e1b64	-0.06938818
79	0x3d7e2aac	0.062052414
80	0xbd5e5928	-0.054284245
81	0xbc29b149	-0.0103572095
82	0xbd8b788f	-0.06810104
83	0xbbc229f3	-0.005925411
84	0x3d34ecf3	0.044171285
85	0xbce5adbd	-0.028036946
86	0xbd8a8a50	-0.06764662
87	0x3c5cdce4	0.013480399
88	0xbcb2002e	-0.021728601
89	0x3ca40105	0.020020017
90	0x3db0337b	0.08603569
91	0x3da3b56e	0.07993589
92	0x3da1374d	0.07871876
93	0x3d843365	0.06455115
94	0x3d4ba43b	0.04971717
95	0x3c1b15ad	0.009465617
96	0x3d805f86	0.0626822
97	0xbb96482c	-0.0045862403
98	0x3bd099e3	0.006366001
99	0x3d24e610	0.040258467
100	0x3d7ea948	0.062173158
101	0xbd50324f	-0.050829228
102	0x3be8ffb3	0.00711056
103	0x3d9cff4e	0.07665883
104	0xbd4c3892	-0.049858637
105	0xbd2597e0	-0.040428042
106	0xbd5c2f14	-0.053755835
107	0xbdb47d62	-0.088129774
108	0xbc00f612	-0.007871168
109	0xbd987d26	-0.07445745
110	0xbdde7559	-0.10862226
111	0x3c20ef3f	0.009822666
112	0x3d7aa9f7	0.061197247
113	0x3db2a95f	0.08723711
114	0xbd8a6fe3	-0.06759622
115	0xbbc2661e	-0.0059325835
116	0xbc10840a	-0.008820543
117	0xbd20b0d9	-0.039231155
118	0xbd8efd7f	-0.06981944
119	0xbc84ce53	-0.016211664
120	0x3dccdad4	0.10002676
121	0xbd89dab4	-0.067311674
122	0xbdba2fb4	-0.0909113
123	0xbd86e7c3	-0.06587174
124	0xbda5da9d	-0.08098338
125	0x3dae49af	0.08510148
126	0x3c237ecc	0.009978961
127	0xbda85aab	-0.082204185
128	0xbd7bd423	-0.061481606
129	0xbd9468eb	-0.07246574
130	0x3d2f3be3	0.04278172
131	0x3d907f82	0.0705557
132	0xbd872d0b	-0.06600388
133	0xbd36ba1a	-0.044611074
134	0x3d8bff1f	0.0683577
135	0x3d5227c3	0.05130745
136	0x3db2c202	0.0872841
137	0x3d7bcc9a	0.06147442
138	0x3d840847	0.06446891
139	0x3dc6173b	0.096723996
140	0xbccf23e7	-0.025285674
141	0xbd8ddc4a	-0.069267824
142	0x3d54fbb3	0.05199785
143	0xbbd78c1a	-0.0065779807
144	0xbd31b5a7	-0.043386128
145	0xbdab64ed	-0.083688594
146	0x3d89239a	0.066962436
147	0x3d8675e3	0.06565454
148	0x3d77cb30	0.06049651
149	0xbdb94ee0	-0.09048247
150	0xbda68435	-0.08130685
151	0x3dc30073	0.0952157
152	0x3dbdac50	0.092613816
153	0xbd2aee30	-0.04173106
154	0x3d82d11b	0.0638754
155	0xbd3d04c7	-0.046147134
156	0xbd96b86a	-0.07359393
157	0xbc8676ad	-0.01641401
158	0x3d282cba	0.04105828
159	0xbc5e988d	-0.013586176
160	0xbce10da0	-0.027472317
161	0xbd13f3dd	-0.036121238
162	0xbdc4a082	-0.09600927
163	0x3cc3e39a	0.02391224
164	0x3d70b48a	0.058765925
165	0xbb3af533	-0.0028527498
166	0x3da996b5	0.08280698
167	0x3d69ba47	0.057062414
168	0xbd61e40a	-0.055149116
169	0xbcee19a7	-0.029064966
170	0x3d9a394d	0.075304605
171	0xbd12cd60	-0.035840392
172	0xbda973fb	-0.08274075
173	0xbd51b3d7	-0.0511969
174	0xbbd3569a	-0.0064495327
175	0x3d307f37	0.04309007
176	0x3cfdd227	0.030983998
177	0xbbc8dd33	-0.0061298846
178	0x3db64a8b	0.08900937
179	0x3d696c10	0.056987822
180	0xbd9dc748	-0.077040255
181	0xbca57ed3	-0.020202076
182	0xbd661930	-0.056176364
183	0x3cba55e0	0.022746027
184	0xbcca4013	-0.024688756
185	0xbdbd38e3	-0.09239366
186	0x3c7db940	0.015486062
187	0x3d266acd	0.040629197
188	0x3bd2469a	0.006417108
189	0x3d834ceb	0.06411155
190	0xbd2d1180	-0.042253017
191	0xbce7bc87	-0.028288139
192	0x3d260d28	0.04053989
193	0xbca4b94d	-0.02010789
194	0xbcb8bbad	-0.022550428
195	0x3c7ed610	0.015553966
196	0x3c6227ad	0.013803405
197	0xbdc84084	-0.097779304
198	0x3d0a7190	0.033799708
199	0x3cbe2938	0.023213014
200	0xbcc9b049	-0.024620192
201	0xbd8364fd	-0.06415746
202	0xbdae58be	-0.0851302
203	0x3d11fbca	0.035640515
204	0xbd33f5f3	-0.043935727
205	0xbbd0b14c	-0.0063687917
206	0xbcbf85c4	-0.023379214
207	0x3c58a48c	0.013222825
208	0x3d14429d	0.03619634
209	0x3ba9f847	0.0051870677
210	0xbca40c2d	-0.020025337
211	0xbcbe09f4	-0.023198105
212	0xbca06249	-0.019578116
213	0x3c8fa4fd	0.017534727
214	0xbd875f07	-0.06609922
215	0xbda316ee	-0.07963358
216	0xbdba1631	-0.09086264
217	0x3d9aa3d5	0.0755078
218	0x3d1ee90c	0.03879647
219	0x3db81ac5	0.08989481
220	0xbd992779	-0.07478232
221	0x3d8d0bec	0.068870395
222	0xbd6c0947	-0.057626035
223	0x3d82e38f	0.063910596
224	0x3d0a2357	0.03372511
225	0xbd3f149e	-0.04665052
226	0x3cf4792e	0.02984294
227	0x3d3427a8	0.04398313
228	0xbd1de8fd	-0.038552273
229	0xbce7fc36	-0.028318506
230	0xbd3b0047	-0.04565456
231	0x3cc71d19	0.024305867
232	0xbdb18187	-0.086672835
233	0x3cfd9eda	0.030959535
234	0xbd0a56cf	-0.033774193
235	0x3da890c0	0.08230734
236	0xbc53ea91	-0.012934343
237	0xbda9a67f	-0.0828371
238	0x3d5a79f6	0.053338967
239	0xbd77e363	-0.060519587
240	0xbd29925f	-0.041399356
241	0xbb94a4b7	-0.004536237
242	0x3d62d206	0.055376075
243	0x3da980c2	0.08276512
244	0xbd471987	-0.04860833
245	0xbd5da02b	-0.054107826
246	0x3da0b63f	0.07847261
247	0x3c2ffb06	0.010741001
248	0x3d8c4464	0.06848982
249	0xbd112692	-0.035437174
250	0x3d4051d5	0.04695304
251	0xbd2bb354	-0.041919068
252	0xbca52b16	-0.020162147
253	0x3d599228	0.0531179
254	0x3d9132ec	0.07089791
255	0xbd7e0a53	-0.062021565

input_position_embedding.weight f4 [16, 32]
0	0xbf4a7ada	-0.79093707
1	0x3fb5ce5f	1.4203604
2	0xc03e60c2	-2.9746556
3	0xbe16adf9	-0.14714803
4	0xbedc14b6	-0.4298455
5	0x3f8c20b4	1.094748
6	0xbf45271d	-0.7701281
7	0xbe011a60	-0.12607718
8	0xbf63c28a	-0.8896872
9	0x3ffec137	1.9902714
10	0xbfd8dcca	-1.694238
11	0xbf2ed938	-0.683002
12	0x3fa0dec9	1.2567989
13	0xbf28393c	-0.6571233
14	0x3e2498f9	0.1607398
15	0xbf61d4a7	-0.88215107
16	0xc01a941c	-2.4152899
17	0xbf6b4da5	-0.9191535
18	0x3f34d0aa	0.70630896
19	0xbf410526	-0.7539848
20	0xbf8053f2	-1.0025618
21	0xbed3a000	-0.41333008
22	0x3f83d2ce	1.0298707
23	0xbe821f9a	-0.25414735
24	0xc00c74c9	-2.194628
25	0xbdef63d2	-0.11688961
26	0xbfc82b9c	-1.5638309
27	0x3f10de85	0.5658954
28	0xbeaad0e5	-0.333625
29	0x3f7544ae	0.9580792
30	0x3f111390	0.56670475
31	0xbf561e64	-0.8364012
32	0xbe845d12	-0.25852257
33	0xbf1b05f2	-0.60555947
34	0xbe40c296	-0.18824229
35	0x3f75a8c8	0.95960665
36	0xbf820847	-1.0158776
37	0xbfc3c8a1	-1.5295602
38	0xbf9be5fb	-1.217956
39	0x3f5e487e	0.86829364
40	0xbfa191ad	-1.2622582
41	0x3f169305	0.58818084
42	0xbf6065f9	-0.876556
43	0xbf848398	-1.0352659
44	0xbe1772b1	-0.14789845
45	0xbf8a3c9d	-1.0799748
46	0xbe0efd82	-0.13963893
47	0xbfa0f3a8	-1.2574358
48	0x3e8a9f8b	0.27074847
49	0x3f3aeac4	0.73014474
50	0xbfa3dafb	-1.2801203
51	0xbeb76349	-0.35817936
52	0x3f98456d	1.1896187
53	0xbe37d48d	-0.17952175
54	0xbfe95fec	-1.8232398
55	0xbd52556c	-0.051350996
56	0xbf47b5e7	-0.78011936
57	0xbcc81208	-0.02442266
58	0xbf71cbf2	-0.9445182
59	0x3d9bd323	0.076086305
60	0xbd6fc372	-0.058536
61	0x3f45db6e	0.7728795
62	0x3ef0195e	0.46894354
63	0x3e850fd5	0.2598864
64	0x3f49c989	0.78823143
65	0x3faea8d1	1.3645269
66	0x3ebf4f3b	0.37365136
67	0xbf800e38	-1.0004339
68	0xbb7e02da	-0.0038759024
69	0x3f979b2d	1.1844231
70	0x3f417499	0.7556854
71	0x3fa46305	1.2842718
72	0xbf362b23	-0.7115957
73	0xbdf65fa6	-0.12029962
74	0x3f9e80e2	1.2383082
75	0x3e4b49a5	0.19852312
76	0x3c44dbaa	0.012015263
77	0x3e985dad	0.2975897
78	0x3f5eb675	0.8699716
79	0xbe80845a	-0.25100976
80	0xbf99afad	-1.2006737
81	0x3f82aebd	1.0209576
82	0xbec62129	-0.38697174
83	0xbd6903e4	-0.056888476
84	0x3f981c4f	1.1883639
85	0xc022ae80	-2.5419006
86	0xbeb4b138	-0.35291457
87	0xbfb52ca0	-1.4154243
88	0xbfa69caa	-1.301656
89	0xbfafb8bd	-1.3728253
90	0x3fd87079	1.6909324
91	0xbeeca571	-0.46219972
92	0x3ee2aac9	0.44270924
93	0x3f038df0	0.51388454
94	0xbf1cbb51	-0.6122332
95	0xbff930f5	-1.9468066
96	0xc00675c5	-2.100938
97	0x3ec7a3ec	0.3899225
98	0x3db2e125	0.08734349
99	0xbf5b7bef	-0.8573598
100	0xbfda909f	-1.7075385
101	0xbf46a475	-0.7759469
102	0x3ee78db3	0.45225295
103	0xbeb809fc	-0.35945117
104	0x3f45f7b9	0.7733112
105	0x4043a0ec	3.056697
106	0xc01f382a	-2.487803
107	0xbfd91c42	-1.6961749
108	0xbf72bcd0	-0.94819355
109	0xbf3c6107	-0.7358555
110	0xbe39f782	-0.18160823
111	0xbf4a7ed0	-0.7909975
112	0x3e1b03dd	0.15138192
113	0x3f04d1ad	0.5188244
114	0xbf16f166	-0.58962095
115	0x3f80164a	1.0006802
116	0x3f98c546	1.1935203
117	0xbca1deea	-0.019759614
118	0x3e8f818a	0.28028518
119	0x3fe7cf42	1.8110125
120	0xbea53054	-0.32263434
121	0x3e23f854	0.16012698
122	0xbfbde55f	-1.4835624
123	0x3f52c8a6	0.82337415
124	0xbf91e986	-1.1399391
125	0xbcf46559	-0.029833483
126	0xbc21d5a0	-0.009877592
127	0x3da353d6	0.07974975
128	0xbe17c966	-0.14822921
129	0x3f649f29	0.8930536
130	0xbf430769	-0.7618318
131	0xbfc4f702	-1.5387881
132	0xbf1f5936	-0.622455
133	0xbeb66a92	-0.35628182
134	0x3ffb4aa5	1.9632155
135	0x3e6fce27	0.23418485
136	0xbe00535b	-0.12531798
137	0x3fd7d6b1	1.6862394
138	0x4011ade6	2.276239
139	0xbf74efba	-0.95678294
140	0x3fe4705b	1.7846788
141	0x3e45ec90	0.19328523
142	0x3ea640cb	0.32471308
143	0x3d2e05db	0.042486053
144	0xbfb3e86a	-1.4055302
145	0x3df4a363	0.11945226
146	0xbea995d3	-0.3312212
147	0xbf573a6b	-0.84073514
148	0x3e8bd57e	0.2731132
149	0xbeb7a07a	-0.3586462
150	0x3fdc5c21	1.7215616
151	0x3fd61fa5	1.6728407
152	0xbf200645	-0.62509567
153	0x3f50ef28	0.81614923
154	0xbf123198	-0.57106924
155	0xbdf4a3ae	-0.11945282
156	0x3eaee8d3	0.34162006
157	0xbe934af2	-0.28768116
158	0xbefe72f6	-0.49697083
159	0x3db09a03	0.086231254
160	0x3d997826	0.074936196
161	0x3f171f5d	0.5903223
162	0x3ecc0f96	0.3985564
163	0xbf22c9ba	-0.6358906
164	0x3d3ff979	0.046868775
165	0x3fe8fa67	1.8201417
166	0x3fba80c8	1.4570551
167	0x3e3644c2	0.17799667
168	0xba0c55f2	-0.0005353383
169	0xbf929dc5	-1.1454397
170	0x400063a2	2.006081
171	0xbe354c29	-0.17704834
172	0xbfaf919d	-1.3716313
173	0xbf35425e	-0.70804393
174	0x3cbe06a3	0.023196524
175	0xbfadbd14	-1.3573327
176	0xbeec482d	-0.46148816
177	0x3d1bf6a9	0.03807703
178	0xbfa97a69	-1.3240482
179	0x3f0e091d	0.55482656
180	0xbf8a76ac	-1.0817466
181	0xbea90d46	-0.3301794
182	0x3e8b23fc	0.2717589
183	0xbf8b7f34	-1.0898194
184	0x3f5087a8	0.81456995
185	0xbe0ec3cf	-0.13941883
186	0xbebc3f4c	-0.36767042
187	0xbeea2a61	-0.45735458
188	0xbf38ea28	-0.72232294
189	0x3f06a598	0.52596426
190	0xbedf5d4d	-0.4362587
191	0xbe417ca8	-0.18895209
192	0xbf860e26	-1.0473068
193	0x3e6684a6	0.22511539
194	0x3f2e0986	0.6798328
195	0x3f0763dd	0.52886754
196	0xbf4bd34a	-0.79619277
197	0xbea11658	-0.3146236
198	0xbf815119	-1.0102874
199	0xbebb1712	-0.3654104
200	0x3f56fa61	0.839758
201	0xbf61c9bf	-0.88198465
202	0x3f770d33	0.96504515
203	0x3f5e6bd0	0.8688326
204	0x3f448025	0.76758033
205	0x3ebb92bf	0.36635396
206	0xbf182cd2	-0.5944339
207	0xbe57038e	-0.2099745
208	0x3eb98ecc	0.36241758
209	0x3e637215	0.22211488
210	0x3e8edd40	0.27903175
211	0xbea15e69	-0.31517342
212	0xc01102c9	-2.265795
213	0x3f8caeef	1.0990885
214	0x3e27d8e7	0.16391335
215	0xbed71e21	-0.42015174
216	0xbfd125aa	-1.6339619
217	0x3f0994cc	0.5374267
218	0x3f8a9310	1.082613
219	0xbfdaf0a1	-1.7104684
220	0x3f01c802	0.5069581
221	0x3e4640a5	0.19360597
222	0x3f2b06f9	0.66807514
223	0xbfafdc17	-1.3739041
224	0x3f290768	0.66026926
225	0xbfb4be7a	-1.4120629
226	0x3fead38d	1.834581
227	0x3ee9925f	0.45619485
228	0x3eed0bfe	0.46298212
229	0x3f6157fd	0.88024884
230	0xbf4853fe	-0.7825316
231	0x3e9b61a4	0.3034793
232	0x3f1aec66	0.60516965
233	0x3fa8a8f2	1.3176558
234	0x3f8916af	1.0710047
235	0xbf9c6129	-1.2217151
236	0x3f8141be	1.0098188
237	0xbe7b06a5	-0.24514253
238	0x3f525e84	0.8217547
239	0x3fa6b25a	1.3023179
240	0x3f2d097b	0.6759259
241	0x3f5ccce6	0.8625015
242	0x3fe5fd70	1.7967968
243	0xbfc0fd5e	-1.5077322
244	0x3e26b543	0.16280083
245	0xbf236569	-0.63826615
246	0x3f65e190	0.89797306
247	0xbec46e34	-0.38365328
248	0xbfbf87df	-1.496334
249	0xbf7b8380	-0.9824753
250	0x3f37e8a8	0.7183938
251	0x3ee16376	0.44021195
252	0xbdd1d2d8	-0.102452934
253	0xbfdcff18	-1.7265348
254	0xbef821a5	-0.4846317
255	0x3f364c03	0.71209735

target_position_embedding.weight f4 [9, 32]
0	0x3dbb64ff	0.09150123
1	0x3e872a77	0.26399586
2	0xbff29c02	-1.895386
3	0xbf0809e9	-0.5314012
4	0xbf458fce	-0.77172554
5	0x3e49474e	0.19656107
6	0xbf22d218	-0.6360183
7	0x3f00cde7	0.5031418
8	0x3cf5c7a1	0.030002417
9	0xbefb494c	-0.4907936
10	0x3f4024fb	0.7505643
11	0x3fa1d3d3	1.2642769
12	0x3f544b21	0.8292714
13	0x3fa6ddd0	1.3036442
14	0x3f5674d5	0.8377202
15	0x3e699555	0.22810872
16	0x3f4849d3	0.78237647
17	0xbf8df315	-1.1089808
18	0xbf39fb6c	-0.72649264
19	0x3f5091d3	0.8147251
20	0xbf2ec5af	-0.6827039
21	0xbf15923a	-0.5842625
22	0x3fa67a90	1.3006153
23	0x3f980455	1.1876322
24	0x3ff20abf	1.890953
25	0xbf8c7bbe	-1.0975263
26	0xbe216f62	-0.15765145
27	0xbeb3e9c7	-0.35139295
28	0x3fbbca68	1.4671144
29	0x3f1dc4ba	0.61628306
30	0xbf1c6aed	-0.61100656
31	0x3f49a31f	0.7876453
32	0xbe7e922b	-0.24860446
33	0xbfac30a1	-1.345234
34	0xbe998ac5	-0.29988685
35	0xc00c6f69	-2.1943
36	0x3ec4f85d	0.38470736
37	0x4023d2e4	2.5597467
38	0x3ed89af0	0.42305708
39	0x3e737bda	0.23777714
40	0x3f9b6d7d	1.2142788
41	0x401f541b	2.4895084
42	0xbf3ecca9	-0.74531037
43	0xbfdba22b	-1.7158865
44	0xc0178529	-2.3675025
45	0xbece3ab4	-0.40279162
46	0x3f8197a6	1.0124404
47	0xc01d2801	-2.4555666
48	0x3fbbcbf9	1.4671623
49	0xbfba1db3	-1.4540313
50	0xbfd11c49	-1.6336757
51	0xbf3dd778	-0.74156904
52	0xbee93872	-0.45550877
53	0xbf96cb3e	-1.1780775
54	0xbf274972	-0.65346444
55	0xbfaa2f72	-1.3295729
56	0x3e612de1	0.21990158
57	0x3f60e72f	0.8785276
58	0xbd5ee506	-0.054417633
59	0xbee57091	-0.44812444
60	0xbdf21fda	-0.118224815
61	0xbfe5ba9e	-1.7947576
62	0x3e741b13	0.23838453
63	0xbfa4d26d	-1.2876717
64	0x3f9669e0	1.175106
65	0x3ecbdc0e	0.39816326
66	0xbf8c041b	-1.0938753
67	0x3f55857c	0.83406806
68	0x3f07de21	0.53073317
69	0x40081490	2.126255
70	0x3f669632	0.9007293
71	0x3ed41511	0.41422322
72	0x4041ab9f	3.0261
73	0xbeff020c	-0.4980625
74	0x3e6dfeb6	0.23241696
75	0xbe26b644	-0.16280466
76	0xc0135a6f	-2.3023946
77	0xbf606236	-0.8764986
78	0xbf392d2b	-0.72334546
79	0x3f476f31	0.7790404
80	0xbf89b1a7	-1.075734
81	0xbf4b0f34	-0.79320073
82	0x3f66f5b2	0.9021865
83	0xbe8933f0	-0.26797438
84	0xbf0c92e1	-0.5491162
85	0x3d9cc77e	0.076552376
86	0xbe8cc50c	-0.27494085
87	0xbf91b4ac	-1.1383262
88	0xbf72c74c	-0.9483535
89	0xbe556902	-0.20840839
90	0xbfb4d9a3	-1.4128917
91	0x3f86aa4d	1.0520722
92	0xbf91d604	-1.1393437
93	0x3f15cf3e	0.5851935
94	0xbe45caa8	-0.19315588
95	0x3f7fc9b7	0.9991717
96	0xbff6e937	-1.9289922
97	0x3feaff7f	1.8359221
98	0xbedbe107	-0.4294512
99	0xbe0b92e9	-0.1363026
100	0x3fe3507c	1.7758937
101	0xbc637c92	-0.01388468
102	0x3ec65447	0.38736174
103	0xbec99fe3	-0.39379796
104	0xbc7d66ed	-0.015466434
105	0x3fbcdcef	1.4754924
106	0x40120c61	2.2820055
107	0x3f9bdca0	1.2176704
108	0x3d21e65f	0.03952634
109	0xbbb4bd6d	-0.0055157454
110	0xbf18d75e	-0.59703624
111	0xbfa429e7	-1.2825288
112	0xbf3ec380	-0.7451706
113	0x3e8f6c3f	0.28012273
114	0x3ed7cd50	0.42148829
115	0x3f9a7110	1.2065754
116	0xbe254424	-0.16139275
117	0xbf366299	-0.712442
118	0xbefd37a7	-0.49456522
119	0x3f2dcf0d	0.6789406
120	0x3e5a7b66	0.21336135
121	0x3d4a1733	0.04933853
122	0x3e1e73d0	0.15473866
123	0xbd9274da	-0.07151194
124	0x3ff3b8bf	1.9040755
125	0x3eeeabac	0.4661535
126	0x3f0bd7aa	0.5462595
127	0x3e82a99a	0.2552002
128	0x3f0e9770	0.55699825
129	0xbf3f39f1	-0.74697787
130	0x3d73881f	0.059455987
131	0x3f8f3dd2	1.1190741
132	0xbf5622b9	-0.8364673
133	0xbd5c913d	-0.053849448
134	0xbf635ea4	-0.88816285
135	0xbf09caf8	-0.5382533
136	0xbf5de56d	-0.866782
137	0x3f9fd501	1.2486879
138	0xbf565d8a	-0.8373648
139	0x3e661a34	0.22470933
140	0x3f52a5eb	0.8228442
141	0x3d23dccf	0.0400055
142	0x3fe4af6b	1.7866033
143	0xc0062ac9	-2.0963614
144	0x3f480c9c	0.7814424
145	0xbf08694c	-0.5328567
146	0xbf6cf2e8	-0.92558146
147	0xbe4ff7a5	-0.20309313
148	0x3f850e99	1.039508
149	0x3ec4fa80	0.38472366
150	0x3dc7be86	0.09753136
151	0x3fc303b4	1.5235505
152	0xbe210515	-0.15724595
153	0x3f708fee	0.9396962
154	0xbe18b7ea	-0.14913908
155	0xbe130872	-0.1435869
156	0xbbbea1cf	-0.005817629
157	0xbdd34319	-0.10315532
158	0x3fe25533	1.7682251
159	0x3f4556a7	0.77085346
160	0x3ea27559	0.31730154
161	0x3f213b0b	0.6298072
162	0xbef0de17	-0.4704444
163	0x3e5c3648	0.21505082
164	0x400efd55	2.2342122
165	0xbff85969	-1.9402286
166	0x3f13c393	0.577203
167	0xbe2ab288	-0.16669667
168	0xbcc03ee7	-0.023467494
169	0xbee6f012	-0.45105034
170	0xc00cccc8	-2.1999989
171	0x3fbc0ea9	1.4691974
172	0xbfe10a81	-1.758133
173	0xbf120665	-0.5704101
174	0xbf852a5b	-1.0403551
175	0xbf20acff	-0.6276397
176	0x3fb3046f	1.3985728
177	0x3e8cdd82	0.27512747
178	0xbeaacc8d	-0.33359185
179	0xbf2d81cf	-0.677762
180	0xbe7d1969	-0.24716724
181	0xbe94d9dc	-0.29072464
182	0xbf7ca92c	-0.98695636
183	0x3e322888	0.17398274
184	0xbf78cfc8	-0.9719205
185	0x3e66aadf	0.2252612
186	0xbf206e12	-0.62667954
187	0x3fd4963d	1.6608349
188	0x3f79160b	0.9729926
189	0x3e64c94b	0.22342412
190	0x40122663	2.283593
191	0xbf92aef6	-1.1459644
192	0xbf56e10b	-0.8393714
193	0xc0031638	-2.0482311
194	0xbfae3071	-1.3608533
195	0xbca991b8	-0.020699367
196	0x3ec46def	0.38365123
197	0x3d65afce	0.056075864
198	0xbf2994bd	-0.6624258
199	0xbdaed76d	-0.08537183
200	0x3f0d77f6	0.5526117
201	0xbdd60a8c	-0.104512304
202	0x3e8eaa25	0.27864185
203	0x3f85b19f	1.0444831
204	0xbf13470d	-0.5753029
205	0xbe900e9d	-0.2813615
206	0x3f263238	0.6492038
207	0x3e838f80	0.2569542
208	0x3fcfb41c	1.622684
209	0xc0163f4d	-2.3476136
210	0xbe905fef	-0.28198192
211	0x3e8776b1	0.26457742
212	0xbf0f9608	-0.56088305
213	0xbeeb0006	-0.45898455
214	0xbed9114a	-0.42396003
215	0xbf872e24	-1.0560956
216	0xbf574d89	-0.84102684
217	0xbd3bb902	-0.045830734
218	0x3ddc5437	0.1075825
219	0x3f793956	0.9735311
220	0x3f741099	0.95337826
221	0xbf3aaebd	-0.7292288
222	0xc0100e3a	-2.2508683
223	0x3df87c23	0.12133052
224	0x3ecfa3ae	0.40554565
225	0xbe67b5f5	-0.22628005
226	0xbe9f9170	-0.31165648
227	0xbfe56272	-1.7920668
228	0x3f8245ef	1.0177592
229	0xbf84ec74	-1.038466
230	0xbf909be7	-1.1297578
231	0xbeb96818	-0.3621223
232	0x402cd803	2.7006843
233	0xbf072837	-0.5279574
234	0x3fc17e10	1.5116596
235	0xbfd89cd2	-1.6922858
236	0xbd22cbe4	-0.039745227
237	0xbff02e5f	-1.8764151
238	0x3eba586a	0.3639558
239	0xbeb2b567	-0.34904024
240	0x3d8e8788	0.06959444
241	0x3dd67dbc	0.10473201
242	0xbee9fbd5	-0.45699945
243	0x3eaf357c	0.34220493
244	0x3e983d56	0.29734296
245	0xbea86228	-0.32887387
246	0x3f52acf7	0.82295173
247	0x3d497508	0.049183875
248	0xbf339195	-0.70144016
249	0x3ec3fbbb	0.38277993
250	0x3e7f5785	0.2493573
251	0x3e4d30a7	0.2003809
252	0x3fabebff	1.3431395
253	0xbfa85a8f	-1.3152636
254	0x3e493a39	0.19651116
255	0x3e0acc33	0.13554458

transformer.encoder.layers.0.self_attn.in_proj_weight f4 [96, 32]
0	0xbda1e915	-0.07905785
1	0x3e17cb98	0.14823759
2	0xbda72067	-0.08160477
3	0xba073be6	-0.0005158767
4	0xbe1f1f21	-0.15539218
5	0x3cfc06ac	0.0307649
6	0x3e255221	0.16144611
7	0x3e2a1b51	0.16611983
8	0xbd4d9345	-0.050189275
9	0xbe11db4e	-0.14243814
10	0xbda294c3	-0.0793853
11	0x3e2513c4	0.16120821
12	0xbe3131aa	-0.17304102
13	0xbe38430b	-0.17994325
14	0xbd0e1878	-0.034691304
15	0xbe52d4d1	-0.20588996
16	0x3e2d2e19	0.16912116
17	0xbe36ae79	-0.17839994
18	0xbe5a7ac0	-0.21335888
19	0x3e5f3c1b	0.21800272
20	0x3cf56272	0.029954169
21	0x3df38b18	0.118917644
22	0x3e06c5c0	0.13161373
23	0x3dbb7f9c	0.09155199
24	0x3e3a47b0	0.18191409
25	0xbc9d199f	-0.019177256
26	0x3e0b4419	0.13600196
27	0xbd7c15a6	-0.061544083
28	0x3cf7c8f9	0.030247198
29	0xbe0511f4	-0.1299513
30	0xbe0f722a	-0.14008394
31	0xbe147d21	-0.14500858
32	0xbe151081	-0.14557077
33	0xbdb79f7e	-0.089659676
34	0xbcc76544	-0.02434028
35	0x3de14b38	0.11000675
36	0xbe3d95f8	-0.1851424
37	0x3e3afdba	0.18260852
38	0x3cc2d6d3	0.023784077
39	0x3e42cfef	0.19024633
40	0x3d13073b	0.035895567
41	0x3e1c7c50	0.15281796
42	0xbe23c328	-0.15992415
43	0xbd4bb23a	-0.049730517
44	0xbce5f774	-0.028072096
45	0xbdd5c6c6	-0.10438304
46	0x3c978515	0.018496076
47	0xbcf47021	-0.029838623
48	0xbe3bb06b	-0.18329017
49	0x3d81f248	0.063450396
50	0x3e0c0f8f	0.1367781
51	0x3e0eab5f	0.1393256
52	0xbd9850d2	-0.0743729
53	0xbda5e379	-0.081000276
54	0xbe687216	-0.2269977
55	0x3ded4068	0.1158455
56	0xbe4e7d5b	-0.20165007
57	0xbe4ee805	-0.20205696
58	0x3e59dc1e	0.21275374
59	0xbdf191f4	-0.117954165
60	0xbda2d6ec	-0.07951149
61	0xbd339e8c	-0.043852374
62	0xbd9721d3	-0.07379498
63	0xbe1813b8	-0.14851272
64	0x3bddc0a6	0.0067673502
65	0xbdce8b98	-0.10085219
66	0xbdc11a74	-0.09428874
67	0x3db0d74d	0.08634815
68	0x3c9cf6af	0.019160597
69	0xbbb13810	-0.0054082945
70	0xbc956b50	-0.018239647
71	0xbbc442f6	-0.0059894277
72	0x3e392d6c	0.18083733
73	0xbcc13909	-0.023586767
74	0x3e40c871	0.18826462
75	0x3cfb30a6	0.030662846
76	0xbdb70606	-0.08936696
77	0x3df53538	0.11973041
78	0xbe051735	-0.12997134
79	0x3ba9895f	0.0051738466
80	0x3bae0128	0.0053101964
81	0xbd4f5d87	-0.050626304
82	0xbd127cc2	-0.03576351
83	0xbd776651	-0.06040031
84	0x3d41f608	0.047353774
85	0x3d54eaef	0.051981863
86	0x3bf2e30c	0.00741232
87	0xbe1d1b82	-0.15342525
88	0xbdcb7a18	-0.09935397
89	0x3d8c11f3	0.06839361
90	0xbb387923	-0.0028148375
91	0x3e27a1ee	0.16370365
92	0xbd0bd6b1	-0.034140293
93	0x3ddeed9a	0.10885163
94	0x3e575b2c	0.21030873
95	0xbe46ffaa	-0.19433466
96	0xbe29fb88	-0.16599858
97	0x3e3b7a80	0.18308449
98	0x3d0d7559	0.03453574
99	0xbe2424e4	-0.16029698
100	0x3d5fb4c1	0.05461574
101	0xbd547674	-0.05187078
102	0x3cfffb1f	0.031247674
103	0xbd7dfa55	-0.062006313
104	0xbe306a46	-0.1722804
105	0xbe404722	-0.18777135
106	0xbe5b2cbe	-0.21403787
107	0x3e2d5bf8	0.16929615
108	0xbdd1fe9c	-0.10253641
109	0x3cdec3ea	0.027193028
110	0xbd9293ce	-0.07157098
111	0xbe1ef660	-0.15523672
112	0x3e1af47a	0.15132323
113	0xbcd83830	-0.02639398
114	0xbcd514b6	-0.026010852
115	0x3e0318af	0.12802385
116	0xbdff152c	-0.1245521
117	0x3b933fc6	0.0044936864
118	0x3cf924f7	0.030413134
119	0x3de7950f	0.113077275
120	0xbe4cc928	-0.1999861
121	0xbe1729fc	-0.1476211
122	0x3e349be0	0.17637587
123	0x3db93045	0.0904241
124	0x3e06e96e	0.13174984
125	0x3d0f27e0	0.034950137
126	0xbc30ebf4	-0.010798443
127	0xbda21c4c	-0.079155535
128	0xbe02d28a	-0.12775627
129	0x3cd0082c	0.025394522
130	0xbe047bc5	-0.1293784
131	0xbdf5478f	-0.11976539
132	0xbd9bf3f7	-0.07614892
133	0xbe449a5a	-0.19199505
134	0x3c5f213a	0.013618762
135	0x3e51b3fe	0.20478818
136	0xbe3906f5	-0.1806906
137	0x3cc1006f	0.023559777
138	0xbe06e793	-0.13174276
139	0x3c6c5194	0.014423747
140	0xbe088ba3	-0.13334517
141	0xbe2f4951	-0.17117812
142	0xbdad53c0	-0.0846324
143	0x3dfe92b7	0.124303274
144	0x3e3d235a	0.18470517
145	0xbe2f8e2d	-0.1714408
146	0xbbe5ad02	-0.0070091495
147	0xbe41e58c	-0.18935221
148	0x3dc62766	0.096754834
149	0x3e4b3c0d	0.19847126
150	0xbdb678b5	-0.08909742
151	0x3db1857f	0.086680405
152	0xbdda5de3	-0.10662439
153	0xbd4e17bb	-0.0503156
154	0x3e31ce8c	0.17363948
155	0xbe05de07	-0.13072978
156	0xbe2816dd	-0.16414972
157	0xbddadf0b	-0.10687073
158	0xbdbb6c0b	-0.09151467
159	0xbde72936	-0.11287157
160	0x3e04de6a	0.12975469
161	0x3d67c3f2	0.056583352
162	0x3e19109c	0.14947742
163	0x3ddcf204	0.10788348
164	0x3e64e309	0.22352232
165	0x3e00ef9f	0.12591408
166	0xbc8f2709	-0.017474668
167	0xbc4cc510	-0.012498155
168	0xbd84e787	-0.06489473
169	0xbe2720bf	-0.16321085
170	0x3ba18585	0.004929247
171	0xbb793db6	-0.0038031167
172	0xbd19180d	-0.037376452
173	0xbcfdc039	-0.030975448
174	0xbdf13254	-0.117771775
175	0x3e2abbff	0.16673277
176	0xbe467086	-0.19378862
177	0x3e4b7820	0.19870043
178	0x3e576303	0.21033864
179	0xbe35305f	-0.17694233
180	0x3d378665	0.044805903
181	0x3c8bd58b	0.017069599
182	0xbe125f5c	-0.14294189
183	0x3dcb693d	0.09932182
184	0xbe4547d4	-0.19265682
185	0x3d7701ae	0.060304336
186	0xbe2d2214	-0.16907531
187	0xbd1cf4c6	-0.03831937
188	0x3e31b398	0.17353666
189	0x3c9ca429	0.019121246
190	0x3e117855	0.1420606
191	0x3d9dbde8	0.07702237
192	0x3dc8a911	0.09797872
193	0x3d0eeded	0.034894872
194	0xbe00c1a5	-0.1257387
195	0xbd885b02	-0.06657983
196	0xbd21d904	-0.039513603
197	0xbdaad284	-0.08340934
198	0xbde576e9	-0.11204321
199	0x3d330d25	0.043713707
200	0x3b906fdf	0.0044078673
201	0x3e07b5c0	0.13252926
202	0xbd44f3b3	-0.048083972
203	0x3e1dc053	0.15405397
204	0xbc734f1a	-0.014850402
205	0x3e0c28a9	0.13687386
206	0x3d334335	0.043765265
207	0xbe48a71b	-0.19594996
208	0x3e1dc381	0.1540661
209	0xbdce2749	-0.10066087
210	0x3e202538	0.15639198
211	0x3a4b03e5	0.0007744416
212	0x3e076b51	0.13224532
213	0xbd0e7947	-0.034783628
214	0x3e60cf74	0.21954137
215	0x3e11bf3a	0.14233103
216	0x3d97ff5b	0.07421752
217	0x3dff9444	0.12479451
218	0x3d8092c8	0.06277996
219	0x3d8d557d	0.06901071
220	0xbe35b31f	-0.1774411
221	0x3cac9aa3	0.02106983
222	0x3e239f4c	0.15978736
223	0xbe1d8fd8	-0.15386903
224	0x3e3c90cc	0.1841461
225	0x3ddeabc5	0.10872606
226	0xbc95f1f2	-0.018303845
227	0xbe05d853	-0.13070802
228	0xbe37ebdd	-0.17961068
229	0xbe1cdf75	-0.15319617
230	0x3c538894	0.012910981
231	0x3e4cb533	0.19990997
232	0xbd9835a8	-0.07432109
233	0xbe3fc97a	-0.18729201
234	0xbe0f7fec	-0.14013642
235	0x3e60d639	0.2195672
236	0x3d605f65	0.054778475
237	0x3e23a7c4	0.15981966
238	0xbe140295	-0.1445411
239	0xbce30ff5	-0.02771757
240	0x3debfbac	0.11522612
241	0xbd4ea6fb	-0.050452214
242	0xbd88708d	-0.06662092
243	0xbc193f0f	-0.009353413
244	0x3ab4b199	0.0013785838
245	0xbe0fd665	-0.14046629
246	0x3e06a889	0.13150229
247	0xbd75e2c8	-0.06003073
248	0x3e5b1fe0	0.21398878
249	0xbd44a453	-0.048008274
250	0x3e48186b	0.19540565
251	0x3e4217b0	0.18954349
252	0x3dee0ec6	0.116239116
253	0xbcdbd84b	-0.026836535
254	0x3e4efcd9	0.20213641
255	0x3e48eb4a	0.19621006

transformer.encoder.layers.0.self_attn.in_proj_bias f4 [96]
0	0xbaee88b9	-0.0018198706
1	0xbb3a6613	-0.0028442189
2	0x3adb4355	0.001672844
3	0x3b2659c1	0.0025383087
4	0xbaea0582	-0.0017854425
5	0x3b7677f0	0.003760811
6	0x3ad0ca1d	0.0015929375
7	0xbafcc2c3	-0.0019284118
8	0x3ae9943e	0.0017820669
9	0x3aed4f4c	0.0018105297
10	0xbb3afdb7	-0.0028532573
11	0x3ada7f95	0.0016670102
12	0xba989516	-0.0011641111
13	0x3ada1313	0.0016637765
14	0xbb04f909	-0.0020290038
15	0xbae86868	-0.0017731311
16	0x3b26ca09	0.0025450012
17	0x3b50f355	0.0031883318
18	0xbaacc5ca	-0.0013181504
19	0xbb3a6fed	-0.002844806
20	0xbb26e3fb	-0.0025465477
21	0xbb222e09	-0.0024746677
22	0xbaa335f7	-0.0012451996
23	0xbb1d3064	-0.0023985142
24	0xbb3fca73	-0.0029264956
25	0x3ae665bb	0.0017577925
26	0x3b683469	0.003543163
27	0xbb39674d	-0.0028290332
28	0xbb367004	-0.0027837763
29	0xbaa13366	-0.0012298643
30	0x3adf1af4	0.0017021582
31	0x3a80b643	0.0009819943
32	0x35ddde3b	1.6530461e-06
33	0xb5cdb7a2	-1.5327134e-06
34	0x3365e1e6	5.352367e-08
35	0x36163caa	2.2387053e-06
36	0x34fba0d0	4.68694e-07
37	0xb61a069d	-2.2951638e-06
38	0x3626a709	2.4833155e-06
39	0x35aef55b	1.3035418e-06
40	0xb5069a6f	-5.014362e-07
41	0xb5481897	-7.454159e-07
42	0x353ef1ed	7.1132564e-07
43	0x35155c36	5.564101e-07
44	0xb6063cff	-2.000306e-06
45	0xb3949265	-6.918416e-08
46	0xb5aa326f	-1.2680665e-06
47	0x3559a849	8.1083687e-07
48	0x35b712a9	1.3639993e-06
49	0x34fc60ef	4.7009186e-07
50	0xb55b08f0	-8.1596863e-07
51	0xb4b24d89	-3.3211498e-07
52	0xb4a75f85	-3.1175674e-07
53	0x348fee3d	2.6809167e-07
54	0xb44e7123	-1.9226404e-07
55	0xb51bb0fa	-5.7999534e-07
56	0x3492bd9b	2.7332575e-07
57	0x3557066c	8.0103086e-07
58	0xb550c71a	-7.777577e-07
59	0xb5da43b2	-1.6261968e-06
60	0xb43e6a56	-1.7733814e-07
61	0xb4e05b49	-4.178967e-07
62	0x33483a9e	4.661944e-08
63	0xb51a36fe	-5.7449495e-07
64	0x3ad96f2a	0.0016588916
65	0x3b9375ed	0.004500142
66	0xbabf81df	-0.0014610848
67	0xbb18f34f	-0.0023338383
68	0x3b59e555	0.0033248265
69	0x3b64adbc	0.0034893593
70	0xbac907a5	-0.0015337361
71	0x3a16f209	0.0005758112
72	0x3b691556	0.0035565696
73	0xbb29ce60	-0.0025910363
74	0xbb7a515a	-0.0038195462
75	0x3b37d001	0.0028047564
76	0xbb80039a	-0.0039066793
77	0x3b60af67	0.0034284235
78	0xbb543321	-0.0032379108
79	0x3b93be3e	0.0045087626
80	0xbb2b41f2	-0.0026131836
81	0x3adf1c4b	0.0017021982
82	0xba9dd5db	-0.0012041883
83	0x3a8b1a1c	0.001061264
84	0x3b134a03	0.0022474534
85	0x3a24b3e8	0.00062829116
86	0x3b51282e	0.0031914818
87	0xbb12fe00	-0.0022429228
88	0xba8ea8a9	-0.0010884005
89	0xbafb85d6	-0.0019189666
90	0xbb29e4ce	-0.0025923732
91	0x3b0a8ddd	0.0021141686
92	0x3b8bd652	0.0042674923
93	0x3a5b838b	0.00083737884
94	0x3ba2add9	0.004964572
95	0xb8d334ba	-0.00010071085

transformer.encoder.layers.0.self_attn.out_proj.weight f4 [32, 32]
0	0x3e3fd2f5	0.18732817
1	0x3e4a0fe7	0.19732629
2	0x3e296814	0.16543609
3	0xbe82b54a	-0.25528938
4	0x3e4286bc	0.1899671
5	0x3e8d6b6d	0.27621022
6	0x3d0a4b78	0.03376338
7	0xbe841383	-0.25796136
8	0x3e886842	0.26642042
9	0xbe2cf318	-0.16889608
10	0x3e1322aa	0.14368692
11	0x3d4aac2b	0.0494806
12	0x3e5b4e3d	0.21416564
13	0xbc556856	-0.013025364
14	0xbd0b0f01	-0.033949856
15	0xbe89a466	-0.2688324
16	0xbe7aeb99	-0.24503936
17	0x3d04dbb1	0.032436077
18	0xbdfd5224	-0.12369183
19	0xbddee080	-0.10882664
20	0x3e7f50b6	0.24933133
21	0xbd561e10	-0.052274764
22	0x3ce4bd08	0.027922168
23	0xbe05d2b1	-0.13068654
24	0x3e89942b	0.26870856
25	0x3c082603	0.008309844
26	0x3c867322	0.016412321
27	0x3d8a033b	0.067388974
28	0xbe15afbf	-0.14617823
29	0x3cd462a2	0.025925938
30	0x3d6a475e	0.057196967
31	0xbe3978b6	-0.18112454
32	0xbe0bff02	-0.13671497
33	0xbe9a0fe7	-0.30090258
34	0x3d1bcdf9	0.038038228
35	0xbd32ee3e	-0.043684237
36	0xbde7b287	-0.11313348
37	0x3e521150	0.20514417
38	0xbe90007a	-0.28125364
39	0xbe438351	-0.19093062
40	0x3e6c145a	0.23054639
41	0x3d602368	0.054721266
42	0xbe812058	-0.2521999
43	0x3e758454	0.2397626
44	0xbdecb1a0	-0.11557317
45	0xbe2b3c26	-0.16722164
46	0x3e4405d3	0.19142847
47	0x3d761212	0.060075827
48	0x3e6d0a66	0.23148498
49	0x3c7e421c	0.015518691
50	0xbd4ff8be	-0.05077433
51	0xbd80583f	-0.062668316
52	0x3e4697d8	0.19393861
53	0x3e55fe07	0.20897685
54	0x3df7f948	0.121080935
55	0x3e03b04d	0.12860222
56	0x3e08bf91	0.13354327
57	0xbdfb8396	-0.122809574
58	0xbd6cf772	-0.05785317
59	0xba2adfcc	-0.00065183337
60	0xbe468ae9	-0.19388928
61	0x3e9be549	0.30448368
62	0x3e769c9a	0.24083176
63	0xbe3b30a2	-0.1828027
64	0x3e402808	0.1876527
65	0xbd512ef8	-0.051070184
66	0x3e5a145d	0.2129683
67	0xbe1902c6	-0.14942464
68	0x3e9824c6	0.29715556
69	0xbda813ac	-0.08206877
70	0x3e5bf528	0.21480238
71	0x3e83b19c	0.25721443
72	0x3c76e6f4	0.015069712
73	0xbb711977	-0.003678886
74	0xbd23a6e5	-0.039954085
75	0xbe9bc604	-0.3042451
76	0x3d2cf1b2	0.042222686
77	0x3d82ccb5	0.06386701
78	0xbe0a0b27	-0.13480817
79	0x3db66d86	0.08907609
80	0x3e6d99fb	0.2320327
81	0xbe8da87d	-0.2766761
82	0x3e7eaa1b	0.24869578
83	0x3d25e587	0.040502097
84	0x3e01c030	0.1267097
85	0x3dbc670b	0.091993414
86	0x3e87b2fa	0.26503736
87	0x3e679847	0.22616683
88	0x3e1c9069	0.15289463
89	0xbd57bdef	-0.05267137
90	0xbdbb373b	-0.09141394
91	0xbe7d9b46	-0.24766263
92	0xbe8697be	-0.26287645
93	0xbe9b98d2	-0.3039003
94	0x3e902ca7	0.28159067
95	0xbe9ff51d	-0.31241694
96	0x3e65282f	0.2237861
97	0xbe961d75	-0.2931935
98	0x3e9014fa	0.28141004
99	0x3db07c86	0.08617501
100	0x3d9283e4	0.071540624
101	0xbda68644	-0.08131078
102	0xbd3fdf13	-0.0468436
103	0x3e8bdb7b	0.27315888
104	0x3bf083ea	0.007339944
105	0x3c4519d6	0.012030086
106	0x3d9b4d2c	0.07583079
107	0x3e72149e	0.23640677
108	0xbdffdae3	-0.12492921
109	0x3e109acc	0.1412155
110	0xbca4111a	-0.020027686
111	0xbe105c3f	-0.14097689
112	0x3dfd0bf6	0.12355797
113	0x3dc7a691	0.09748567
114	0xbe174c49	-0.14775194
115	0xbe76c8f5	-0.24100097
116	0xbe6ac1cc	-0.2292549
117	0xbe51836e	-0.20460293
118	0x3e9443b4	0.28957903
119	0x3e57da2c	0.2107932
120	0xbe818d36	-0.25303048
121	0x3e7afc91	0.24510409
122	0xbd627348	-0.055285722
123	0x3b99bd87	0.004691783
124	0x3e38bcbe	0.1804075
125	0x3e8086cb	0.2510284
126	0x3b881f8d	0.004154152
127	0x3d172ba9	0.036906872
128	0x3d1f2221	0.038850907
129	0xbe93d0d7	-0.2887027
130	0x3b3f68a2	0.0029206653
131	0xbe89ac0f	-0.26889083
132	0x3e66f5af	0.22554658
133	0xbe6e5114	-0.23273116
134	0x3d9b480d	0.07582102
135	0x3e785301	0.24250413
136	0x3e776472	0.2415941
137	0xbe94355e	-0.28946966
138	0xbda62475	-0.081124224
139	0x3e2f6326	0.17127666
140	0xbe76750d	-0.24068089
141	0xbad6978e	-0.0016372071
142	0xbdea984a	-0.11454828
143	0x3ca64158	0.02029483
144	0x3dfa2ca5	0.122155465
145	0x3d8f5e8e	0.07000457
146	0x3dd865b1	0.10566271
147	0xbd8b0285	-0.0678759
148	0xbe762a4d	-0.24039574
149	0x3e34827b	0.176279
150	0x3e7fb28e	0.24970457
151	0x3e74a166	0.23889694
152	0xbe978397	-0.29592583
153	0xbdd91d04	-0.106012374
154	0xbe47b426	-0.19502315
155	0xbe4b8377	-0.19874369
156	0xbe973df6	-0.2953946
157	0x3dcd96bc	0.10038516
158	0x3c7ffb81	0.015623928
159	0x3b7ed32a	0.0038883188
160	0xbe85d630	-0.26139975
161	0x3e10d4b6	0.14143643
162	0x3cc85e11	0.024458917
163	0x3d4fc622	0.050726064
164	0xbcaeb912	-0.021328483
165	0xbd2658fa	-0.0406122
166	0x3dfa6360	0.122259855
167	0x3db929e8	0.09041196
168	0xbd5ba294	-0.053621843
169	0x3e703106	0.23456201
170	0x3e4b012a	0.19824663
171	0x3da43eaa	0.08019765
172	0x3e11ab68	0.14225543
173	0xbddd8269	-0.108158894
174	0xbdcaea1c	-0.09907934
175	0xbdda0bb3	-0.10646763
176	0x3df20dcc	0.11819038
177	0x3da95f82	0.0827017
178	0xbe8a82e8	-0.27053
179	0xbd358699	-0.044317815
180	0x3e5f855b	0.21828215
181	0x3e81b396	0.25332326
182	0x3db5878d	0.08863745
183	0xbaeddfe8	-0.0018148394
184	0xbe2678f5	-0.16257079
185	0xbe34cea5	-0.17656954
186	0xbc78e133	-0.01519041
187	0xbd1f2fb0	-0.038863838
188	0xbe42b6da	-0.19015065
189	0x3e9f68df	0.31134698
190	0x3e0ce855	0.13760503
191	0x3e340239	0.17578973
192	0xbe6878cc	-0.2270233
193	0x3d61943f	0.05507302
194	0x3e3235a1	0.1740327
195	0x3e1cb7f3	0.15304546
196	0x3e86d5cf	0.26334998
197	0xbd248f57	-0.040175762
198	0xbe5a88a8	-0.21341193
199	0xbe111165	-0.14166792
200	0xbe9d4509	-0.30716732
201	0x3e80d89a	0.25165254
202	0xbdc9b3f3	-0.09848776
203	0x3e213360	0.15742254
204	0x3e140b30	0.14457393
205	0x3d3d48b5	0.046211917
206	0x3c9b1cc6	0.018934619
207	0xbe7b7424	-0.24556023
208	0x3c562da6	0.013072407
209	0xbc95d6fe	-0.018290993
210	0x3d5634d5	0.05229648
211	0x3defccc0	0.11708975
212	0x3d7e0fba	0.062026717
213	0x3e65bbf4	0.2243498
214	0xbd283062	-0.041061766
215	0x3e8125e2	0.25224215
216	0xbe4bdfae	-0.19909546
217	0xbe7b4a4e	-0.24540064
218	0x3d80db13	0.06291785
219	0x3e5400c3	0.20703416
220	0x3e6adc20	0.22935534
221	0x3e4ccd84	0.20000273
222	0x3e8a98bd	0.27069655
223	0x3d66df2c	0.056365177
224	0xbe228b1c	-0.15873379
225	0xbe18fa61	-0.14939262
226	0x3dd0ab94	0.10188976
227	0x3db96360	0.090521574
228	0x3dcd3d7f	0.10021495
229	0xbd76c94c	-0.060250565
230	0xbd824d94	-0.06362453
231	0x3d9dd029	0.07705719
232	0x3d8c958e	0.06864463
233	0xbd67a764	-0.05655612
234	0xbdbcdb21	-0.09221483
235	0x3e1545c6	0.14577398
236	0xbcffeed3	-0.03124181
237	0x3dc1b0f6	0.09457581
238	0xbe821e72	-0.25413853
239	0x3e53228d	0.20618649
240	0xbe3420b4	-0.175906
241	0xbe6151d0	-0.22003865
242	0x3d2578ce	0.04039841
243	0x3d0fc101	0.035096172
244	0x3c268228	0.010162868
245	0xbe962661	-0.29326156
246	0xbdd6668f	-0.1046878
247	0x3e861582	0.26188284
248	0x3e1d9d55	0.15392049
249	0x3ddd3b57	0.10802334
250	0x3e892abb	0.26790413
251	0xbd26f599	-0.040761564
252	0xbe93523a	-0.2877367
253	0xbd8b4452	-0.068001404
254	0xbe3eb62d	-0.18624182
255	0x3c07993e	0.008276282

transformer.encoder.layers.0.self_attn.out_proj.bias f4 [32]
0	0x3b9a5946	0.0047103493
1	0xbae58980	-0.0017512292
2	0x3ac321cd	0.0014887393
3	0xbad74702	-0.001642436
4	0x3b85bae7	0.0040811184
5	0xbb58dad8	-0.0033089425
6	0xbb29d3c0	-0.0025913566
7	0xbae9081b	-0.0017778905
8	0x3beacb37	0.0071653384
9	0xb95e2132	-0.00021183936
10	0x3b5868b1	0.0033021385
11	0xbb3e67b4	-0.002905351
12	0xbb0105f7	-0.0019687393
13	0x3a87d1a7	0.0010362164
14	0xbaa5d0d8	-0.0012650741
15	0xbba2bc7c	-0.0049663167
16	0xbb511f8b	-0.003190967
17	0xbb41c7a3	-0.0029568456
18	0x3aa4ff45	0.0012588283
19	0xb8c9233f	-9.590992e-05
20	0x3abcbe61	0.0014399999
21	0x3ba4bd9f	0.0050274874
22	0xbb73a5ab	-0.0037177603
23	0xbb5e438f	-0.003391478
24	0x39ad9cbe	0.00033113913
25	0xb9f16373	-0.00046041197
26	0xba96403f	-0.0011463239
27	0x3bc9ab46	0.0061544506
28	0x3b398888	0.0028310139
29	0xbb1b82b9	-0.002372904
30	0xbb1e0eaf	-0.0024117639
31	0x3a9ac072	0.0011806621
