models/2023-06-30 16:38:35.184672/model-110.pt (torch, 976547 bytes, 70 tensors)

input_embedding.weight f4 [16, 64]
-0.012272726 0.09009427 0.030908244 -0.03747052 -0.06634402 0.06454966 -0.07344103 0.041353546
0.10760169 0.061088 0.0690933 -0.06622643 -0.023370342 -0.09104673 0.08630469 0.042022053
-0.07539506 0.055121034 -0.0062620267 0.011930267 -0.09285599 0.09458903 0.014539765 0.013391513
-0.044945728 0.084560096 -0.07528975 -0.101772785 -0.033429686 -0.07453329 0.06268815 0.009538167
-0.11075239 0.053983655 -0.07607718 -0.056880366 0.08888688 -0.09422909 -0.021898912 -0.02586462
-0.081858106 -0.100674726 0.013133455 0.021899791 0.028736474 -0.042798232 0.009666756 0.007084777
0.0025362312 -0.09937065 -0.10681908 -0.07182806 0.06817029 -0.02649788 -0.10747562 0.026558552
0.028664386 0.07408699 0.041801937 -0.03872461 0.09925806 0.026191037 0.009323135 -0.051067535
-0.026097417 -0.0214314 -0.020078946 0.07827584 0.07108684 -0.0055842283 -0.096439086 -0.061055448
0.013764858 0.015344083 0.09740794 -0.03627329 0.0011387945 0.09344256 0.08229283 0.051983118
-0.045002628 -0.057092953 0.0029218912 -0.010264433 -0.029809738 0.09311805 -0.035728335 0.027258873
-0.03085897 0.098264836 -0.067243 0.05703148 -0.002812624 0.09304289 -0.03048463 0.007173836
-0.092492595 0.098284975 0.016294349 -0.030658318 0.08441519 -0.07842722 -0.083771706 0.07192854
-0.06990296 -0.02999344 0.031796433 -0.070020415 -0.05752921 0.016937435 0.04545312 0.026659442
-0.09717705 0.02325809 -0.04858097 -0.030406643 -0.04226446 -0.046336126 -0.010553896 0.09687876
0.07484672 0.023291362 0.07100397 0.027965559 0.094168484 -0.08700643 0.099476695 -0.0074964287
-0.00048406125 0.022855734 -0.027019192 0.050940324 -0.062064685 0.03988519 0.092845194 -0.022273052
-0.08710059 -0.040876698 0.045930207 0.08182617 0.094896995 -0.08057982 0.07358264 0.07073181
0.09290508 -0.089413166 -0.0035146594 0.040158536 -0.058199704 0.034571886 -0.08272817 -0.0061369776
0.015212965 0.056136906 -0.029875576 0.06104063 0.099072315 -0.04556806 0.05850313 -0.0043528914
-0.036633074 -0.026723528 -0.07270806 0.081358604 0.08987539 -0.039545216 -0.06341691 0.043426145
-0.01361494 0.08073264 -0.08016703 0.034382284 0.037306286 0.079948425 -0.032523107 0.03459711
-0.036626447 -0.050577868 0.024349486 -0.05107459 0.074022554 -0.035776258 -0.0928715 0.017745031
-0.008674872 0.06893897 -0.06358286 -0.012026477 -0.016068352 0.09461609 -0.07665669 -0.08486501
-0.045212377 0.06336597 -0.09308957 0.053438187 -0.012277174 0.0873246 -0.08170416 0.051103424
-0.014610851 0.019961119 -0.018405903 0.0065980675 -0.028749991 -0.015859162 0.047552027 0.038711585
0.088992335 0.073255144 -0.08528482 -0.09488684 0.06468493 0.09741684 0.044856798 -0.090317406
0.0625604 0.029939426 -0.078502096 0.0958182 -0.042479325 0.02629633 0.016997313 0.049142253
0.047491908 -0.021870745 0.0969707 -0.08432674 0.05270679 0.03958211 0.016626537 -0.021959675
-0.07051317 0.043887258 -0.06933355 0.033064723 0.025060058 -0.026305282 0.0036895752 -0.02058797
-0.011137533 -0.013021911 -0.03823935 -0.04982076 0.033426046 0.049133874 0.056636143 -0.021964122
-0.052040137 0.008224404 -0.014447868 -0.011224473 0.026224984 0.013017225 0.022828901 0.098133646
00000000: 8b13 49bc 5883 b83d 4933 fd3c b07a 19bd
00000010: 60df 87bd 9d32 843d 4068 96bd 5662 293d
00000020: 465e dc3d 6937 7a3d ca80 8d3d b9a1 87bd
00000030: 2973 bfbc b576 babd 83c0 b03d 511f 2c3d
00000040: ba68 9abd 98c6 613d b031 cdbb 2b77 433c
00000050: 482b bebd e5b7 c13d 3238 6e3c 1468 5b3c
00000060: 0319 38bd d82d ad3d 8331 9abd 406e d0bd
00000070: 91ed 08bd e9a4 98bd a562 803d f945 1c3c
00000080: 26d2 e2bd f71d 5d3d 5ace 9bbd 63fb 68bd
00000090: 530a b63d 2efb c0bd 5965 b3bc 0ae2 d3bc
000000a0: 39a5 a7bd 8d2e cebd b42d 573c 3167 b33c
000000b0: c168 eb3c 334d 2fbd 5061 1e3c 6b27 e83b
000000c0: e636 263b d782 cbbd f6c3 dabd 971a 93bd
000000d0: dd9c 8b3d 1512 d9bc 2e1c dcbd 5291 d93c
000000e0: 93d1 ea3c ebba 973d 8238 2b3d b29d 1ebd
000000f0: cf47 cb3d 968e d63c 10c0 183c 312c 51bd
00000100: 40ca d5bc e790 afbc 9a7c a4bc 154f a03d
00000110: fa95 913d e7fb b6bb db81 c5bd 4715 7abd
00000120: 0086 613c c065 7b3c d07d c73d 4d93 14bd
00000130: 9a43 953a d05e bf3d 2589 a83d 40ec 543d
00000140: ad54 38bd 4dda 69bd 337d 3f3b 272c 28bc
00000150: 8d33 f4bc adb4 be3d e057 12bd 004e df3c
00000160: f3cb fcbc 133f c93d b3b6 89bd d799 693d
00000170: 0054 38bb 458d be3d e7ba f9bc 8012 eb3b
00000180: c26c bdbd a249 c93d ba7b 853c 2727 fbbc
00000190: dfe1 ac3d 739e a0bd 8090 abbd 454f 933d
000001a0: 4829 8fbd cdb4 f5bc fa3c 023d dd66 8fbd
000001b0: c0a3 6bbd 60c0 8a3c 0d2d 3a3d e764 da3c
000001c0: c304 c7bd c087 be3c d7fc 46bd 5a17 f9bc
000001d0: 801d 2dbd f3ca 3dbd 40ea 2cbc 5f68 c63d
000001e0: 3d49 993d 87cd be3c 886a 913d 0718 e53c
000001f0: 68db c03d 6d30 b2bd 70ba cb3d 9aa4 f5bb
00000200: 9ac9 fdb9 f33b bb3c 5a57 ddbc cda6 503d
00000210: 8a37 7ebd a75e 233d 9f25 be3d fa75 b6bc
00000220: cb61 b2bd 536e 27bd 5021 3c3d 7b94 a73d
00000230: 5b59 c23d 0807 a5bd 7fb2 963d d7db 903d
00000240: 0545 be3d 401e b7bd 3356 66bb 477d 243d
00000250: d062 6ebd 409b 0d3d 636d a9bd b318 c9bb
00000260: cd3f 793c d0ef 653d a0bd f4bc bd05 7a3d
00000270: 6de6 ca3d 93a5 3abd faa0 6f3d b3a2 8ebb
00000280: 900c 16bd 4deb dabc f7e7 94bd 579f a63d
00000290: 9710 b83d 2afa 21bd bae0 81bd 9ddf 313d
000002a0: 3311 5fbc 2857 a53d 9d2e a4bd 70d4 0c3d
000002b0: 7ace 183d 00bc a33d f336 05bd b3b5 0d3d
000002c0: 9d05 16bd bd2a 4fbd 9378 c73c 9733 51bd
000002d0: 2399 973d 208a 12bd 6a33 bebd 075e 913c
000002e0: 0d21 0ebc e02f 8d3d bb37 82bd b30a 45bc
000002f0: c7a1 83bc 15c6 c13d 2ffe 9cbd b5cd adbd
00000300: 9d30 39bd 05c6 813d bfa5 bebd 00e2 5a3d
00000310: 3326 49bc 3dd7 b23d 8354 a7bd d351 513d
00000320: 5a62 6fbc 8085 a33c fac7 96bc 9a34 d83b
00000330: 1a85 ebbc 13eb 81bc eac5 423d 0a90 1e3d
00000340: 9d41 b63d cb06 963d cfa9 aebd 0854 c2bd
00000350: 8879 843d 7b82 c73d c3bb 373d 55f8 b8bd
00000360: ab1f 803d 8743 f53c b5c5 a0bd 553c c43d
00000370: cdfe 2dbd 676b d73c f33d 8b3c 6349 493d
00000380: e086 423d 472a b3bc 9398 c63d 7fb3 acbd
00000390: 13e3 573d da20 223d 6034 883c c7e4 b3bc
000003a0: 3569 90bd 20c3 333d c0fe 8dbd e06e 073d
000003b0: c04a cd3c 2d7e d7bc cdcc 713b 1aa8 a8bc
000003c0: 337a 36bc da59 55bc dda0 1cbd da10 4cbd
000003d0: c0e9 083d 9a40 493d 4dfb 673d 1aee b3bc
000003e0: 0a28 55bd a7bf 063c c0b6 6cbc dae6 37bc
000003f0: c7d5 d63c 3346 553c ad03 bb3c 4bfa c83d

output_embedding.weight f4 [9, 64]
-0.04989978 -0.050561346 -0.0016888346 0.08941591 0.10800109 -0.034792393 -0.08443057 -0.029726217
0.022622745 -0.056014474 -0.0005243137 0.08893558 -0.027725056 -0.007988201 -0.095562235 0.08556116
0.051745538 0.051518813 0.013147682 0.0017070635 0.04446451 0.04517954 0.06087071 -0.035842847
-0.09880897 -0.027762981 -0.021907672 0.060865767 -0.0498619 -0.06316998 -0.03455964 -0.0390096
0.031854894 -0.012545316 -0.08743549 -0.07682177 0.043705933 0.0837564 0.059343245 0.08481494
-0.03134996 0.04833611 -0.07061254 0.059001096 -0.08996983 0.009775687 -0.049718227 -0.02253365
-0.056013137 -0.08334974 -0.030761205 -0.003314853 -0.055033077 0.09450717 -0.060614858 0.053315945
-0.04369198 -0.011044631 -0.005574254 -0.037064042 0.022374308 0.08686737 -0.048626635 -0.072177954
0.057851266 0.0019445539 -0.06707903 0.083285324 -0.04702431 0.031110132 0.063783064 0.07833941
-0.0470207 0.08347925 0.07623471 0.09894655 0.01902628 -0.07392072 -0.061397888 0.061767615
0.02066046 0.01483301 -0.08952031 -0.06563278 0.040675927 0.011890709 -0.060278215 -0.090616345
-0.027445806 0.07365133 -0.09770218 0.09924503 -0.057603598 0.06125735 -0.08772661 0.04748279
0.0106835365 0.07218514 -0.011353719 0.09965251 0.05875658 -0.033297565 -0.0615667 0.0076476573
0.097981565 0.011379707 -0.051291943 0.05270679 -0.0069719674 0.067076206 -0.024189388 0.016042138
-0.019794643 0.08709931 -0.0076235416 0.066061154 0.054479588 -0.09452076 0.053832233 0.02780738
-0.025191212 -0.06753849 -0.015176273 0.093619876 0.028182352 0.08508873 0.040495753 0.07459662
-0.089599825 0.021743095 0.06979296 0.058196552 -0.054526754 -0.108732626 -0.0036894213 -0.06541549
-0.035031684 0.0033086655 0.06165143 -0.04821261 -0.057984408 -0.06681205 0.06926494 0.054722257
0.018198263 0.03974732 -0.049123462 -0.045454103 -0.05174615 -0.029611142 0.05605313 -0.09624074
-0.046426523 -0.09047947 -0.0011607984 0.020150151 0.04058734 0.05640205 0.04027944 -0.10958207
-0.048351474 -0.08761177 -0.023038026 0.011476048 -0.060599834 0.05382282 0.07199014 -0.047168747
0.04852816 -0.0022912351 0.10590109 0.071863204 0.084494345 -0.04440643 0.07962331 0.007946656
0.013782793 -0.073098384 -0.023876406 -0.02597713 -0.06999447 -0.020829756 -0.12752847 0.0026538474
0.03631411 -0.052277222 -0.09158237 0.045678183 -0.0701488 0.064022936 0.03521346 -0.039914813
0.058761414 -0.003133261 -0.0061046868 0.0036982354 -0.067365326 0.020015845 0.07156429 0.0027447157
-0.07330656 -0.030987676 -0.08939336 -0.02316969 -0.068199664 -0.09090291 0.00036252098 -0.051510215
-0.00036885092 -0.014464555 -0.05004696 0.12418739 0.0059122224 -0.01982435 0.028569931 0.10379247
-0.04851226 0.0040561464 -0.0085863 0.03482106 -0.08452531 0.063253544 0.05530827 0.027783796
0.065528184 -0.027365182 -0.09329809 0.03426266 0.075838625 0.09668793 0.0508049 0.06220702
-0.06388929 0.00039407596 0.08279774 -0.02669051 0.023372248 -0.07506441 -0.090205655 0.07177204
-0.00040527666 0.01535625 -0.046386443 -0.06920069 -0.074478485 -0.02189796 -0.047619753 0.06876673
0.05590864 -0.08997571 0.102851875 0.115237445 -0.031199984 -0.022950917 0.06765499 0.020303188
00000000: b663 4cbd 6a19 4fbd e35b ddba b01f b73d
00000010: ad2f dd3d 7882 0ebd efe9 acbd 6584 f3bc
00000020: 5653 b93c 6f6f 65bd 1972 09ba db23 b63d
00000030: a81f e3bc f2e0 02bc 22b6 c3bd b13a af3d
00000040: 21f3 533d 6405 533d 6069 573c 8cbf df3a
00000050: 6b20 363d 2e0e 393d 9153 793d f3cf 12bd
00000060: 5b5c cabd 316f e3bc b877 b3bc 624e 793d
00000070: fe3b 4cbd 435f 81bd 698e 0dbd 88c8 1fbd
00000080: 477a 023d de8a 4dbc 6111 b3bd bb54 9dbd
00000090: fe04 333d 7a88 ab3d e711 733d 75b3 ad3d
000000a0: d168 00bd 16fc 453d 4f9d 90bd 22ab 713d
000000b0: 1a42 b8bd 342a 203c 57a5 4bbd 7d98 b8bc
000000c0: 086e 65bd 45b3 aabd ecfe fbbc 013e 59bb
000000d0: 5d6a 61bd fa8c c13d 4947 78bd d261 5a3d
000000e0: 5df6 32bd 8af4 34bc 3ba8 b6bb 77d0 17bd
000000f0: 534a b73c 85e7 b13d b92c 47bd 09d2 93bd
00000100: 73f5 6c3d 67e0 fe3a bb60 89bd 7f91 aa3d
00000110: 909c 40bd adda fe3c b2a0 823d 6a70 a03d
00000120: c798 40bd 2bf7 aa3d f220 9c3d 7da4 ca3d
00000130: 00dd 9b3c bf63 97bd 5a7c 7bbd 0a00 7d3d
00000140: 2040 a93c 2706 733c 6d56 b7bd 7b6a 86bd
00000150: cd9b 263d 40d1 423c 4ae6 76bd 1095 b9bd
00000160: 07d6 e0bc 82d6 963d 1518 c8bd fa40 cb3d
00000170: c0f1 6bbd fde8 7a3d 02aa b3bd 507d 423d
00000180: 000a 2f3c cdd5 933d f304 3abc 9d16 cc3d
00000190: bdaa 703d 0763 08bd 5d2d 7cbd 3399 fa3b
000001a0: 8faa c83d f371 3a3c 8017 52bd 13e3 573d
000001b0: 1a75 e4bb 405f 893d d328 c6bc cd6a 833c
000001c0: 6028 a2bc 1f61 b23d e7ce f9bb 124b 873d
000001d0: fd25 5f3d 1a94 c1bd 307f 5c3d 4dcc e33c
000001e0: cd5d cebc 9f51 8abd e7a5 78bc c7bb bf3d
000001f0: adde e63c 0043 ae3d e0de 253d 1dc6 983d
00000200: 1d80 b7bd 931e b23c 9def 8e3d 825f 6e3d
00000210: 7257 5fbd 36af debd 38ca 71bb 8ef8 85bd
00000220: 627d 0fbd 32d6 583b 3686 7c3d 967a 45bd
00000230: 0f81 6dbd c2d4 88bd c7da 8d3d 7224 603d
00000240: 8614 953c 16ce 223d af35 49bd 152e 3abd
00000250: c5f3 53bd 1193 f2bc f897 653d dd19 c5bd
00000260: bd29 3ebd 4d4d b9bd ee25 98ba ee11 a53c
00000270: e93e 263d d605 673d 0efc 243d 906c e0bd
00000280: 320c 46bd cd6d b3bd 3eba bcbc 0906 3c3c
00000290: 8837 78bd 5175 5c3d 916f 933d 0434 41bd
000002a0: 77c5 463d 8c28 16bb ace2 d83d 042d 933d
000002b0: 5f0b ad3d 84e3 35bd 8c11 a33d b132 023c
000002c0: 39d1 613c 9bb4 95bd 7498 c3bc fdcd d4bc
000002d0: 4359 8fbd 2aa3 aabc d396 02be 2cec 2d3b
000002e0: 1bbe 143d a420 56bd 8a8f bbbd 0c19 3b3d
000002f0: 2daa 8fbd 751e 833d fd3b 103d b77d 23bd
00000300: cfaf 703d 6657 4dbb d309 c8bb 185e 723b
00000310: d5f6 89bd 45f8 a33c 4c90 923d b0e0 333b
00000320: c021 96bd ded9 fdbc de13 b7bd 5dce bdbc
00000330: 44ac 8bbd 4e2b babd be10 be39 60fc 52bd
00000340: 5562 c1b9 befc 6cbc 0bfe 4cbd f555 fe3d
00000350: 51bb c13b ad66 a2bc 7d0b ea3c 2691 d43d
00000360: cbb4 46bd 6ce9 843b 8dad 0cbc 87a0 0e3d
00000370: 9b1b adbd 138b 813d ed8a 623d d89a e33c
00000380: a433 863d f22c e0bc 1213 bfbd 0157 0c3d
00000390: 4851 9b3d 5204 c63d cc18 503d cacc 7e3d
000003a0: 63d8 82bd fb9b ce39 dd91 a93d 0ea6 dabc
000003b0: 2877 bf3c 5fbb 99bd bebd b8bd 38fd 923d
000003c0: 507b d4b9 c898 7b3c b6ff 3dbd 17b9 8dbd
000003d0: 2d88 98bd 5a63 b3bc ee0c 43bd 92d5 8c3d
000003e0: 7500 653d 2f45 b8bd 01a4 d23d 9c01 ec3d
000003f0: 1c97 ffbc 9003 bcbc b38e 8a3d df52 a63c

input_position_embedding.weight f4 [16, 64]
-0.43954626 -0.75665003 1.1527103 -0.7046164 0.08521772 -1.2615352 0.91453785 -1.2418315
1.1488208 -0.79048043 0.7783422 -0.9934509 -0.67141235 0.46234915 0.78398144 0.026344392
0.21850397 0.17580499 -0.42359614 -2.3714325 1.2659119 -1.7288892 0.8949673 1.163053
-1.1734046 -0.32615805 0.38032654 0.99161583 -1.5965807 0.006774795 1.7203203 0.9983764
1.4079006 -2.223005 -0.25683564 -0.6282794 -0.7340412 0.10820457 -0.18743704 -0.1666353
-0.99019635 0.043487754 2.0772405 -1.1553116 1.7848501 0.2587186 -0.5154206 -0.10903741
0.50914776 0.2736716 -1.2662872 0.76737905 -0.66095763 -0.024963435 0.583628 1.3121506
0.19770159 0.5451518 -1.028683 -1.9157246 1.0615562 -0.74599797 1.5256026 -0.17620263
1.9533266 -0.47186992 1.5115925 -0.112437084 0.66006505 0.9957674 -0.22638871 0.59060425
-0.25333986 1.2563589 0.5277968 1.4931694 0.15171748 -0.6143104 1.3983331 0.7939985
-0.1900814 0.11210879 0.56894636 1.6702224 -0.3786872 1.5686125 1.999371 -1.1062595
-1.0699869 0.5861082 -0.4712253 -0.15025426 -0.3503566 -0.4489137 0.042933322 0.39749607
-1.0629326 -0.06411275 1.178346 -0.6523728 -0.34052798 -0.09474337 0.29873016 -0.45175868
0.8363557 -0.3621835 -1.1538278 -0.56117964 0.80801785 0.4572478 -1.5324218 -0.29784364
-1.8728304 -1.2414347 2.03398 0.13626623 -1.2170614 0.64761 -0.8410968 1.0059313
1.2516557 -0.8889451 -0.72436965 0.43093953 -1.7786518 0.45909765 -0.4521795 -0.62161356
1.2685219 2.090689 -1.71427 -1.097057 -0.9209223 -0.5604687 -2.2446053 -0.06179875
1.4214785 -0.9466995 0.07997484 0.15420832 1.0692861 0.6114569 -0.35587516 1.6648096
0.029221596 -0.634349 -0.4677973 0.37739968 -0.02567183 -0.5922219 0.22976807 -0.52188814
0.26492652 0.3910562 0.8969331 -2.014457 2.0116258 -0.31083792 1.1216701 0.77896655
-1.1725019 -0.15451932 -0.8628882 2.428329 0.22719978 -0.4166119 -0.27651286 0.714623
1.7625443 -0.75073946 0.72452337 -1.3014867 1.47397 0.6243685 -0.6077203 -0.5238327
2.7473872 0.24256593 -1.1859022 0.6459609 1.3992685 0.053365868 -0.29577062 -0.28381118
0.3353038 -1.2947204 -0.2570229 -0.47813514 -1.0455844 -0.68486565 -0.91218346 0.30131117
1.1468866 -0.07632968 0.44333306 -0.5973283 -0.105652295 0.931747 0.32504404 0.046128802
1.2592565 -1.6406283 1.4281424 0.98619324 1.303337 -0.725972 0.4351386 -1.3829167
-1.1093097 -1.8811071 -1.3008425 -0.765376 2.1234446 -0.92459494 -0.53579044 0.4354696
1.2442471 -0.5508208 -0.5205241 1.5414485 0.057799947 0.98496723 -1.3893551 -0.20313044
0.2367818 1.5648997 -0.2233382 0.17531466 -0.095200464 -0.3436859 -1.3129433 -0.47559518
-0.20817028 -0.48517358 -0.04371494 -0.11596296 0.6361481 1.0099778 0.5634906 -0.16998592
-0.0114229815 -0.45123008 1.0632303 0.24968769 2.599796 0.036573477 -1.4920597 0.7634918
-0.5724937 0.0793295 -1.1229424 -1.415706 -1.5117451 -0.8372718 -0.17692934 -0.3540926
00000000: 350c e1be d1b3 41bf 038c 933f be61 34bf
00000010: a186 ae3d fc79 a1bf 271f 6a3f 56f4 9ebf
00000020: 8f0c 933f ed5c 4abf 6f41 473f cc52 7ebf
00000030: aee1 2bbf 07b9 ec3e 02b3 483f 32d0 d73c
00000040: 81bf 5f3e 3906 343e 98e1 d8be 8dc5 17c0
00000050: 6709 a23f 3e4c ddbf 941c 653f ecde 943f
00000060: 1f32 96bf 30fe a6be 29ba c23e 89da 7d3f
00000070: c25c ccbf 19ff dd3b 7533 dc3f 9995 7f3f
00000080: 1636 b43f b745 0ec0 f67f 83be ebd6 20bf
00000090: 20ea 3bbf 5c9a dd3d 7fef 3fbe 72a2 2abe
000000a0: 827d 7dbf 3720 323d 82f1 0440 40e1 93bf
000000b0: f875 e43f c476 843e 9bf2 03bf 014f dfbd
000000c0: 8257 023f af1e 8c3e b315 a2bf f472 443f
000000d0: 8534 29bf 1e80 ccbc a568 153f 8df4 a73f
000000e0: 4972 4a3e 128f 0b3f e2ab 83bf 7736 f5bf
000000f0: 13e1 873f b9f9 3ebf f246 c33f 766e 34be
00000100: 9b06 fa3f ef98 f1be dd7b c13f 6a45 e6bd
00000110: 06fa 283f 9dea 7e3f 71d2 67be d731 173f
00000120: c3b5 81be 5ed0 a03f b11d 073f 2d20 bf3f
00000130: d45b 1b3e 7243 1dbf 94fc b23f 7c43 4b3f
00000140: b3a4 42be 4b99 e53d 78a6 113f d9c9 d53f
00000150: 4ae3 c1be 4bc8 c83f 64eb ff3f e999 8dbf
00000160: 55f5 88bf 300b 163f 7144 f1be 41dc 19be
00000170: f161 b3be 04d8 e5be dada 2f3d 9b84 cb3e
00000180: 2d0e 88bf 8c4d 83bd 0bd4 963f e701 27bf
00000190: af59 aebe d008 c2bd 29f3 983e ea4c e7be
000001a0: 681b 563f 1e70 b9be a1b0 93bf 78a9 0fbf
000001b0: 42da 4e3f 621c ea3e 6626 c4bf f67e 98be
000001c0: e8b8 efbf 55e7 9ebf ba2c 0240 6089 0b3e
000001d0: abc8 9bbf c5c9 253f 1f52 57bf 5bc2 803f
000001e0: 4136 a03f e891 63bf 4a70 39bf 1ba4 dc3e
000001f0: ddaa e3bf d90e eb3e 1284 e7be 1122 1fbf
00000200: ed5e a23f d9cd 0540 336d dbbf 5d6c 8cbf
00000210: 90c1 6bbf e07a 0fbf 9da7 0fc0 b020 7dbd
00000220: 02f3 b53f e65a 72bf d9c9 a33d c9e8 1d3e
00000230: 5ede 883f 7088 1c3f 4535 b6be 7b18 d53f
00000240: 2162 ef3c b264 22bf 2183 efbe 883a c13e
00000250: bb4d d2bc db9b 17bf 5248 6b3e 769a 05bf
00000260: 73a4 873e 8538 c83e 689d 653f ddec 00c0
00000270: 7abe 0040 2626 9fbe e392 8f3f 5a6a 473f
00000280: 8b14 96bf 503a 1ebe 3ee6 5cbf be69 1b40
00000290: 0fa7 683e 284e d5be 1893 8dbe 88f1 363f
000002a0: 0d9b e13f 7630 40bf 5d7a 393f 1e97 a6bf
000002b0: 0dab bc3f 9dd6 1f3f 8f93 1bbf e619 06bf
000002c0: 31d5 2f40 3463 783e a5cb 97bf b25d 253f
000002d0: 3b1b b33f 2b96 5a3d 3f6f 97be b34f 91be
000002e0: f1ac ab3e 66b9 a5bf 8198 83be 21ce f4be
000002f0: b6d5 85bf 5b53 2fbf db84 69bf 7545 9a3e
00000300: 2ecd 923f bc52 9cbd 8dfc e23e 82ea 18bf
00000310: 3b60 d8bd f986 6e3f 2c6c a63e 8ef1 3c3d
00000320: 512f a13f 1c00 d2bf 5fcd b63f 2977 7c3f
00000330: bfd3 a63f 4dd9 39bf 7dca de3e 6a03 b1bf
00000340: dcfd 8dbf 1ec8 f0bf 0282 a6bf aeef 43bf
00000350: 84e6 0740 41b2 6cbf 9029 09bf dff5 de3e
00000360: 7d43 9f3f 9802 0dbf 1141 05bf 2f4e c53f
00000370: a3bf 6c3d d026 7c3f 63d6 b1bf 6d01 50be
00000380: ee76 723e a24e c83f c5b2 64be b085 333e
00000390: 76f8 c2bd 99f7 afbe 870e a8bf 3681 f3be
000003a0: 972a 55be ac68 f8be 700e 33bd fd7d edbd
000003b0: 9ada 223f f446 813f ec40 103f ca10 2ebe
000003c0: 7527 3bbc a107 e7be ee17 883f 21ae 7f3e
000003d0: 0f63 2640 12ce 153d d0fb bebf 3374 433f
000003e0: f28e 12bf 8177 a23d 94bc 8fbf db35 b5bf
000003f0: dd80 c1bf 7257 56bf f72c 35be a04b b5be

target_position_embedding.weight f4 [9, 64]
-0.5316165 0.9099989 -0.91840893 -0.14112604 -0.24675694 -1.1548896 -1.0905911 -2.059534
0.89480394 -0.8189146 -0.14279656 0.8816562 0.24911058 0.40266913 -0.05437507 1.1532761
1.425172 2.1087942 -0.6220495 -1.5080935 -1.5517477 -0.49179375 0.5301525 1.6253545
-0.3036914 0.6122568 -1.1358308 0.19823447 0.98062783 1.2701354 -1.5518854 -0.42913744
-0.39945394 -0.9124694 -1.3520745 -1.29237 -0.6438617 -1.3710948 0.9775372 -0.65097034
0.0776331 -1.4307826 -1.3583434 0.230562 -0.98561925 -1.578838 0.66576916 -0.6794707
1.814076 -1.2262763 1.091575 -2.0465288 -0.13615832 -0.5934267 0.7906545 -2.318746
0.19689889 -0.38954785 0.14029561 0.18643305 -0.31216434 0.55363053 -0.10435803 -0.035353802
-0.007794395 -1.4080987 -1.0544399 0.9164404 1.7879218 -0.6247326 -1.45983 1.208376
-0.74982625 0.0016223975 -1.320097 0.73652 1.4346497 0.123566374 0.60647154 -1.2664994
0.03370317 1.687165 -0.25968787 0.1887688 0.010273981 1.493496 -0.26430267 0.03589715
1.9938251 0.89803773 0.751452 0.43792963 0.2507527 -0.23306322 0.17774072 -0.021299813
1.1565789 -1.0679269 0.47339097 0.4340345 0.39844498 1.792021 0.880639 0.08898043
-0.30576834 -0.06230431 0.80535835 0.34537488 0.21939744 0.7300728 -0.27115804 -0.13137986
-0.121907935 0.050673105 -0.7415011 -0.22912672 -1.4223638 -0.95528704 0.6946197 0.9155829
-1.2418096 -0.38845608 -0.6097421 0.09509711 0.45635122 0.052493293 0.7183074 -0.06983016
-0.75254655 -1.412016 0.17702377 1.1966095 -1.1311033 -0.29978883 -0.025409235 -0.17997439
-0.36633408 1.0624994 -0.66513366 -0.11739696 -0.96265805 -0.00015603984 1.6273485 -0.45929447
0.72625023 1.3082318 -0.5499036 -0.76273406 -1.7761153 -0.8706654 -0.13223575 0.6970037
0.21864215 -0.87797207 0.60586786 -1.7712756 1.0560971 1.5999811 1.1842507 -1.4740573
0.4276687 0.17217505 1.0323836 -0.31797618 -0.09232374 0.050541576 -0.6883726 -2.3139453
0.5566789 -1.0364217 -1.2886881 1.2178414 0.4153505 0.07300357 -0.36373818 1.0958242
-0.3536171 1.3273469 -1.5039146 -0.8347421 1.1816915 0.87847996 -1.2174114 -1.1803048
1.1746044 -0.84676313 0.47374326 0.38165006 0.38281342 1.0498532 -0.12021745 0.6456054
-0.7505964 0.008831409 -0.77206564 -1.5031518 -0.36165032 0.75473255 0.53134584 -0.9412178
0.18357356 1.7225751 0.7525873 0.11238175 -2.216209 -0.1994611 -0.5717501 -0.3408558
-0.67363936 -0.027731432 1.1410506 0.5680023 -1.4828979 0.05871255 -0.10353129 -0.77995265
0.9070345 1.4095609 0.26590294 -0.95004195 0.17917418 0.4536621 0.37203872 -0.89634216
-0.49524358 0.058945797 -0.43474084 -1.2080595 -0.94722676 -0.06777814 0.5891286 2.0193622
-0.11126452 -1.2411418 1.0668366 -0.8756729 -1.2319103 0.61450994 -1.4944241 0.3905408
-0.86059105 -0.6073548 -0.16209577 0.48872977 -0.15575245 -1.0734522 -0.2661778 -0.37253264
0.00012738226 0.34813553 -0.6319205 0.43425497 0.18156844 -0.78321284 -0.987916 -0.078513294
00000000: 0518 08bf b0f5 683f d91c 6bbf 5883 10be
00000010: daad 7cbe 6cd3 93bf 7d98 8bbf 68cf 03c0
00000020: df11 653f 63a4 51bf 4339 12be 39b4 613f
00000030: d816 7f3e a62a ce3e 65b8 5ebd 8d9e 933f
00000040: 096c b63f 7cf6 0640 a33e 1fbf 3509 c1bf
00000050: ab9f c6bf 64cc fbbe 13b8 073f 9e0b d03f
00000060: 707d 9bbe ddbc 1c3f e762 91bf fafd 4a3e
00000070: 6d0a 7b3f cc93 a23f 2ea4 c6bf e7b7 dbbe
00000080: 3a85 ccbe 9897 69bf c710 adbf 616c a5bf
00000090: 1fd4 24bf 0980 afbf e13f 7a3f fea5 26bf
000000a0: 1afe 9e3d e223 b7bf 32de adbf 7218 6c3e
000000b0: 8b51 7cbf 5d17 cabf d96f 2a3f cbf1 2dbf
000000c0: a433 e83f 9ff6 9cbf bbb8 8b3f 54fa 02c0
000000d0: 166d 0bbe d0ea 17bf 5568 4a3f 5666 14c0
000000e0: dd9f 493e d172 c7be a7a9 0f3e 4ee8 3e3e
000000f0: 01d4 9fbe bbba 0d3f aab9 d5bd 26cf 10bd
00000100: 2068 ffbb 943c b4bf e3f7 86bf d79b 6a3f
00000110: 9fda e43f 7aee 1fbf b6db babf 11ac 9a3f
00000120: 9df4 3fbf a0a6 d43a f0f8 a8bf 938c 3c3f
00000130: 9aa2 b73f 5e10 fd3d b841 1b3f a71c a2bf
00000140: 560c 0a3d 06f5 d73f cff5 84be 9c4c 413e
00000150: 3354 283c e02a bf3f ae52 87be e408 133d
00000160: a935 ff3f cde5 653f 295f 403f 5038 e03e
00000170: a862 803e 20a8 6ebe aa01 363e f27c aebc
00000180: c70a 943f d4b1 88bf 4d60 f23e c539 de3e
00000190: fb00 cc3e f260 e53f 8f71 613f 5f3b b63d
000001a0: ab8d 9cbe ce32 7fbd f72b 4e3f fad4 b03e
000001b0: b9a9 603e 0de6 3a3f 3ad5 8abe 7188 06be
000001c0: deaa f9bd 9a8e 4f3d 04d3 3dbf 32a0 6abe
000001d0: 0410 b6bf b18d 74bf 99d2 313f a463 6a3f
000001e0: 9ef3 9ebf b7e3 c6be 0f18 1cbf 46c2 c23d
000001f0: dea6 e93e 3503 573d fee2 373f 1d03 8fbd
00000200: e4a6 40bf f1bc b4bf b845 353e 802a 993f
00000210: fec7 90bf ec7d 99be 0727 d0bc 354b 38be
00000220: 2490 bbbe fbff 873f 3346 2abf d16d f0bd
00000230: c270 76bf a09e 23b9 f54c d03f a528 ebbe
00000240: 89eb 393f 2474 a73f 7bc6 0cbf 8a42 43bf
00000250: bf57 e3bf ede3 5ebf cf68 07be d66e 323f
00000260: bae3 5f3e c7c2 60bf 281a 1b3f 29b9 e2bf
00000270: 312e 873f 2ecc cc3f 8795 973f e9ad bcbf
00000280: 64f7 da3e a84e 303e 2525 843f c6cd a2be
00000290: 3b14 bdbd af04 4f3d 3039 30bf ae17 14c0
000002a0: 8282 0e3f 77a9 84bf bbf3 a4bf 3ae2 9b3f
000002b0: d2a8 d43e e582 953d e43b babe f843 8c3f
000002c0: 4d0d b5be 81e6 a93f 4680 c0bf a9b1 55bf
000002d0: ab41 973f 10e4 603f 23d4 9bbf 3a14 97bf
000002e0: 7059 963f 78c5 58bf 7a8e f23e a367 c33e
000002f0: 1f00 c43e 9761 863f 9134 f6bd 6546 253f
00000300: 1627 40bf 9db1 103c 18a6 45bf 4767 c0bf
00000310: 3b2a b9be 2736 413f 4806 083f a6f3 70bf
00000320: b5fa 3b3e 577d dc3f 90a9 403f 6728 e63d
00000330: 5ed6 0dc0 883f 4cbe 375e 12bf a784 aebe
00000340: a173 2cbf 072d e3bc f20d 923f 9968 113f
00000350: 99cf bdbf 927c 703d 3708 d4bd faaa 47bf
00000360: 6a33 683f 7e6c b43f 6e24 883e f335 73bf
00000370: 7079 373e 6646 e83e dc7b be3e ae76 65bf
00000380: 9190 fdbe 2671 713d 5a96 debe b2a1 9abf
00000390: 747d 72bf 44cf 8abd 22d1 163f 3b3d 0140
000003a0: a7de e3bd bcdd 9ebf 1a8e 883f 192c 60bf
000003b0: 3daf 9dbf 8650 1d3f 4a49 bfbf f7f4 c73e
000003c0: b24f 5cbf 9b7b 1bbf 6ffc 25be ca3a fa3e
000003d0: 927d 1fbe e266 89bf 7548 88be 99bc bebe
000003e0: ea91 0539 d23e b23e 8bc5 21bf ab56 de3e
000003f0: 14ed 393e a380 48bf 10e8 7cbf 94cb a0bd

transformer.encoder.layers.0.self_attn.in_proj_weight f4 [192, 64]
0.028884603 0.12535028 -0.03940685 -0.020448329 -0.09534525 -0.022890875 -0.11659682 0.035722844
-0.01853844 0.037751626 0.06561738 0.07656438 0.07128978 0.1311131 -0.11796207 -0.04451509
-0.0631517 0.008570167 -0.037602447 -0.015155067 0.07828865 0.01916265 -0.049708273 -0.1363509
0.13727142 -0.08045551 -0.020414965 0.00936797 -0.094448216 0.005997577 -0.012917272 0.108910754
-0.13345233 -0.069178395 -0.020293098 -0.09843707 -0.047418404 -0.048356727 -0.13352333 0.028710723
-0.15176494 0.002261189 0.13555765 -0.036255576 -0.041821335 0.0021284875 0.15371427 -0.118720524
-0.0745655 0.034464937 0.11973889 0.0005329819 -0.13963814 0.13566837 0.05896646 -0.1296223
-0.1364497 -0.14619592 -0.037397284 0.019749029 -0.022484597 0.10750915 0.01758637 -0.12905245
-0.030299895 0.082186565 0.09619631 0.016241265 0.026815593 -0.024357121 0.06380054 0.005280695
-0.03698754 -0.045077696 0.12720427 0.001959827 0.03561689 0.09397983 0.05436473 -0.15542111
-0.023841018 -0.07805693 -0.029121555 0.07941417 -0.14384139 0.051905457 -0.10674117 -0.07750646
-0.08543901 0.12328072 -0.11235469 -0.11826018 0.097704 0.03342589 0.12545562 0.08582161
-0.029310284 -0.030401759 -0.11081948 0.062013365 -0.0033878975 0.03658086 -0.13050178 0.057905715
-0.108889736 0.09348465 0.11449784 0.14632985 0.04857619 -0.013782688 -0.10925288 0.15311764
-0.14214481 0.11562773 0.023331365 0.11412889 0.15041593 0.05869763 0.056466408 0.113671154
-0.102569416 0.0053970646 -0.027924206 0.14053985 0.0643433 0.1647629 -0.13712901 0.087564275
0.038878422 -0.14466819 -0.053891458 0.058190957 -0.06791186 -0.007284773 -0.0006469686 0.082471974
-0.13425674 0.041622285 -0.054406457 0.14825697 -0.006819622 -0.12397314 0.053555664 0.14533417
0.08251144 0.09465393 0.049181383 0.09815644 -0.11021053 0.10761913 -0.021753013 0.06359341
0.009550358 0.08021776 -0.07306335 -0.11940773 -0.077911034 0.13854368 0.09702252 0.050686635
0.12940003 0.022965496 -0.116081536 -0.055359304 -0.028800385 0.09713137 0.15030763 0.0973891
0.005926326 -0.09197188 -0.08589523 -0.03203371 -0.04771211 0.13172774 0.15218979 -0.07947046
-0.0069330186 0.057884227 0.12776138 -0.13595751 -0.08355161 0.13917576 0.101623535 -0.116847806
0.019503811 0.047409035 -0.0140484525 -0.07495692 0.12871403 0.09105859 -0.082124665 -0.019523164
0.05833294 0.095691055 -0.044228785 0.11978538 -0.036890335 0.02282005 0.11334755 0.10147386
0.12590322 -0.17165524 -0.022913622 0.017610855 -0.12756002 -0.030722637 0.09210702 0.111223616
-0.0026159722 -0.015560559 0.07078451 0.009469987 0.12813193 -0.13420376 -0.1281795 -0.051282026
-0.06967159 -0.12598144 0.11740464 -0.106277525 -0.11769871 -0.025764761 0.094459124 -0.041387714
0.045466576 -0.14027359 -0.042126857 -0.040803876 -0.09290901 -0.09813349 0.07339242 0.06225724
0.05329346 -0.0067934766 0.1354375 0.042399283 -0.05866216 -0.05433229 -0.1522664 -0.15400279
-0.1331368 0.028867833 0.10014307 0.0760063 -0.15394887 -0.07786294 -0.13313459 -0.10711278
-0.1585722 0.11580343 -0.08216835 0.07830117 -0.11381725 -0.02694456 0.04636271 0.060247526
00000000: 679f ec3c d35b 003e 1469 21bd 4183 a7bc
00000010: 5f44 c3bd a585 bbbc 50ca eebd 1e52 123d
00000020: eddd 97bc 73a1 1a3d 6862 863d c9cd 9c3d
00000030: 6000 923d 8342 063e 1996 f1bd 7455 36bd
00000040: ae55 81bd e369 0c3c 0605 1abd f54c 78bc
00000050: cd55 a03d fdfa 9c3c e79a 4bbd 929f 0bbe
00000060: e190 0c3e dcc5 a4bd 493d a7bc 1d7c 193c
00000070: 116e c1bd 5387 c43b f7a2 53bc 9a0c df3d
00000080: baa7 08be 67ad 8dbd b63d a6bc 6099 c9bd
00000090: cd39 42bd b411 46bd 57ba 08be c032 eb3c
000000a0: 4568 1bbe 7530 143b a0cf 0a3e ba80 14bd
000000b0: d94c 2bbd 187e 0b3b 4667 1d3e bf23 f3bd
000000c0: ccb5 98bd 1b2b 0d3d aa39 f53d cfb7 0b3a
000000d0: 4dfd 0ebe a6ec 0a3e d186 713d b5bb 04be
000000e0: 78b9 0bbe 62b4 15be e52d 19bd b7c8 a13c
000000f0: 9e31 b8bc c22d dc3d 4b11 903c 5326 04be
00000100: 7c37 f8bc 6e51 a83d 9202 c53d 670c 853c
00000110: 60ac db3c 9688 c7bc dca9 823d ae09 ad3b
00000120: 3f80 17bd 64a3 38bd d641 023e 7170 003b
00000130: 04e3 113d 7f78 c03d 8dad 5e3d b626 1fbe
00000140: 3d4e c3bc 50dc 9fbd 5490 eebc e5a3 a23d
00000150: 284b 13be d19a 543d 1d9b dabd b5bb 9ebd
00000160: a6fa aebd 9a7a fc3d 371a e6bd 6532 f2bd
00000170: 0919 c83d 96e9 083d 7077 003e 3ec3 af3d
00000180: 1f1c f0bc 1c0d f9bc 53f5 e2bd ba01 7e3d
00000190: 7d07 5ebb d0d5 153d 42a2 05be 8b2e 6d3d
000001a0: 9501 dfbd e174 bf3d d87d ea3d 7ed7 153e
000001b0: d4f7 463d c9d0 61bc f9bf dfbd dfca 1c3e
000001c0: 698e 11be 3bce ec3d 6b21 bf3c 68bc e93d
000001d0: a206 1a3e ed6c 703d 5249 673d 6ccc e83d
000001e0: ea0f d2bd dcd9 b03b 4ec1 e4bc aee9 0f3e
000001f0: 6cc6 833d 9bb7 283e 8c6b 0cbe e654 b33d
00000200: fb3e 1f3d e623 14be 4abd 5cbd a459 6e3d
00000210: 6015 8bbd 1bb5 eebb 5499 29ba 11e7 a83d
00000220: 997a 09be 217c 2a3d 4ed9 5ebd add0 173e
00000230: 2377 dfbb a1e5 fdbd 2f5d 5b3d 7bd2 143e
00000240: c2fb a83d ebd9 c13d 6b72 493d 3e06 c93d
00000250: 0fb6 e1bd 6b67 dc3d 6033 b2bc 433d 823d
00000260: 1b79 1c3c 3549 a43d 3da2 95bd 0a8c f4bd
00000270: d28f 9fbd 65de 0d3e beb3 c63d ca9c 4f3d
00000280: 7181 043e 2322 bc3c 28bc edbd 70c0 62bd
00000290: c9ee ebbc d0ec c63d 3eea 193e f073 c73d
000002a0: a031 c23b c15b bcbd d7e9 afbd c835 03bd
000002b0: c66d 43bd a3e3 063e a4d7 1b3e 69c1 a2bd
000002c0: 602e e3bb 0318 6d3d e1d3 023e 7238 0bbe
000002d0: 1b1d abbd 1784 0e3e 0020 d03d e74d efbd
000002e0: 75c6 9f3c fa2f 423d 7b2b 66bc 0483 99bd
000002f0: 9ccd 033e ed7c ba3d fa30 a8bd 0bef 9fbc
00000300: 85ee 6e3d acf9 c33d 3e29 35bd 0a52 f53d
00000310: 521a 17bd 1df1 ba3c c322 e83d 87d1 cf3d
00000320: c6ec 003e 64c6 2fbe 59b5 bbbc a444 903c
00000330: 189f 02be 0aae fbbc 9ba2 bc3d 35c9 e33d
00000340: bb70 2bbb b7f1 7ebc 78f7 903d 0128 1b3c
00000350: 0435 033e b66c 09be 7d41 03be 1a0d 52bd
00000360: fbaf 8ebd 4701 01be d871 f03d 08a8 d9bd
00000370: 050c f1bd 9f10 d3bc c973 c13d 2a86 29bd
00000380: 293b 3a3d e1a3 0fbe 368d 2cbd f721 27bd
00000390: 1447 bebd 36fa c8bd c44e 963d 7301 7f3d
000003a0: 3e4a 5a3d d09b debb 21b0 0a3e dfaa 2d3d
000003b0: bc47 70bd 898b 5ebd b9eb 1bbe e8b2 1dbe
000003c0: 0355 08be 3c7c ec3c cf17 cd3d 31a9 9b3d
000003d0: c6a4 1dbe 9b76 9fbd 6f54 08be f25d dbbd
000003e0: c060 22be 592a ed3d e147 a8bd 5d5c a03d
000003f0: 0519 e9bd d7ba dcbc d3e6 3d3d 1cc6 763d

transformer.encoder.layers.0.self_attn.in_proj_bias f4 [192]
0.0013941627 0.00026078796 -0.00811409 -0.0028250208 -0.011895949 0.009124695 -0.011516952 -0.005259776
0.008651637 -0.0075758155 0.011458324 -0.008361789 -0.013322607 0.0116190575 0.010403299 0.011548395
-0.002838868 0.00090191344 8.968615e-06 0.00049541617 -0.0013943939 0.008041115 0.0013887732 0.0018680095
-3.6479658e-05 -0.0063012247 -0.0005727377 -0.001216356 -0.0011610348 -0.0007728251 0.0014668439 0.0022723267
-0.0103442045 0.0024377739 -0.00060702156 0.001300515 -0.0019770265 -0.003373156 -0.004501431 0.003246577
0.004412429 -0.0078101456 0.00036819986 0.0002516814 0.0021900348 0.0025749607 -0.0013764634 0.00366031
0.011652013 -0.000518446 -0.0055168504 -0.0037873096 0.006752071 -0.0038829288 -0.0037200009 0.005489305
-0.00034285217 -0.00020592725 -0.005680775 0.0013388123 0.0047004386 -0.0062011634 0.004740645 0.0019520312
3.3370145e-07 4.5266833e-07 2.9342846e-07 -8.645539e-07 -1.5282588e-06 3.7049057e-07 -1.013499e-06 2.0435086e-06
8.1829637e-07 8.536416e-07 -2.1700646e-07 -4.7283172e-07 -3.3900324e-07 2.8312817e-07 8.829207e-09 1.905227e-06
2.2649624e-06 1.0184043e-12 -2.0159932e-06 -2.8630286e-06 1.9365557e-06 -3.0536089e-07 -5.126759e-06 -6.1254735e-07
-1.4484783e-06 1.6141595e-06 -9.960596e-07 1.4216138e-06 6.083755e-09 -1.9285555e-06 2.601536e-07 2.530806e-07
7.204954e-07 2.6120074e-06 -2.3561263e-06 -1.3843913e-07 -9.474195e-07 -1.3230281e-06 -1.279054e-06 -5.9320234e-07
1.9641182e-06 -1.3803222e-07 -1.8021715e-06 -1.3047564e-06 4.0269383e-06 -2.8157245e-07 1.5744948e-07 7.930666e-07
-7.660581e-07 -1.0308648e-06 -1.5472691e-06 -2.470501e-07 -1.760278e-06 5.504887e-07 -2.8637176e-06 3.2645204e-07
1.5755552e-06 -1.8538414e-06 -1.6602877e-06 4.931048e-08 -9.200571e-07 -5.229476e-07 -1.0008977e-06 -7.310283e-07
-0.004219723 9.206146e-05 -0.0034297286 0.00044623663 -0.0012358701 -0.0041330135 -0.0037320014 0.00076873996
0.0043350453 0.004262185 -0.0014992635 0.0058908584 -0.0027129638 0.00041582948 0.0021443025 0.00029695246
-0.0012654542 -0.00080685585 0.00430632 -0.0013417469 -0.0050372384 -0.0041037877 -0.0014846284 -0.0053646136
-0.003463581 0.0059549916 0.0032359452 0.010483551 -0.0010769163 -0.0027778088 -0.0011620085 -0.0008286545
0.0020314204 0.0014933457 -0.0025761407 0.0022633036 0.0009483641 0.0029151603 0.0003687878 -0.0039001533
-0.001411805 0.001876827 0.002802247 -0.009394554 -0.0035634234 0.009349402 0.001209293 -0.0062778336
-0.006276284 -0.0021115486 0.004084207 -0.0022377106 0.0006188373 -0.0018041204 0.0011743236 0.006084576
0.0023603418 -0.003088025 0.00658135 0.00044011488 0.0038952664 0.002451126 -0.002596694 -0.0047412403
00000000: 56bc b63a 5eba 8839 f6f0 04bc fc23 39bb
00000010: 3ae7 42bc bf7f 153c 99b1 3cbc 335a acbb
00000020: 98bf 0d3c 8c3e f8bb b2bb 3b3c e3ff 08bc
00000030: 1047 5abc dc5d 3e3c 9972 2a3c 7b35 3d3c
00000040: 4d0c 3abb 636e 6c3a e877 1637 d1de 013a
00000050: 18c4 b6ba e1be 033c 7f07 b63a ffd7 f43a
00000060: bc01 19b8 817a cebb c723 16ba 226e 9fba
00000070: dd2d 98ba 6a97 4aba 1d43 c03a 51eb 143b
00000080: bd7a 29bc 0fc3 1f3b 8720 1fba 0b76 aa3a
00000090: 0091 01bb 2b10 5dbb bd80 93bb 86c4 543b
000000a0: 2396 903b 40ec ffbb f30a c139 1bf4 8339
000000b0: b086 0f3b acc0 283b 736a b4ba d0e1 6f3b
000000c0: 16e8 3e3c 52e8 07ba b2c6 b4bb 8334 78bb
000000d0: 7a40 dd3b bc78 7ebb 42cb 73bb a1df b33b
000000e0: d7c0 b3b9 2dee 57b9 cb25 babb 167b af3a
000000f0: 2306 9a3b 2133 cbbb 6a57 9b3b 4cdb ff3a
00000100: 9427 b334 4306 f334 8088 9d34 b113 68b5
00000110: 931e cdb5 d6e7 c634 8f07 88b5 3623 0936
00000120: e6a8 5b35 ce25 6535 4802 69b4 7fd9 fdb4
00000130: 4000 b6b4 d700 9834 43af 1732 1ab7 ff35
00000140: c2ff 1736 e253 8f2b 804a 07b6 7522 40b6
00000150: c6f5 0136 7bf0 a3b4 8606 acb6 ef6d 24b5
00000160: 5669 c2b5 19a6 d835 59b0 85b5 47ce be35
00000170: 4609 d131 556c 01b6 3dab 8b34 22df 8734
00000180: 1168 4135 f249 2f36 f11d 1eb6 dca5 14b4
00000190: 2c52 7eb5 e692 b1b5 f6ab abb5 8e3c 1fb5
000001a0: 4bcf 0336 0236 14b4 24e2 f1b5 171f afb5
000001b0: 231f 8736 062b 97b4 620f 2934 1fe3 5435
000001c0: 1da3 4db5 3f5c 8ab5 c3ab cfb5 4fa2 84b4
000001d0: b142 ecb5 4cc5 1335 4b2e 40b6 3a43 af34
000001e0: aa77 d335 81d1 f8b5 0dd7 deb5 72c9 5333
000001f0: d8f9 76b5 af60 0cb5 9556 86b5 e23b 44b5
00000200: 9a45 8abb 1f11 c138 4cc5 60bb def4 e939
00000210: ebfc a1ba 3b6e 87bb 9894 74bb 4485 493a
00000220: ff0c 8e3b cda9 8b3b ef82 c4ba 1a08 c13b
00000230: fbcb 31bb b003 da39 6d87 0c3b 49b0 9b39
00000240: 99dd a5ba 2e83 53ba 081c 8d3b 8edd afba
00000250: 6b0f a5bb 1179 86bb dd97 c2ba a4c9 afbb
00000260: 3ffd 62bb 1722 c33b 2712 543b 33c3 2b3c
00000270: 5127 8dba e60b 36bb 894e 98ba 103a 59ba
00000280: 9421 053b 5ebc c33a 78d4 28bb ef53 143b
00000290: a39b 783a 460c 3f3b dc59 c139 b799 7fbb
000002a0: 510c b9ba ddff f53a e7a5 373b 9eeb 19bc
000002b0: 5388 69bb 3c2e 193c 2481 9e3a 49b6 cdbb
000002c0: 49a9 cdbb e861 0abb d0d4 853b 8ea6 12bb
000002d0: 7839 223a 3c78 ecba c3eb 993a 1f61 c73b
000002e0: f7af 1a3b 7660 4abb 5ea8 d73b 38bf e639
000002f0: ba47 7f3b 12a3 203b 4c2d 2abb 685c 9bbb

transformer.encoder.layers.0.self_attn.out_proj.weight f4 [64, 64]
-0.16157562 -0.090444736 0.20466056 -0.023708493 -0.05755244 0.01487311 0.08137271 0.08520619
-0.17929925 -0.10215305 0.18311737 0.04377089 -0.06447141 0.104391925 0.18168224 -0.10283203
-0.099647306 -0.156177 0.0015477925 -0.0034886615 0.0950191 0.12905556 0.13931824 -0.15075521
-0.109701455 0.103802785 0.07437388 0.19550878 -0.10604101 0.20411685 0.1296498 0.09888796
-0.079029664 -0.10523961 0.020970521 0.10211039 -0.0338355 -0.13272795 -0.11252119 0.14797057
0.08453369 0.11480702 0.17442748 -0.15863827 -0.18495126 0.19852142 -0.06623082 0.20023172
0.032629695 0.13213347 0.17988904 -0.08493091 -0.0057011624 0.17110446 -0.059710275 -0.12826443
0.09938127 0.108535714 -0.18794581 0.16014077 0.09374108 0.21290196 0.06889111 -0.15458396
-0.16842371 -0.024994636 -0.2082036 0.21068761 -0.20354567 -0.20926397 -0.20847692 -0.14065771
-0.028804353 0.21347553 0.011985963 0.18066776 0.11012188 0.01671124 -0.011018225 0.10764989
0.04560337 0.09835415 0.1976794 -0.013162461 0.13856578 0.200095 -0.053277116 -0.116547905
0.10916982 0.015784917 -0.15299693 0.15184465 0.05110516 -0.060702987 0.11057975 -0.13734305
0.0036402245 -0.029981637 0.10452823 0.07956188 -0.013991057 -0.15943296 0.124637194 -0.04846788
-0.0051640114 -0.03610699 -0.109205775 -0.04360371 0.13657404 0.17626736 0.010425794 -0.18648434
0.024728764 0.014477934 -0.16863811 -0.0073616602 -0.10947128 -0.2086741 -0.18745875 -0.182203
-0.14620271 -0.13231833 0.020724952 0.16888317 0.06943448 0.021998102 -0.16030905 -0.11296642
-0.18011959 0.10735903 0.19573829 -0.15154901 -0.055002738 0.12964039 0.041063122 -0.19912137
-0.15511587 -0.106001854 -0.05189132 0.076525316 0.08217707 -0.16667378 0.08831948 0.19648485
-0.117519915 0.056150325 0.17065613 -0.15100007 -0.05479076 0.16444726 0.07789242 0.13894197
0.013693109 0.09612472 0.20306063 0.17104697 -0.044586193 0.1213264 0.038163126 0.1636012
-0.10972815 0.069873236 0.16785614 0.042217374 0.18975666 0.004438832 0.11671862 -0.1464056
0.1004842 -0.10050876 -0.013171028 -0.11346634 0.20799682 -0.024809243 0.13682732 0.18788601
0.10118481 0.06434286 -0.10415253 -0.12927026 0.014970321 0.1616379 -0.07882009 -0.14134139
-0.07759698 -0.13122687 0.19581246 0.20266256 0.075943634 -0.059397727 -0.18673751 0.08797791
-0.12778923 0.000729769 -0.20253065 0.11580281 -0.037194684 0.12852983 0.18246879 0.13175723
-0.020840058 0.19217597 0.16343741 0.20669733 0.2238747 0.024642183 -0.035769496 -0.04771376
0.021952022 -0.07307256 -0.061545927 0.15477191 -0.06948535 0.13305798 0.13509479 -0.17362173
-0.075365484 0.0016212389 0.20893191 -0.13215171 0.12710182 -0.21885394 0.1845498 -0.20599788
0.10778111 -0.1738136 -0.193088 0.08139557 -0.09553015 0.032435566 -0.002637675 0.015419301
0.18456285 -0.009508194 0.114375725 -0.10372533 -0.022282945 0.09174218 -0.13592046 -0.15239422
0.18712486 0.042720795 -0.1628906 0.10923229 0.005076485 0.12344979 -0.15981503 0.20346041
0.1382342 0.18076293 -0.06988151 0.036334965 -0.21551219 -0.026694454 0.07594095 -0.12940207
00000000: 1474 25be 173b b9bd 8a92 513e 5038 c2bc
00000010: 1bbc 6bbd 58ae 733c bca6 a63d 9580 ae3d
00000020: 399a 37be 9e35 d1bd 1f83 3b3e 1b49 333d
00000030: 9609 84bd 6fcb d53d e90a 3a3e 9999 d2bd
00000040: e313 ccbd ddec 1fbe 4cdf ca3a 07a2 64bb
00000050: 6099 c23d 2427 043e 71a9 0e3e 935f 1abe
00000060: 28ab e0bd 8e96 d43d 5551 983d 7433 483e
00000070: 072c d9bd 0204 513e ebc2 043e c585 ca3d
00000080: 4eda a1bd dd87 d7bd 5fca ab3c 411f d13d
00000090: 1897 0abd d6e9 07be 8271 e6bd 9985 173e
000000a0: 0020 ad3d f11f eb3d 1e9d 323e 1272 22be
000000b0: dd63 3dbe 3349 4b3e 06a4 87bd 8b09 4d3e
000000c0: b7a6 053d ff4d 073e d534 383e 42f0 adbd
000000d0: d1d0 babb 0236 2f3e c392 74bd c057 03be
000000e0: 6888 cb3d f947 de3d de74 40be f1fb 233e
000000f0: 53fb bf3d f902 5a3e c816 8d3d 424b 1ebe
00000100: 4477 2cbe 8dc1 ccbc 5333 55be 7ebe 573e
00000110: 476e 50be 4b49 56be f97a 55be 9308 10be
00000120: 1bf7 ebbc 5499 5a3e c660 443c f800 393e
00000130: 9587 e13d 03e6 883c c985 34bc 8c77 dc3d
00000140: 99ca 3a3d e76d c93d 786c 4a3e 5da7 57bc
00000150: 30e4 0d3e b4e5 4c3e 1b39 5abd abb0 eebd
00000160: 6d94 df3d 5f4f 813c 3aab 1cbe 2a7d 1b3e
00000170: a553 513d b2a3 78bd a377 e23d a8a3 0cbe
00000180: d590 6e3b 0d9c f5bc e612 d63d 57f1 a23d
00000190: bf3a 65bc 6542 23be c941 ff3d 4186 46bd
000001a0: de36 a9bb ece4 13bd 47a7 dfbd ce99 32bd
000001b0: 11da 0b3e 6e7f 343e f3d0 2a3c c0f5 3ebe
000001c0: fa93 ca3c db34 6d3c 78af 2cbe 153a f1bb
000001d0: 7a32 e0bd aaae 55be 30f5 3fbe 6c93 3abe
000001e0: 2ab6 15be 757e 07be 60c7 a93c b6ef 2c3e
000001f0: aa33 8e3d 5d35 b43c 0e28 24be f05a e7bd
00000200: 4571 38be 0ddf db3d 9e6f 483e aa2f 1bbe
00000210: 8d4a 61bd 73c0 043e ce31 283d 79e6 4bbe
00000220: b2d6 1ebe 8017 d9bd fe8b 54bd 4eb9 9c3d
00000230: 744c a83d 88ac 2abe d8e0 b43d 5333 493e
00000240: 48ae f0bd e2fd 653d 7bc0 2e3e c39f 1abe
00000250: 476c 60bd dd64 283e 1086 9f3d ce46 0e3e
00000260: 1059 603c 0add c43d 20ef 4f3e f026 2f3e
00000270: 03a0 36bd fa79 f83d f050 1c3d 1387 273e
00000280: 27b9 e0bd b319 8f3d 7be2 2b3e 20ec 2c3d
00000290: 924f 423e 9f73 913b 2c0a ef3d 59eb 15be
000002a0: a9ca cd3d 89d7 cdbd 4ccb 57bc 0a61 e8bd
000002b0: 1efd 543e c13c cbbc 761c 0c3e 3165 403e
000002c0: fb39 cf3d 30c6 833d ec4d d5bd 6c5f 04be
000002d0: 1446 753c 6884 253e 6d6c a1bd ccbb 10be
000002e0: 2aeb 9ebd 5660 06be 1083 483e c686 4f3e
000002f0: 5688 9b3d 084b 73bd 1e38 3fbe c32d b43d
00000300: 2edb 02be f84d 3f3a 3264 4fbe 062a ed3d
00000310: 7459 18bd 539d 033e 19d9 3a3e 5eeb 063e
00000320: c5b8 aabc c7c9 443e 235c 273e 77a8 533e
00000330: 693f 653e 67de c93c 0983 12bd 816f 43bd
00000340: bad4 b33c 11a7 95bd 9517 7cbd 877c 1e3e
00000350: 564e 8ebd 5a40 083e 4a56 0a3e e5c9 31be
00000360: 3859 9abd c07f d43a 3ff2 553e c752 07be
00000370: fb26 023e 3f1b 60be 9ffa 3c3e 1cf1 52be
00000380: 58bc dc3d 31fc 31be dcb8 45be b8b2 a63d
00000390: 50a5 c3bd 28db 043d d8dc 2cbb 3ca1 7c3c
000003a0: 0bfe 3c3e 42c8 1bbc d23d ea3d f26d d4bd
000003b0: b98a b6bc 53e3 bb3d bc2e 0bbe 3b0d 1cbe
000003c0: a99d 3f3e 00fc 2e3d cbcc 26be 2eb5 df3d
000003d0: a558 a63b 3ed3 fc3d 8da6 23be ed57 503e
000003e0: 448d 0d3e eb19 393e 0a1e 8fbd f9d3 143d
000003f0: 3aaf 5cbe 54ae dabc ee86 9b3d fa81 04be

transformer.encoder.layers.0.self_attn.out_proj.bias f4 [64]
0.0025519915 0.002446309 0.0017543343 -0.0012514169 -0.0006859385 0.0009919794 -0.0018151846 0.0054900115
0.0027092753 -0.0040234546 -0.009286478 0.003975673 -0.0025908232 0.0021226783 -0.001889986 -0.000496462
-0.0012201021 -0.0025659392 0.002416971 -0.0021633082 -0.0052951323 0.0028323075 0.0064840433 -0.007773995
-0.0015579642 0.0032602071 -0.006739312 0.0035074658 0.0005852135 0.00070263754 0.004541928 -0.0041284203
-0.0034642403 0.006907371 0.0049670613 0.004324997 -0.0014974113 0.00016829133 -0.0038097457 0.001755571
0.004059863 -0.0019437768 0.0018470132 0.0022931024 -0.0029874085 0.0014507935 -0.00015816824 -0.0009737767
0.0051703057 0.0016615342 0.0040352116 0.003495688 0.004078094 0.001745932 -0.007242457 -0.002657958
-0.0009290733 -0.0042846682 -0.00050708733 0.003679795 0.00067969365 0.0011477025 0.00094313774 -0.0016071263
00000000: 503f 273b 4152 203b b1f1 e53a 9506 a4ba
00000010: 8ed0 33ba 4e05 823a 7deb edba 8ee5 b33b
00000020: 198e 313b 2fd7 83bb 5026 18bc 5d46 823b
00000030: cdca 29bb a21c 0b3b 68b9 f7ba 0025 02ba
00000040: d5eb 9fba 5129 28bb 0b66 1e3b 4ac6 0dbb
00000050: ca82 adbb 3c9e 393b 1978 d43b ffbc febb
00000060: 9b34 ccba 33a9 553b 72d5 dcbb 83dd 653b
00000070: 0369 193a 3531 383a 74d4 943b b347 87bb
00000080: 4f08 63bb 3a57 e23b bbc2 a23b b4b8 8d3b
00000090: c944 c4ba 5c77 3039 edac 79bb 301b e63a
000000a0: 9908 853b 54c6 feba 7b17 f23a e047 163b
000000b0: 66c8 43bb 8d28 be3a f7d9 25b9 0c45 7fba
000000c0: ab6b a93b d6c7 d93a cf39 843b ea17 653b
000000d0: 88a1 853b c2d7 e43a 2252 edbb 2331 2ebb
000000e0: 0e8d 73ba 6766 8cbb 0eee 04ba b728 713b
000000f0: 782d 323a 816e 963a e73c 773a 36a6 d2ba

transformer.encoder.layers.0.linear1.weight f4 [256, 64]
-0.003115449 0.037794776 -0.12003711 0.09693326 -0.110476516 0.0018161557 -0.12905456 0.06187432
-0.0030658008 -0.03531254 -0.061813492 -0.026245436 -0.12978525 -0.061025012 -0.09879907 -0.1306753
0.062576175 -0.13831426 0.011203816 0.07885265 0.07325034 -0.091532 -0.035445593 -0.055765413
0.0808608 0.13764507 0.040324792 -0.07962757 0.11165394 -0.10198224 -0.1395744 0.02587828
0.02755414 6.836008e-05 -0.033285026 -0.057690922 0.0070464457 -0.028268922 -0.046232805 0.08114068
0.024448294 0.06373712 0.11512354 -0.05058495 -0.1226762 -0.10683747 -0.11849475 -0.044078875
0.12600887 -0.11490429 -0.12260375 -0.106691465 0.030583013 -0.047477823 -0.05797727 0.06399725
0.053059407 -0.028020218 -0.11658509 0.05632744 -0.033910863 0.046666518 0.011097934 -0.021169925
-0.015827501 -0.019523297 -0.124662295 -0.08049705 0.06001213 -0.03322838 0.037922826 -0.116683446
0.0947608 -0.046931352 0.05044388 -0.11510287 0.12321138 0.11397027 0.09066882 0.13801096
-0.11994549 -0.12902409 0.012481886 0.050611977 -0.039827153 -0.08141206 -0.036869034 0.07757082
-0.061362952 -0.09521415 0.05778764 -0.089928605 -0.078697376 0.12605368 -0.08521397 0.09881176
0.03593311 -0.08078474 -0.00078862655 -0.06392009 -0.10867728 -0.038325723 -0.08117495 -0.051527712
-0.12827891 -0.12887211 0.013254892 -0.12462382 0.06031767 0.068369076 -0.09539228 0.031420723
0.008003473 -0.126421 -0.10555049 -0.050430033 0.019665774 -0.012355596 -0.05610189 -0.06470856
0.0998534 -0.05916629 -0.067204095 0.03175385 0.0022282964 -0.04760173 0.0074051386 0.114694566
-0.07238147 0.1305352 0.015598842 -0.07909907 0.11115334 0.059915233 0.0009978932 0.08743343
0.003317543 0.08890321 0.09297944 0.06452751 0.05806994 -0.025715958 -0.102918886 -0.005218689
0.096090004 -0.06528799 0.14491327 0.05852033 -0.0916091 -0.046127364 0.072290346 0.056929637
-0.07396038 -0.094841786 0.047911663 0.04844926 -0.1400512 -0.08901639 -0.110909514 -0.035583634
0.048718084 -0.01659604 -0.08878513 -0.08674794 -0.12400727 0.105533764 -0.033758353 -0.053321976
-0.10524812 0.031780064 0.12839809 0.0701477 0.05184573 -0.061025646 -0.11535817 0.07175822
-0.04265784 -0.041897245 0.12909575 -0.0329698 -0.13233034 0.112377584 0.010734387 -0.08729119
0.009249765 0.12618181 0.08122853 0.029830046 0.0743589 -0.07205408 0.13009915 0.06559813
0.0013634786 -0.12975213 -0.03375159 0.014784788 -0.04222204 0.071118645 -0.12369237 0.0652313
0.035662077 0.009077529 0.04388513 0.07469241 0.075441234 -0.11337328 0.13194187 -0.08210162
-0.029103046 -0.04224645 0.01562372 -0.021289336 0.07507967 0.10704465 0.066639096 -0.01816818
-0.12212533 0.12756144 -0.113349676 0.10034841 -0.13195583 0.058370285 0.043463815 -0.10822413
-0.11668656 0.036688633 -0.11203329 -0.10569693 -0.11522051 -0.016009819 0.056888256 -0.1073455
-0.11783669 0.019777162 -0.061004467 -0.017898506 -0.004975586 0.05931524 -0.095081896 0.011412208
-0.074546985 -0.10442177 0.12626678 -0.024646623 0.07940844 0.07747061 -0.120942 0.045416284
0.13010241 -0.021128057 0.10289207 0.1353649 0.12134936 -0.08179537 -0.030373113 -0.06433159
00000000: 902c 4cbb b2ce 1a3d 04d6 f5bd f284 c63d
00000010: 8341 e2bd 130c ee3a e126 04be ed6f 7d3d
00000020: 9aeb 48bb e2a3 10bd 2530 7dbd ab00 d7bc
00000030: 6de6 04be 5df5 79bd 2b57 cabd bfcf 05be
00000040: f027 803d 41a2 0dbe 3690 373c 807d a13d
00000050: 4604 963d 2175 bbbd 662f 11bd 466a 64bd
00000060: 599a a53d d4f2 0c3e 9c2b 253d c813 a3bd
00000070: d2aa e43d 11dc d0bd 97ec 0ebe b0fe d33c
00000080: 38b9 e13c 8a5c 8f38 e155 08bd 514d 6cbd
00000090: dfe5 e63b 3a94 e7bc 9c5e 3dbd 162d a63d
000000a0: ca47 c83c 9b88 823d e4c5 eb3d 2a32 4fbd
000000b0: a93d fbbd 9acd dabd 60ad f2bd 0d8c 34bd
000000c0: 7808 013e f152 ebbd ad17 fbbd 0e81 dabd
000000d0: 3a89 fa3c 1b78 42bd 9379 6dbd fd10 833d
000000e0: d254 593d a88a e5bc 2ac4 eebd 9ab7 663d
000000f0: 1ee6 0abd 6425 3f3d 1cd4 353c 8d6c adbc
00000100: ada8 81bc 52ef 9fbc f24e ffbd a3db a4bd
00000110: 47cf 753d 7b1a 08bd f754 1b3d bbf7 eebd
00000120: f311 c23d 173b 40bd 3e9e 4e3d 0ebb ebbd
00000130: 3f56 fc3d 3f69 e93d 93b0 b93d bf52 0d3e
00000140: fba5 f5bd e41e 04be d380 4c3c 814e 4f3d
00000150: cc21 23bd 5ebb a6bd fc03 17bd 73dd 9e3d
00000160: b857 7bbd a3ff c2bd bbb2 6c3d 7d2c b8bd
00000170: 172c a1bd 3714 013e a984 aebd d25d ca3d
00000180: 992e 133d 7872 a5bd d5bb 4eba 89e8 82bd
00000190: 3292 debd 6ffb 1cbd 0d3f a6bd b90e 53bd
000001a0: 8c5b 03be 0df7 03be 0c2b 593c c63a ffbd
000001b0: a90f 773d 1605 8c3d 075d c3bd 04b3 003d
000001c0: 0021 033c 8274 01be db2a d8bd b98f 4ebd
000001d0: 1e1a a13c 206f 4abc 18cb 65bd ec85 84bd
000001e0: f07f cc3d 5a58 72bd 4da2 89bd 5310 023d
000001f0: 9c08 123b 08fa 42bd cea6 f23b fce4 ea3d
00000200: bc3c 94bd 05ab 053e 4992 7f3c b1fe a1bd
00000210: 5da4 e33d ad69 753d bdcb 823a 4c10 b33d
00000220: 236b 593b e312 b63d 016c be3d 0027 843d
00000230: bfda 6d3d 46aa d2bc 23c7 d2bd 8901 abbb
00000240: d6ca c43d b6b5 85bd 2564 143e 03b3 6f3d
00000250: 8d9d bbbd 0cf0 3cbd f60c 943d 0d2f 693d
00000260: 8a78 97bd 693c c2bd 053f 443d bb72 463d
00000270: 9569 0fbe 3a4e b6bd 8724 e3bd 25c0 11bd
00000280: 9d8c 473d 6bf4 87bc fad4 b5bd e7a8 b1bd
00000290: 86f7 fdbd 1622 d83d 3346 0abd 2568 5abd
000002a0: 548c d7bd d02b 023d ca7a 033e 99a9 8f3d
000002b0: 305c 543d 07f6 79bd e740 ecbd f9f5 923d
000002c0: fdb9 2ebd 729c 2bbd ad31 043e 570b 07bd
000002d0: 9b81 07be 3826 e63d 48df 2f3c b9c5 b2bd
000002e0: 548c 173c ce35 013e 255b a63d 245e f43c
000002f0: 7b49 983d 1791 93bd b638 053e 5058 863d
00000300: c0b6 b23a bedd 04be 1b3f 0abd e53b 723c
00000310: 05f1 2cbd a7a6 913d 6d52 fdbd fd97 853d
00000320: 6612 123d ebb9 143c e5c0 333d 56f8 983d
00000330: ef80 9a3d 4030 e8bd c51b 073e e524 a8bd
00000340: 8369 eebc 9d0a 2dbd a2fa 7f3c f966 aebc
00000350: 5fc3 993d 3a3a db3d 147a 883d 6fd5 94bc
00000360: d81c fabd 779f 023e e023 e8bd 7883 cd3d
00000370: 6e1f 07be ae15 6f3d 1d07 323d 9da4 ddbd
00000380: 5df9 eebd d246 163d b671 e5bd a277 d8bd
00000390: bbf8 ebbd 0627 83bc a903 693d f5d7 dbbd
000003a0: 5d54 f1bd b703 a23c d2df 79bd e39f 92bc
000003b0: 3e0a a3bb 89f4 723d 4cba c2bd 45fa 3a3c
000003c0: 17ac 98bd 15db d5bd 144c 013e b7e7 c9bc
000003d0: e4a0 a23d e9a8 9e3d 70b0 f7bd 6d06 3a3d
000003e0: 9139 053e bf14 adbc 14b9 d23d 199d 0a3e
000003f0: 0386 f83d 5584 a7bd 09d1 f8bc 48c0 83bd
