models/2023-06-30 16:48:56.087439/model-110.pt (torch, 405283 bytes, 70 tensors)

input_embedding.weight f4 [16, 32]
000000 ac c6 00 bd 8f 95 cb bc 0a e2 bd 3d 05 63 f7 bc
       -0.03143947 -0.024851589 0.09271629 -0.030198583
000010 ea b1 cc 3d 95 0e 5d bc 48 fa 92 bd b8 5a 84 bd
       0.09994872 -0.013492246 -0.071766436 -0.06462616
000020 a6 80 69 3d 37 0f 9e ba 91 14 f8 3c be 73 14 bd
       0.057007454 -0.0012058978 0.030283244 -0.036243193
000030 c7 5b 55 3d e0 8f 59 bd a0 03 b2 3c 46 c3 e8 3b
       0.05208948 -0.053115726 0.021730244 0.0071033565
000040 ff 0f f9 bc 31 de be 3c 04 3d 30 3c 39 89 29 bb
       -0.030403135 0.023299308 0.010756735 -0.0025869145
000050 1c fe 93 bd 52 7e db bd 11 ca 6c 3d a2 45 2f bb
       -0.07226202 -0.10717453 0.057809893 -0.0026744385
000060 56 89 90 bd 75 df 76 bd a9 fb e9 3d 9e 45 d4 3c
       -0.07057445 -0.0602717 0.114249535 0.025912102
000070 11 af f9 bb ac 08 8e 3d 0f 38 bd 3d 5a 95 1d 3d
       -0.0076197465 0.06935248 0.09239208 0.03847251
000080 cd 42 42 bd 8a 89 c2 bd 6b 1d 87 3d 87 fa 82 bc
       -0.047426987 -0.0949889 0.06597408 -0.015988601
000090 ad ca 2b 3d 8a 07 2b 3d 1a 2f 7e 3d 27 20 9a 3c
       0.041941334 0.041755237 0.06205664 0.01881416
0000a0 52 5b 85 bd cf d1 a3 bd 0a 09 1d bd 38 d0 93 3d
       -0.065115586 -0.07999002 -0.0383387 0.07217449
0000b0 00 ab e7 3c 9d c6 2c 3d 20 d6 9c bc 30 33 51 3d
       0.028279781 0.0421816 -0.019145072 0.051074207
0000c0 1a 56 19 bd 88 06 9f bd 83 00 04 bd 50 3c 04 3d
       -0.03743563 -0.077649176 -0.03222705 0.03228408
0000d0 2a 19 45 3d 9f aa 9f 3d 2b 4b cb bd 2a 60 38 bd
       0.0481197 0.07796215 -0.099264465 -0.045013584
0000e0 00 95 33 bb 70 b9 47 bd e0 34 d1 bc 72 fa ab bd
       -0.0027402043 -0.04876083 -0.025537908 -0.08397378
0000f0 db ba 90 3d 2f f3 9e 3d 80 53 aa bd 27 37 27 bc
       0.0706689 0.07761227 -0.083167076 -0.01020602
000100 f5 0c ad 3d f2 7b ba bd 6d a4 46 bd c5 ef 88 bd
       0.08449737 -0.09105672 -0.048496652 -0.066863574
000110 0a 13 10 3d e7 30 ac 3b 0d 88 7d bc 6d 73 b1 bc
       0.035174407 0.005254853 -0.015474332 -0.021661485
000120 67 ec 1e 3d ba 71 c5 3d 22 7a 8e 3d b7 e4 9c bd
       0.03879967 0.09640832 0.06956889 -0.076608114
000130 63 c7 13 3d 00 01 0e bb 93 f4 ea bc 40 0c 06 bd
       0.036078822 -0.0021668077 -0.028681075 -0.032726526
000140 0d 67 93 3d f3 99 47 3d 1f 6b 99 bd 1a d8 87 bd
       0.0719739 0.0487308 -0.07491135 -0.06633015
000150 17 e3 6f bd cb c4 9e 3d 80 72 c1 bc 70 50 6d 3d
       -0.05856618 0.07752379 -0.023614168 0.05793804
000160 ab f3 82 3d 87 6d a1 bd 27 16 89 bd 2d 18 9f bd
       0.06394132 -0.07882219 -0.06693678 -0.07768283
000170 a0 38 f9 bc 33 07 c5 3d 60 e3 a8 3c cd 21 e1 bc
       -0.030422509 0.09620514 0.020616233 -0.027481938
000180 ed 90 7a bd ad 59 62 bd fb c9 81 bd 6a b7 b3 bd
       -0.06117337 -0.055261303 -0.06337353 -0.08775218
000190 8d eb 39 3d f0 bb 42 bd 8d 1b 3e bc cd 8b eb 3b
       0.045390654 -0.047542512 -0.011603248 0.0071882964
0001a0 33 01 b4 bb ca 37 1b bd 2d 83 c7 bd c7 4c ac bd
       -0.005493307 -0.037895 -0.09741817 -0.084130816
0001b0 ed 38 c7 3c 78 6f a3 3d d3 b5 9d bc 2a 27 8d bd
       0.024319137 0.07980245 -0.01925174 -0.068922356
0001c0 c5 09 81 bd 67 9d 44 3c b0 9a 39 3d 67 4d 73 bd
       -0.063006915 0.012000418 0.045313537 -0.05939999
0001d0 67 be 8e 3c 20 c2 01 3d 4a a6 49 bd 8a ff 6b bd
       0.017424775 0.031679273 -0.04923085 -0.057616748
0001e0 a3 0b 8f bd da 5b 51 bd 00 66 dd 3c ba 96 93 bd
       -0.069846414 -0.051112987 0.027026176 -0.07206483
0001f0 93 e2 c8 3d 80 63 38 3c 60 51 be bc 95 bb a8 3d
       0.098088406 0.011254191 -0.023232162 0.082389034
000200 52 f1 83 3d 23 0f be 3d 40 c0 71 bc 8d a1 1f 3d
       0.064425126 0.09280231 -0.014755309 0.038972426
000210 c7 28 5c 3d 33 d5 e4 bc 5d 8a b8 bd 73 64 8e 3c
       0.053749826 -0.027933693 -0.09010766 0.017381882
000220 cd 5b f2 bc e3 25 97 3d 50 7f 2f 3d 53 12 86 3c
       -0.02958479 0.07380273 0.042846024 0.01636616
000230 20 5d 4d 3d 00 21 c8 bb 7a 63 8c bc 65 08 80 3d
       0.05013764 -0.0061074495 -0.017137278 0.06251601
000240 90 52 71 bd 23 00 b4 3d 77 05 21 bd c5 42 a7 3d
       -0.05891663 0.087890886 -0.039311852 0.08167032
000250 60 dd ee 3c 67 ed 0b bc 78 ad bc 3d b8 2c b9 bd
       0.029158294 -0.008540488 0.09212774 -0.090417325
000260 e3 be a8 bd 15 b3 8c bd a0 04 6f bd f0 b2 13 bd
       -0.08239534 -0.06870095 -0.05835402 -0.03605932
000270 4f 85 b7 bd c0 e0 bb 3c 1f 09 b0 bd ad ed be 3d
       -0.089609735 0.022934318 -0.0859549 0.09322677
000280 9a 49 83 bb c7 32 d8 bc 47 d8 e8 3c ca f7 38 bd
       -0.0040065767 -0.0263914 0.028423442 -0.045158185
000290 33 91 95 bb 20 a1 75 3d 8f f1 88 bd 2d f1 b9 bc
       -0.0045644282 0.059968114 -0.06686699 -0.02269801
0002a0 4d a8 89 3b a8 74 b5 3d ca 3e 62 3d 1a 9c 7e bc
       0.004200971 0.08860141 0.05523566 -0.015540147
0002b0 12 b5 8e bd 9a 25 ff 3c 40 eb 8c bd 92 72 9d bd
       -0.0696813 0.03114586 -0.06880808 -0.07687868
0002c0 d7 74 a4 3d 02 4b 98 bd b0 be bb bd 1a 6b bd bb
       0.08030098 -0.074361816 -0.0916723 -0.0057805898
0002d0 f3 54 3a bd 0d 9b fb 3c 9a 1f fa bb 80 4a 9e 3d
       -0.04549117 0.030713582 -0.0076331617 0.077290535
0002e0 ca 73 77 3d 93 cc 87 3d 07 21 b7 3c 20 5e c8 bc
       0.06041316 0.06630816 0.022354616 -0.024458945
0002f0 9b 52 8d 3d 3a 91 a8 3d 7d 69 14 bd ea 4c 47 bd
       0.06900521 0.08230825 -0.036233414 -0.048657335
000300 3a 95 bb bc 3d b1 91 bd 5a 8d 49 3d 1a 6c da bc
       -0.022898305 -0.07113884 0.04920707 -0.026662875
000310 9d 7e 93 bd b3 ba 81 bb 6d c9 98 bc 58 01 a1 3d
       -0.07201884 -0.003959024 -0.018650735 0.078615844
000320 97 cf 12 bd 33 cf ca ba a7 ca 5f bc 00 bb da 3c
       -0.035842504 -0.0015473127 -0.013659156 0.026700497
000330 30 43 a8 bd b8 bb 83 3d 40 16 e5 3c 6a d5 6d bd
       -0.0821594 0.06432289 0.027964711 -0.058064856
000340 ab 74 8a 3d 1a 40 50 bc cd 28 1b ba 13 5a 79 3d
       0.06760534 -0.0127105955 -0.00059188606 0.060876917
000350 aa f5 96 bd 83 21 8d 3d 97 62 0b bd d3 60 08 3d
       -0.073710755 0.068911575 -0.03402957 0.033295464
000360 e0 6d 8c 3d 40 24 4b 3d a7 69 15 bc 92 eb 94 bd
       0.068568945 0.049595118 -0.009119428 -0.07271494
000370 33 6e be 3d c2 17 a1 bd 4a b2 25 3d b0 37 7f bd
       0.092983626 -0.078658596 0.040453233 -0.062308967
000380 07 db b5 bd 00 f8 b1 bb 00 9c 52 bc 85 5c 80 3d
       -0.08879667 -0.005431175 -0.012854576 0.06267647
000390 3a b1 67 bd d7 ae a2 bd e8 5d 96 bd 40 b0 1e bd
       -0.0565655 -0.07943504 -0.0734213 -0.038742304
0003a0 3f 1a 97 bd 9d b4 9f bd cd e8 5c ba 07 da 1a bd
       -0.07378053 -0.07798121 -0.0008427024 -0.037805583
0003b0 03 5b 56 3d 73 61 51 bc 77 a0 a7 bd 73 df 57 bd
       0.05233289 -0.012779581 -0.08184903 -0.052703332
0003c0 8d 84 4e bc 0d 5e 50 3d 0d b1 41 bd 5a 0b d3 3c
       -0.012604845 0.050870944 -0.04728799 0.025762249
0003d0 70 02 ac 3d 53 fc 44 bd 00 ae a3 3d 5a 78 84 bc
       0.083989024 -0.048092198 0.07992172 -0.01617067
0003e0 5d 66 72 3d 5a d5 90 bd cd 16 73 bd 40 b1 e4 bc
       0.059179652 -0.070719436 -0.059347916 -0.02791655
0003f0 7a 8f 8b bd c5 51 8c bd ad b5 09 3d 6d e4 ed bc
       -0.06814475 -0.06851534 0.033620525 -0.029039586

output_embedding.weight f4 [9, 32]
000000 c7 a1 f5 bd e6 fb 1d bd 67 3c f8 bc f7 25 6f bd
       -0.11993747 -0.038570307 -0.03030224 -0.058385815
000010 f2 fe 58 3c 30 78 59 3d d6 2f 96 3d 01 25 61 bd
       0.013244377 0.053093135 0.07333343 -0.05496693
000020 0d e6 eb 3d 7e e3 ac 3c be 78 6a 3d 63 65 7a bd
       0.11518488 0.02110457 0.057244055 -0.061131846
000030 31 f2 3e bd 4c 81 54 bc 7e 42 b3 bc 61 7d 85 bd
       -0.04661769 -0.01297028 -0.021882292 -0.06518055
000040 c9 0e 95 3d 8a 2d 0a bd ed 3a fc 3c 25 3c bb 3d
       0.07278211 -0.033734836 0.030789817 0.09142331
000050 f4 95 01 be 98 41 16 bd 07 5b d7 bc 76 9a 31 3d
       -0.12654859 -0.03668365 -0.026288522 0.043360196
000060 e0 7d 39 bd 65 5b c6 3d 28 33 fb bd 7c 36 c2 bc
       -0.04528606 0.09685401 -0.12265617 -0.02370762
000070 c8 62 69 3d 3e b9 37 3d 09 44 66 3d 8c 39 cb bc
       0.05697897 0.044854395 0.056217227 -0.024807714
000080 ad f0 56 bd 40 dc ab bc 95 31 b0 3d 92 38 86 3d
       -0.05247562 -0.020979047 0.08603207 0.06553759
000090 e0 92 d5 3c 2d 57 03 3d ed bf 11 bd a7 ca e4 bc
       0.026071012 0.03206556 -0.035583425 -0.027928663
0000a0 60 03 c0 bd 6d 46 a8 bc 68 1f a0 bd 8d e9 25 bd
       -0.09375644 -0.020541394 -0.0781849 -0.040505935
0000b0 30 cf 4c 3d b3 27 ef bb 00 33 c8 3b ba 45 22 bd
       0.050002277 -0.0072984337 0.0061095953 -0.039617278
0000c0 7b d5 c0 bd 58 7e bf bd fd a2 9c 3d c3 09 5d 3d
       -0.09415718 -0.0935027 0.07648275 0.053964388
0000d0 d5 5d c6 3d d2 d1 c0 bd 4b e6 ba bd e3 75 b8 bd
       0.09685866 -0.0941502 -0.09125956 -0.0900686
0000e0 b3 44 5b 3c c0 ec b6 bc 53 73 b6 3d cd 9b 6b 3d
       0.013383078 -0.022329688 0.08908715 0.05752163
0000f0 9d f0 2a 3d 25 74 a3 3d 4a cd 9f 3d 1a 42 2b 3d
       0.041733373 0.07981137 0.07802828 0.041811086
000100 18 93 56 3d e9 f0 c8 3d 5f 97 96 3d 5d c5 ff bd
       0.052386373 0.09811575 0.073530905 -0.12488816
000110 1c 59 e7 3c 58 ea 8a bc b2 6d e4 3c 3a fb a8 3d
       0.028240733 -0.016957447 0.027884338 0.08251043
000120 04 dc a2 3d af 6d b5 bd b0 98 d3 bd 73 47 bf bb
       0.07952121 -0.08858811 -0.10331857 -0.005837375
000130 98 3f 7d 3d 6a ca d8 bd a0 55 c9 bd 24 9a b8 3c
       0.061828226 -0.105854824 -0.09830785 0.022534437
000140 c3 51 37 bd ae 92 e2 3c b4 8b 04 bd 95 19 e5 3c
       -0.04475571 0.027657833 -0.032359794 0.0279663
000150 01 e2 1c 3d 36 a1 72 bd f2 31 ec bd 2b 58 dd 3c
       0.03830147 -0.059235774 -0.11532964 0.02701958
000160 76 69 f9 bb fe 07 25 3d 72 81 87 3d 1d c8 6d 3d
       -0.007611449 0.040290825 0.066164866 0.05805217
000170 7a 5a 6e 3d 88 ba df 3d b3 59 7f 3d 8e 37 fd bc
       0.058191754 0.1092425 0.062341403 -0.03091028
000180 be 77 a6 3d a5 22 9e 3c 2b 6a 91 3b 9d c2 19 3d
       0.08128308 0.01930363 0.004437705 0.037539113
000190 a7 6e 80 3d 45 17 14 bc dd 96 86 3c f9 5b 80 3d
       0.06271105 -0.009038751 0.01642936 0.062675424
0001a0 22 95 46 bd 11 60 6c bd 65 4c c5 bd 00 68 8e bd
       -0.048482068 -0.057708804 -0.09633712 -0.0695343
0001b0 c5 4f 23 bd 27 b8 ac bd e5 c0 0a be 28 95 ab bb
       -0.039870996 -0.08433562 -0.13550146 -0.0052362867
0001c0 42 4e 51 3d 86 78 e0 3d 17 c4 f5 bc 74 84 be 3c
       0.051100023 0.10960488 -0.03000073 0.023256518
0001d0 bc 38 14 bd 2f 73 7e bd 78 1f d8 bd 76 25 08 bd
       -0.03618692 -0.062121566 -0.10552877 -0.03323885
0001e0 85 71 d4 3d 6f f4 5f bd ef 43 04 be 8f dd 80 bd
       0.10373215 -0.05467647 -0.1291654 -0.06292259
0001f0 6b 70 fe bd 2a 66 04 3e ad 8b 3d 3c 12 c0 e2 bd
       -0.12423786 0.12929597 0.011568946 -0.11071791
000200 23 d4 7b bd eb 68 94 bd e3 3b 2f 3d 82 7f 90 3d
       -0.061481606 -0.07246574 0.04278172 0.0705557
000210 0b 2d 87 bd 1a ba 36 bd 1f ff 8b 3d c3 27 52 3d
       -0.06600388 -0.044611074 0.0683577 0.05130745
000220 02 c2 b2 3d 9a cc 7b 3d 47 08 84 3d 3b 17 c6 3d
       0.0872841 0.06147442 0.06446891 0.096723996
000230 e7 23 cf bc 4a dc 8d bd b3 fb 54 3d 1a 8c d7 bb
       -0.025285674 -0.069267824 0.05199785 -0.0065779807
000240 a7 b5 31 bd ed 64 ab bd 9a 23 89 3d e3 75 86 3d
       -0.043386128 -0.083688594 0.066962436 0.06565454
000250 30 cb 77 3d e0 4e b9 bd 35 84 a6 bd 73 00 c3 3d
       0.06049651 -0.09048247 -0.08130685 0.0952157
000260 50 ac bd 3d 30 ee 2a bd 1b d1 82 3d c7 04 3d bd
       0.092613816 -0.04173106 0.0638754 -0.046147134
000270 6a b8 96 bd ad 76 86 bc ba 2c 28 3d 8d 98 5e bc
       -0.07359393 -0.01641401 0.04105828 -0.013586176
000280 a0 0d e1 bc dd f3 13 bd 82 a0 c4 bd 9a e3 c3 3c
       -0.027472317 -0.036121238 -0.09600927 0.02391224
000290 8a b4 70 3d 33 f5 3a bb b5 96 a9 3d 47 ba 69 3d
       0.058765925 -0.0028527498 0.08280698 0.057062414
0002a0 0a e4 61 bd a7 19 ee bc 4d 39 9a 3d 60 cd 12 bd
       -0.055149116 -0.029064966 0.075304605 -0.035840392
0002b0 fb 73 a9 bd d7 b3 51 bd 9a 56 d3 bb 37 7f 30 3d
       -0.08274075 -0.0511969 -0.0064495327 0.04309007
0002c0 27 d2 fd 3c 33 dd c8 bb 8b 4a b6 3d 10 6c 69 3d
       0.030983998 -0.0061298846 0.08900937 0.056987822
0002d0 48 c7 9d bd d3 7e a5 bc 30 19 66 bd e0 55 ba 3c
       -0.077040255 -0.020202076 -0.056176364 0.022746027
0002e0 13 40 ca bc e3 38 bd bd 40 b9 7d 3c cd 6a 26 3d
       -0.024688756 -0.09239366 0.015486062 0.040629197
0002f0 9a 46 d2 3b eb 4c 83 3d 80 11 2d bd 87 bc e7 bc
       0.006417108 0.06411155 -0.042253017 -0.028288139
000300 de 45 ea 3c 3f 2b fd bc a1 0e f7 bb 58 97 b4 3c
       0.028597768 -0.03090441 -0.0075395857 0.022044823
000310 60 1e 4a 3c 8a fa d4 bd 6f 7d 0c 3d c8 fd 3b 39
       0.0123363435 -0.10399349 0.03429931 0.0001792825
000320 3a 62 44 bd 47 fd 60 bd e8 6a ae bd 46 73 ef 3c
       -0.04794524 -0.054929044 -0.085164845 0.029229771
000330 b2 3f 0a bd 52 b5 81 3c 91 a3 3a bb 08 9d 3c 3c
       -0.03375215 0.01583353 -0.002847884 0.011512049
000340 1d 37 a0 3c 1d 58 fd b9 2b 9e 01 bd 10 7c 0b bd
       0.01955753 -0.0004832157 -0.03164498 -0.034053862
000350 bc 25 12 bc c5 7b 27 3b dd 7c 1a bd 19 73 75 bd
       -0.008920129 0.002555595 -0.037716735 -0.05992422
000360 14 8b a0 bd c2 c1 90 3d b6 e8 91 3d 00 4b 71 3d
       -0.07839027 0.07068206 0.07124464 0.058909416
000370 a7 27 d8 bd 5c f7 69 3d b2 3a 95 bd 69 60 ab 3d
       -0.10554438 0.057120666 -0.07286586 0.08367998
000380 54 7c 23 3c 72 a7 42 bd f0 1c 81 3d 06 f0 85 3d
       0.009978373 -0.04752297 0.063043475 0.065399215
000390 41 fc 9b bd 1f c7 8b bd 2a a2 2c bd dd 63 a5 3d
       -0.07616473 -0.06825089 -0.04214684 0.08075688
0003a0 49 16 da bd 02 07 46 3d d4 fe ab bc 74 65 70 3d
       -0.10648782 0.048346527 -0.020995535 0.058690503
0003b0 cf d5 f6 3c 1b bc ac bd 10 5d 5c 3d 6e d5 82 bd
       0.030131249 -0.08434316 0.05379969 -0.06388365
0003c0 7d 63 85 bc 05 d3 65 3c 70 d0 0c 3d 2a 0a 1c 3d
       -0.016282791 0.014027362 0.03437847 0.03809563
0003d0 d0 12 8b bc b3 f0 b8 bc f0 7c b1 3d c5 87 60 3b
       -0.016976744 -0.022575712 0.08666408 0.0034260612
0003e0 ce b3 9a 3d d5 f4 19 bd c9 34 c2 3c db 60 a4 bc
       0.07553826 -0.037587006 0.02370681 -0.020065716
0003f0 df 88 dc 3c 0b c7 65 3c 71 aa 97 3d 87 6b 92 bd
       0.026920734 0.014024506 0.07405556 -0.071494155

input_position_embedding.weight f4 [16, 32]
000000 44 ec 4d bf c9 da b5 3f c1 29 3e c0 f0 e8 13 be
       -0.8043864 1.4207393 -2.9712985 -0.14444327
000010 c2 78 de be 99 61 8c 3f e1 ca 45 bf 00 1e fd bd
       -0.43451506 1.0967284 -0.77262694 -0.12359238
000020 78 39 65 bf 69 9b fd 3f e7 56 da bf b4 a4 2d bf
       -0.89540815 1.9813052 -1.705777 -0.6782944
000030 b5 0d a0 3f fc 03 28 bf 2b a1 2a 3e 49 3d 5f bf
       1.2504183 -0.6563108 0.16663043 -0.8720289
000040 b7 e3 1a c0 8d 8e 68 bf d7 61 33 3f 37 32 42 bf
       -2.4201486 -0.90842515 0.70071167 -0.7585787
000050 ba 82 82 bf b2 de d3 be 47 75 85 3f b0 23 88 be
       -1.0196145 -0.4138084 1.0426415 -0.26589727
000060 57 15 0c c0 32 dd f3 bd 9b da c6 bf c4 28 10 3f
       -2.1888025 -0.11907424 -1.5535463 0.56312203
000070 1d d0 aa be 25 56 73 3f f7 4a 16 3f 91 03 55 bf
       -0.33361903 0.9505332 0.5870814 -0.83208567
000080 12 5d 84 be f2 05 1b bf 96 c2 40 be c8 a8 75 3f
       -0.25852257 -0.60555947 -0.18824229 0.95960665
000090 47 08 82 bf a1 c8 c3 bf fb e5 9b bf 7e 48 5e 3f
       -1.0158776 -1.5295602 -1.217956 0.86829364
0000a0 ad 91 a1 bf 05 93 16 3f f9 65 60 bf 98 83 84 bf
       -1.2622582 0.58818084 -0.876556 -1.0352659
0000b0 b1 72 17 be 9d 3c 8a bf 82 fd 0e be a8 f3 a0 bf
       -0.14789845 -1.0799748 -0.13963893 -1.2574358
0000c0 8b 9f 8a 3e c4 ea 3a 3f fb da a3 bf 49 63 b7 be
       0.27074847 0.73014474 -1.2801203 -0.35817936
0000d0 6d 45 98 3f 8d d4 37 be ec 5f e9 bf 6c 55 52 bd
       1.1896187 -0.17952175 -1.8232398 -0.051350996
0000e0 e7 b5 47 bf 08 12 c8 bc f2 cb 71 bf 23 d3 9b 3d
       -0.78011936 -0.02442266 -0.9445182 0.076086305
0000f0 72 c3 6f bd 6e db 45 3f 5e 19 f0 3e d5 0f 85 3e
       -0.058536 0.7728795 0.46894354 0.2598864
000100 89 c9 49 3f d1 a8 ae 3f 3b 4f bf 3e 38 0e 80 bf
       0.78823143 1.3645269 0.37365136 -1.0004339
000110 da 02 7e bb 2d 9b 97 3f 99 74 41 3f 05 63 a4 3f
       -0.0038759024 1.1844231 0.7556854 1.2842718
000120 23 2b 36 bf a6 5f f6 bd e2 80 9e 3f a5 49 4b 3e
       -0.7115957 -0.12029962 1.2383082 0.19852312
000130 aa db 44 3c ad 5d 98 3e 75 b6 5e 3f 5a 84 80 be
       0.012015263 0.2975897 0.8699716 -0.25100976
000140 ad af 99 bf bd ae 82 3f 29 21 c6 be e4 03 69 bd
       -1.2006737 1.0209576 -0.38697174 -0.056888476
000150 4f 1c 98 3f 80 ae 22 c0 38 b1 b4 be a0 2c b5 bf
       1.1883639 -2.5419006 -0.35291457 -1.4154243
000160 aa 9c a6 bf bd b8 af bf 79 70 d8 3f 71 a5 ec be
       -1.301656 -1.3728253 1.6909324 -0.46219972
000170 c9 aa e2 3e f0 8d 03 3f 51 bb 1c bf f5 30 f9 bf
       0.44270924 0.51388454 -0.6122332 -1.9468066
000180 c5 75 06 c0 ec a3 c7 3e 25 e1 b2 3d ef 7b 5b bf
       -2.100938 0.3899225 0.08734349 -0.8573598
000190 9f 90 da bf 75 a4 46 bf b3 8d e7 3e fc 09 b8 be
       -1.7075385 -0.7759469 0.45225295 -0.35945117
0001a0 b9 f7 45 3f ec a0 43 40 2a 38 1f c0 42 1c d9 bf
       0.7733112 3.056697 -2.487803 -1.6961749
0001b0 d0 bc 72 bf 07 61 3c bf 82 f7 39 be d0 7e 4a bf
       -0.94819355 -0.7358555 -0.18160823 -0.7909975
0001c0 dd 03 1b 3e ad d1 04 3f 66 f1 16 bf 4a 16 80 3f
       0.15138192 0.5188244 -0.58962095 1.0006802
0001d0 46 c5 98 3f ea de a1 bc 8a 81 8f 3e 42 cf e7 3f
       1.1935203 -0.019759614 0.28028518 1.8110125
0001e0 54 30 a5 be 54 f8 23 3e 5f e5 bd bf a6 c8 52 3f
       -0.32263434 0.16012698 -1.4835624 0.82337415
0001f0 86 e9 91 bf 59 65 f4 bc a0 d5 21 bc d6 53 a3 3d
       -1.1399391 -0.029833483 -0.009877592 0.07974975
000200 66 c9 17 be 29 9f 64 3f 69 07 43 bf 02 f7 c4 bf
       -0.14822921 0.8930536 -0.7618318 -1.5387881
000210 36 59 1f bf 92 6a b6 be a5 4a fb 3f 27 ce 6f 3e
       -0.622455 -0.35628182 1.9632155 0.23418485
000220 5b 53 00 be b1 d6 d7 3f e6 ad 11 40 ba ef 74 bf
       -0.12531798 1.6862394 2.276239 -0.95678294
000230 5b 70 e4 3f 90 ec 45 3e cb 40 a6 3e db 05 2e 3d
       1.7846788 0.19328523 0.32471308 0.042486053
000240 6a e8 b3 bf 63 a3 f4 3d d3 95 a9 be 6b 3a 57 bf
       -1.4055302 0.11945226 -0.3312212 -0.84073514
000250 7e d5 8b 3e 7a a0 b7 be 21 5c dc 3f a5 1f d6 3f
       0.2731132 -0.3586462 1.7215616 1.6728407
000260 45 06 20 bf 28 ef 50 3f 98 31 12 bf ae a3 f4 bd
       -0.62509567 0.81614923 -0.57106924 -0.11945282
000270 d3 e8 ae 3e f2 4a 93 be f6 72 fe be 03 9a b0 3d
       0.34162006 -0.28768116 -0.49697083 0.086231254
000280 26 78 99 3d 5d 1f 17 3f 96 0f cc 3e ba c9 22 bf
       0.074936196 0.5903223 0.3985564 -0.6358906
000290 79 f9 3f 3d 67 fa e8 3f c8 80 ba 3f c2 44 36 3e
       0.046868775 1.8201417 1.4570551 0.17799667
0002a0 f2 55 0c ba c5 9d 92 bf a2 63 00 40 29 4c 35 be
       -0.0005353383 -1.1454397 2.006081 -0.17704834
0002b0 9d 91 af bf 5e 42 35 bf a3 06 be 3c 14 bd ad bf
       -1.3716313 -0.70804393 0.023196524 -1.3573327
0002c0 2d 48 ec be a9 f6 1b 3d 69 7a a9 bf 1d 09 0e 3f
       -0.46148816 0.03807703 -1.3240482 0.55482656
0002d0 ac 76 8a bf 46 0d a9 be fc 23 8b 3e 34 7f 8b bf
       -1.0817466 -0.3301794 0.2717589 -1.0898194
0002e0 a8 87 50 3f cf c3 0e be 4c 3f bc be 61 2a ea be
       0.81456995 -0.13941883 -0.36767042 -0.45735458
0002f0 28 ea 38 bf 98 a5 06 3f 4d 5d df be a8 7c 41 be
       -0.72232294 0.52596426 -0.4362587 -0.18895209
000300 26 0e 86 bf a6 84 66 3e 86 09 2e 3f dd 63 07 3f
       -1.0473068 0.22511539 0.6798328 0.52886754
000310 4a d3 4b bf 58 16 a1 be 19 51 81 bf 12 17 bb be
       -0.79619277 -0.3146236 -1.0102874 -0.3654104
000320 61 fa 56 3f bf c9 61 bf 33 0d 77 3f d0 6b 5e 3f
       0.839758 -0.88198465 0.96504515 0.8688326
000330 25 80 44 3f bf 92 bb 3e d2 2c 18 bf 8e 03 57 be
       0.76758033 0.36635396 -0.5944339 -0.2099745
000340 cc 8e b9 3e 15 72 63 3e 40 dd 8e 3e 69 5e a1 be
       0.36241758 0.22211488 0.27903175 -0.31517342
000350 c9 02 11 c0 ef ae 8c 3f e7 d8 27 3e 21 1e d7 be
       -2.265795 1.0990885 0.16391335 -0.42015174
000360 aa 25 d1 bf cc 94 09 3f 10 93 8a 3f a1 f0 da bf
       -1.6339619 0.5374267 1.082613 -1.7104684
000370 02 c8 01 3f a5 40 46 3e f9 06 2b 3f 17 dc af bf
       0.5069581 0.19360597 0.66807514 -1.3739041
000380 68 07 29 3f 7a be b4 bf 8d d3 ea 3f 5f 92 e9 3e
       0.66026926 -1.4120629 1.834581 0.45619485
000390 fe 0b ed 3e fd 57 61 3f fe 53 48 bf a4 61 9b 3e
       0.46298212 0.88024884 -0.7825316 0.3034793
0003a0 66 ec 1a 3f f2 a8 a8 3f af 16 89 3f 29 61 9c bf
       0.60516965 1.3176558 1.0710047 -1.2217151
0003b0 be 41 81 3f a5 06 7b be 84 5e 52 3f 5a b2 a6 3f
       1.0098188 -0.24514253 0.8217547 1.3023179
0003c0 7b 09 2d 3f e6 cc 5c 3f 70 fd e5 3f 5e fd c0 bf
       0.6759259 0.8625015 1.7967968 -1.5077322
0003d0 43 b5 26 3e 69 65 23 bf 90 e1 65 3f 34 6e c4 be
       0.16280083 -0.63826615 0.89797306 -0.38365328
0003e0 df 87 bf bf 80 83 7b bf a8 e8 37 3f 76 63 e1 3e
       -1.496334 -0.9824753 0.7183938 0.44021195
0003f0 d8 d2 d1 bd 18 ff dc bf a5 21 f8 be 03 4c 36 3f
       -0.102452934 -1.7265348 -0.4846317 0.71209735

target_position_embedding.weight f4 [9, 32]
000000 ce a9 8a 3d 27 56 90 3e 86 f4 f1 bf 75 c3 08 bf
       0.06770669 0.2819073 -1.8902748 -0.53423244
000010 68 bb 40 bf cc fc 44 3e 74 5a 1f bf 69 91 00 3f
       -0.7528596 0.1923706 -0.62247396 0.5022188
000020 d2 56 27 3d 7b 52 f5 be 6c 40 41 3f 72 22 a2 3f
       0.040854283 -0.4791449 0.75488925 1.2666762
000030 db a4 57 3f 79 5b a8 3f 42 98 5a 3f ac 5f 77 3e
       0.84235924 1.3152915 0.85388577 0.2415759
000040 c8 79 49 3f 39 95 8e bf a7 92 3e bf 7a 90 52 3f
       0.7870145 -1.1139289 -0.74442524 0.82251704
000050 25 54 37 bf c2 4f 10 bf 79 36 a7 3f 09 cf 98 3f
       -0.7161277 -0.563717 1.3063499 1.1938182
000060 cd 4c ee 3f 42 ca 8c bf ef d2 3e be 18 c1 c3 be
       1.8617188 -1.0999224 -0.18635152 -0.38233256
000070 ba 0c b9 3f 31 9d 1b 3f 80 c0 1c bf c9 00 51 3f
       1.4457009 0.6078673 -0.6123123 0.81641823
000080 2b 92 7e be a1 30 ac bf c5 8a 99 be 69 6f 0c c0
       -0.24860446 -1.345234 -0.29988685 -2.1943
000090 5d f8 c4 3e e4 d2 23 40 f0 9a d8 3e da 7b 73 3e
       0.38470736 2.5597467 0.42305708 0.23777714
0000a0 7d 6d 9b 3f 1b 54 1f 40 a9 cc 3e bf 2b a2 db bf
       1.2142788 2.4895084 -0.74531037 -1.7158865
0000b0 29 85 17 c0 b4 3a ce be a6 97 81 3f 01 28 1d c0
       -2.3675025 -0.40279162 1.0124404 -2.4555666
0000c0 f9 cb bb 3f b3 1d ba bf 49 1c d1 bf 78 d7 3d bf
       1.4671623 -1.4540313 -1.6336757 -0.74156904
0000d0 72 38 e9 be 3e cb 96 bf 72 49 27 bf 72 2f aa bf
       -0.45550877 -1.1780775 -0.65346444 -1.3295729
0000e0 e1 2d 61 3e 2f e7 60 3f 06 e5 5e bd 91 70 e5 be
       0.21990158 0.8785276 -0.054417633 -0.44812444
0000f0 da 1f f2 bd 9e ba e5 bf 13 1b 74 3e 6d d2 a4 bf
       -0.118224815 -1.7947576 0.23838453 -1.2876717
000100 43 9f 99 3f 36 3e dd 3e c4 16 89 bf 0e a0 4e 3f
       1.2001728 0.43211526 -1.0710073 0.80712974
000110 72 41 0f 3f 05 e1 07 40 3d 04 64 3f 62 b5 d5 3e
       0.55959237 2.123109 0.8906897 0.41739947
000120 c5 0f 42 40 91 a4 f8 be 3d 80 46 3e d0 60 32 be
       3.0322125 -0.48563054 0.19384857 -0.17419744
000130 44 b3 13 c0 90 13 65 bf a0 94 40 bf 55 51 3d 3f
       -2.3078165 -0.89482975 -0.75226784 0.7395223
000140 8b 79 88 bf 90 53 41 bf 06 1c 70 3f 2d b3 6f be
       -1.0662092 -0.7551813 0.9379276 -0.23408194
000150 a3 13 0e bf c6 c4 39 3d c4 2e a5 be e4 f8 8f bf
       -0.55498713 0.045353673 -0.32262242 -1.124783
000160 f6 29 6f bf 1a a7 40 be d1 64 b7 bf 47 dd 83 3f
       -0.934234 -0.18813744 -1.4327642 1.0301903
000170 c4 76 94 bf 42 40 21 3f 14 dd 38 be 37 74 75 3f
       -1.1598744 0.62988675 -0.18053085 0.95880455
000180 c2 87 f4 bf 69 0e ee 3f 18 de dc be f0 5b 0e be
       -1.910393 1.8598148 -0.43138194 -0.13902259
000190 17 62 e3 3f d5 9a e4 3c f9 19 cb 3e 83 c8 d0 be
       1.776431 0.02790586 0.39668253 -0.40777978
0001a0 f7 d8 66 bc bc a6 ba 3f d7 52 0f 40 ea 3d 9e 3f
       -0.014089814 1.4582133 2.2394311 1.2362645
0001b0 06 a1 f6 3b 6c 37 7c bc c8 b8 1f bf 29 17 a6 bf
       0.0075265197 -0.015394073 -0.6239133 -1.2975818
0001c0 3e 59 41 bf 2d e0 9a 3e 97 0c eb 3e 87 2d 9e 3f
       -0.755268 0.30249158 0.45908043 1.2357644
0001d0 1c 4a 41 be df 3e 3c bf f7 bf 07 bf 06 73 29 3f
       -0.18875927 -0.73533434 -0.5302729 0.66191137
0001e0 8e 46 5e 3e de d7 7d 3d c7 8f ee 3d ae 6a 8c bd
       0.21706602 0.061973445 0.11648517 -0.06856285
0001f0 2c 2f ee 3f f9 a5 02 3f d3 3f 0c 3f c7 20 68 3e
       1.8608146 0.51034504 0.5478489 0.22668754
000200 70 97 0e 3f f1 39 3f bf 1f 88 73 3d d2 3d 8f 3f
       0.55699825 -0.74697787 0.059455987 1.1190741
000210 b9 22 56 bf 3d 91 5c bd a4 5e 63 bf f8 ca 09 bf
       -0.8364673 -0.053849448 -0.88816285 -0.5382533
000220 6d e5 5d bf 01 d5 9f 3f 8a 5d 56 bf 34 1a 66 3e
       -0.866782 1.2486879 -0.8373648 0.22470933
000230 eb a5 52 3f cf dc 23 3d 6b af e4 3f c9 2a 06 c0
       0.8228442 0.0400055 1.7866033 -2.0963614
000240 9c 0c 48 3f 4c 69 08 bf e8 f2 6c bf a5 f7 4f be
       0.7814424 -0.5328567 -0.92558146 -0.20309313
000250 99 0e 85 3f 80 fa c4 3e 86 be c7 3d b4 03 c3 3f
       1.039508 0.38472366 0.09753136 1.5235505
000260 15 05 21 be ee 8f 70 3f ea b7 18 be 72 08 13 be
       -0.15724595 0.9396962 -0.14913908 -0.1435869
000270 cf a1 be bb 19 43 d3 bd 33 55 e2 3f a7 56 45 3f
       -0.005817629 -0.10315532 1.7682251 0.77085346
000280 59 75 a2 3e 0b 3b 21 3f 17 de f0 be 48 36 5c 3e
       0.31730154 0.6298072 -0.4704444 0.21505082
000290 55 fd 0e 40 69 59 f8 bf 93 c3 13 3f 88 b2 2a be
       2.2342122 -1.9402286 0.577203 -0.16669667
0002a0 e7 3e c0 bc 12 f0 e6 be c8 cc 0c c0 a9 0e bc 3f
       -0.023467494 -0.45105034 -2.1999989 1.4691974
0002b0 81 0a e1 bf 65 06 12 bf 5b 2a 85 bf ff ac 20 bf
       -1.758133 -0.5704101 -1.0403551 -0.6276397
0002c0 6f 04 b3 3f 82 dd 8c 3e 8d cc aa be cf 81 2d bf
       1.3985728 0.27512747 -0.33359185 -0.677762
0002d0 69 19 7d be dc d9 94 be 2c a9 7c bf 88 28 32 3e
       -0.24716724 -0.29072464 -0.98695636 0.17398274
0002e0 c8 cf 78 bf df aa 66 3e 12 6e 20 bf 3d 96 d4 3f
       -0.9719205 0.2252612 -0.62667954 1.6608349
0002f0 0b 16 79 3f 4b c9 64 3e 63 26 12 40 f6 ae 92 bf
       0.9729926 0.22342412 2.283593 -1.1459644
000300 d4 ef 59 bf 11 c7 03 c0 4b 44 ac bf 75 ca 68 bc
       -0.85131574 -2.059025 -1.3458341 -0.014208426
000310 a6 ad c3 3e 3a 3b 4c 3d 0a 74 29 bf b4 03 de bd
       0.3821842 0.04986117 -0.66192687 -0.1084055
000320 77 7f 07 3f 2f 24 c3 bd 65 a5 8e 3e af df 84 3f
       0.5292887 -0.09528386 0.2786056 1.0380763
000330 78 ab 10 bf 72 b0 84 be de 73 2b 3f 7d af 82 3e
       -0.5651164 -0.25915867 0.66973674 0.25524512
000340 04 93 cd 3f 37 9c 16 c0 05 53 96 be 20 e8 81 3e
       1.6060491 -2.3532846 -0.29360214 0.2537241
000350 6c db 0c bf 5d ab f2 be 52 89 ca be 54 a8 84 bf
       -0.5502231 -0.47396365 -0.39557892 -1.036387
000360 02 1c 54 bf 2f 7d 4f bd 3f 64 0f 3e ca 4a 71 3f
       -0.82855237 -0.050656494 0.14003085 0.94254744
000370 66 30 6c 3f f9 b0 3d bf ed 07 11 c0 b1 7c 10 3e
       0.9226135 -0.74098164 -2.2661088 0.14110066
000380 32 7b c3 3e e3 9a 68 be cb 91 8e be b9 a4 e2 bf
       0.38179928 -0.22715335 -0.27845606 -1.7706519
000390 a9 ea 7a 3f f0 08 8a bf cf 28 90 bf fb 80 9c be
       0.98014313 -1.0783978 -1.1262454 -0.30567154
0003a0 47 93 2b 40 98 b4 02 bf 90 20 c3 3f 78 a2 db bf
       2.680864 -0.51056814 1.5244312 -1.7158957
0003b0 86 9c 59 3b af 5f f0 bf f9 94 ba 3e 33 6e b4 be
       0.0033204868 -1.87792 0.36441782 -0.35240325
0003c0 00 f8 c1 3d 02 82 fc 3d 22 bc f4 be 93 56 98 3e
       0.0947113 0.123294845 -0.47799784 0.2975355
0003d0 5b 6f a8 3e 56 3d 98 be e5 c5 54 3f 0e 7f 2b 3d
       0.32897457 -0.29734296 0.83114463 0.041869216
0003e0 9a c3 31 bf fa e1 c2 3e 9d 89 67 3e 35 91 63 3e
       -0.6943909 0.3806303 0.22611089 0.22223361
0003f0 af f2 b1 3f 09 5c ad bf be 75 4c 3e fc 18 01 3e
       1.3902186 -1.3543712 0.1996679 0.12607187

transformer.encoder.layers.0.self_attn.in_proj_weight f4 [96, 32]
000000 11 fa a0 bd b9 d7 0f 3e fe e5 a7 bd b5 9c 88 3c
       -0.078601964 0.14047135 -0.081981644 0.016676286
000010 7d 49 20 be f9 c6 03 3d 7f 5d 26 3e 37 ca 18 3e
       -0.15653034 0.032172177 0.16246603 0.14920889
000020 70 16 2e bd a6 f6 17 be f9 48 a1 bd 1a c5 20 3e
       -0.042501867 -0.14840183 -0.078752466 0.15700188
000030 0b 4c 2f be 09 b5 4b be 9b 7b 35 bd 95 30 47 be
       -0.17118852 -0.19893278 -0.044307332 -0.19452126
000040 c9 15 2c 3e 50 9b 3c be 9a 12 61 be 26 86 4a 3e
       0.16805185 -0.18418622 -0.21979752 0.19777736
000050 4a 1c a5 3c 3e 10 d7 3d f5 70 16 3e 3f 88 92 3d
       0.02015509 0.10501145 0.14691527 0.07154893
000060 98 f3 33 3e ab 75 f5 bc 77 2b 0c 3e 06 58 74 bd
       0.17573392 -0.029963335 0.13688456 -0.05965426
000070 82 2e 2d 3c e3 3d 0a be 74 80 14 be a0 7a 10 be
       0.01057017 -0.1350017 -0.14502126 -0.14109278
000080 4e df 1e be 03 0a c9 bd fb 87 f5 bc ed 90 f9 3d
       -0.15514871 -0.09816363 -0.029972067 0.121858455
000090 17 33 35 be ec ff 42 3e b7 27 fd 3c 08 16 3e 3e
       -0.1769527 0.19042939 0.030902727 0.18563092
0000a0 10 ae 18 3d e2 c2 20 3e ed 23 2d be 9b aa 80 bd
       0.037275374 0.15699342 -0.16908236 -0.062825404
0000b0 4e 1d 88 bc 34 41 f1 bd 3e e0 a6 3c 52 12 b9 bc
       -0.016615536 -0.11780015 0.020370599 -0.022591744
0000c0 c4 db 46 be 78 55 83 3d 10 6e 10 3e c6 c0 01 3e
       -0.19419771 0.06412786 0.14104486 0.12671193
0000d0 30 e0 b4 bd 74 f6 a7 bd 84 af 5b be 26 80 d1 3d
       -0.08831823 -0.08201304 -0.21453673 0.102295205
0000e0 ce bd 5a be 2f 83 4d be 98 e5 54 3e 22 1d da bd
       -0.21361467 -0.20069574 0.20790708 -0.10650088
0000f0 a3 7e b1 bd 10 8a 1e bd cc 6e 8d bd 92 a3 1d be
       -0.08666732 -0.038705885 -0.069058985 -0.15394428
000100 95 17 1f 3a d1 15 d2 bd 6e 1e c0 bd 6c bb ab 3d
       0.00060688826 -0.102580674 -0.09380804 0.08385357
000110 e4 75 e9 3c 3b 22 aa bb b1 dc 36 bc 0f 9e 03 3b
       0.028498597 -0.005192069 -0.011161015 0.0020083224
000120 c9 4c 35 3e d3 d4 8e bc 96 74 3c 3e 2c 78 d4 3c
       0.17705072 -0.017435467 0.18403849 0.025936209
000130 e6 d2 ac bd 4f 5d ff 3d 29 44 fa bd 8d 9c 39 3b
       -0.08438663 0.12468969 -0.12220032 0.0028322071
000140 6e ae 28 3a 39 74 28 bd bb a3 ec bc d8 f5 5e bd
       0.00064346835 -0.041126464 -0.028886667 -0.054433674
000150 f5 f1 43 3d e2 1a 77 3d 44 bd b9 3a d8 74 19 be
       0.04783817 0.06032837 0.0014170785 -0.14985979
000160 9e 19 cc bd 9a bd 9c 3d 4e a0 4c bb 5a 57 2b 3e
       -0.099658236 0.07653351 -0.0031223479 0.1673254
000170 a7 b4 d7 bc 2f 2a eb 3d aa d4 5c 3e 92 e7 4b be
       -0.026331259 0.11482655 0.215655 -0.19912556
000180 3f d8 2e be 84 83 3a 3e 9a 0c 13 3d e8 f7 28 be
       -0.17074679 0.18214232 0.03590069 -0.16500819
000190 c7 c2 83 3d 8c 57 59 bd ea 53 1a 3d 50 5a 55 bd
       0.06433635 -0.053062007 0.037677683 -0.05208808
0001a0 6d d3 34 be 62 5e 3a be 78 d1 5d be 0e 3b 2b 3e
       -0.17658778 -0.18200067 -0.21661937 0.16721746
0001b0 91 21 cc bd 2e fa 0f 3d 92 bb 81 bd 95 d8 22 be
       -0.0996734 0.0351507 -0.06334604 -0.15902932
0001c0 30 3a 18 3e 9a e5 8e bc 44 b2 9e bc 8c 3d 0c 3e
       0.14865947 -0.017443467 -0.019372113 0.13695353
0001d0 c9 0b f8 bd 5d d7 66 3c 53 f2 b0 3c 46 df f4 3d
       -0.12111623 0.014089433 0.021599924 0.119566485
0001e0 8a 6f 4a be 69 01 0e be b1 0f 35 3e 95 0c bc 3d
       -0.19769111 -0.13867725 0.17681767 0.09182087
0001f0 90 7c 11 3e 99 3d 25 3d ea fc c7 bb 17 1d aa bd
       0.14207673 0.040341947 -0.0061031478 -0.0830633
000200 2a 86 fd bd 2d d4 9e 3c aa 1b 03 be 6d 01 d8 bd
       -0.123791054 0.019388283 -0.12803522 -0.10547147
000210 9d 6f a8 bd 13 5b 45 be 26 b8 4b 3c 5b 44 43 3e
       -0.082244135 -0.19273023 0.012434041 0.19069044
000220 39 56 30 be 84 cd 80 3c 36 5c 03 be 47 0a 64 3c
       -0.17220391 0.015722997 -0.12828144 0.013918466
000230 a3 35 0a be fd 3e 3e be 64 b3 c1 bd aa f8 09 3e
       -0.13497023 -0.18578716 -0.09458044 0.13473764
000240 a8 5e 3f 3e c4 55 36 be f1 61 79 bc 0b 0e 52 be
       0.18688452 -0.17806154 -0.015221105 -0.2051317
000250 db 55 b7 3d 2d 4a 3f 3e b8 9a 9b bd 12 82 93 3d
       0.089519225 0.1868064 -0.0759787 0.07202543
000260 54 84 e1 bd 17 16 78 bd d0 65 34 3e 14 23 07 be
       -0.11011568 -0.06056794 0.17616963 -0.13196975
000270 19 8e 38 be be 9d e9 bd aa a6 c9 bd 32 92 da bd
       -0.18022956 -0.1140704 -0.09846242 -0.10672416
000280 a6 9d 0a 3e 29 fd 84 3d 05 d4 1c 3e a3 9f bb 3d
       0.135367 0.06493599 0.15315254 0.09161308
000290 a4 34 5f 3e 2e 76 f7 3d 8d 4e b7 bc d2 98 2e ba
       0.21797425 0.12083088 -0.022376323 -0.0006660345
0002a0 26 48 8b bd d5 e1 27 be 37 85 1f 3c 2b 4c a3 3b
       -0.068008706 -0.16394742 0.009736351 0.004983445
0002b0 45 04 36 bd 49 ed 53 bc 07 a1 ea bd 65 b2 21 3e
       -0.044437665 -0.012934991 -0.11456495 0.15790708
0002c0 5b ea 3f be de 37 4f 3e 71 42 57 3e ae cb 22 be
       -0.18741743 0.20236155 0.21021439 -0.1589801
0002d0 6a ed 69 3d ed dc cf 3c 4c 67 21 be cc 75 f0 3d
       0.05711118 0.0253739 -0.15762061 0.11741218
0002e0 20 d7 3b be 75 e0 84 3d 8f 6f 2a be 83 6c 38 bd
       -0.18343782 0.06488124 -0.16644119 -0.04502536
0002f0 91 c0 40 3e da 4c 8f 3c 79 29 10 3e 3d d0 a1 3d
       0.18823458 0.0174927 0.1407832 0.079010464
000300 d3 92 b9 3d 1e 64 00 3d b0 42 01 be de 18 88 bd
       0.090612076 0.03134548 -0.12623096 -0.06645368
000310 30 e1 e7 bc d5 1a a8 bd 1a c0 d2 bd 46 00 52 3d
       -0.02830562 -0.08208243 -0.10290547 0.051269792
000320 15 5d b9 39 e1 96 0e 3e c4 71 5a bd ad b4 16 3e
       0.000353553 0.13924743 -0.05333115 0.1471736
000330 3b 5f 08 bc 6e 55 0d 3e 06 98 54 3d 91 4d 4a be
       -0.008323486 0.1380212 0.051902793 -0.19756152
000340 12 9d 17 3e ca 35 b9 bd c3 c4 27 3e 08 ef 60 3b
       0.14806011 -0.090434626 0.16383652 0.0034322161
000350 67 85 03 3e 66 8a d7 bc 59 6b 5e 3e 9f 85 11 3e
       0.12843858 -0.02631111 0.21720637 0.14211129
000360 55 dc 92 3d 82 87 08 3e 67 5e 7c 3d 12 83 97 3d
       0.07170931 0.13332942 0.061613467 0.073980466
000370 ac b8 2e be 54 d3 e2 3c 4b be 29 3e 92 32 23 be
       -0.17062634 0.02768866 0.16576497 -0.1593726
000380 d7 dd 40 3e 86 04 d3 3d d3 bc 8e bc dd 63 f1 bd
       0.18834625 0.10303597 -0.017424023 -0.117866255
000390 2b bd 3e be d7 49 1d be 2c b4 3c 3c 68 e0 3e 3e
       -0.1862685 -0.15360199 0.011517566 0.18640292
0003a0 d7 73 88 bd 20 96 47 be 0e 11 0c be 26 b1 60 3e
       -0.0666272 -0.19490862 -0.13678381 0.21942577
0003b0 74 d3 58 3d c8 74 15 3e 33 2b 1e be 3b 1c 98 bc
       0.052936032 0.1459533 -0.15446167 -0.018568149
0003c0 d4 a6 f0 3d 98 cc 6a bd 9a 16 99 bd 95 65 c7 bc
       0.1175057 -0.057324022 -0.07475014 -0.02434043
0003d0 3c 56 b2 bb 51 b7 1b be 1c a2 13 3e dd ec 96 bd
       -0.005442409 -0.15206648 0.14417309 -0.07369397
0003e0 eb a4 57 3e 90 f2 6e bd 45 29 4a 3e 2b ce 40 3e
       0.21059005 -0.058336794 0.19742306 0.18828647
0003f0 7c 64 cf 3d 16 aa 0a bd c3 30 48 3e e7 e3 4e 3e
       0.10126588 -0.033853613 0.19549851 0.20204125

transformer.encoder.layers.0.self_attn.in_proj_bias f4 [96]
000000 eb 28 02 bc c4 22 e6 3a 7f 68 0b 3c 1c 44 14 3c
       -0.007944326 0.0017557968 0.0085088005 0.009049442
000010 7e e3 1f bc 0d 96 5d 3b 01 d2 13 3c bf 26 21 bc
       -0.009758828 0.003381136 0.009022237 -0.009835898
000020 bb 53 05 3c 03 06 15 3b 1b bc 03 bc a3 97 f5 3b
       0.008137639 0.002273918 -0.008040453 0.007494883
000030 eb 50 13 bc 0e 88 16 3c 5d af 18 bc 97 a1 0d bc
       -0.00899146 0.009187711 -0.009319154 -0.008644483
000040 a5 eb fe 3b c9 ae 8a bb 18 d0 1d bc 53 a5 26 bc
       0.007779556 -0.004232262 -0.009632133 -0.010171252
000050 96 23 af bb 02 12 64 bb 9e 45 11 3c 79 1b c5 bb
       -0.0053448183 -0.0034800773 0.008866696 -0.006015238
000060 8c 20 87 3b 5e 22 1d 3c 1d cd bc bb 11 d0 5d bb
       0.004123753 0.009590713 -0.005761756 -0.003384594
000070 52 c5 71 3a e9 fe 15 bc 17 20 16 3c 06 8e 1f 3c
       0.00092228234 -0.009155014 0.009162924 0.009738451
000080 93 bb 30 b6 db bd 35 36 d0 73 9d 35 3f 79 22 b6
       -2.6335226e-06 2.7081612e-06 1.1731117e-06 -2.4210456e-06
000090 48 25 b9 b4 2a 10 91 35 93 6a 8f b6 31 1e 38 b6
       -3.448606e-07 1.0808046e-06 -4.274139e-06 -2.743571e-06
0000a0 01 a6 ea 35 24 2d 18 36 30 e4 88 35 94 55 b8 b5
       1.7482672e-06 2.267604e-06 1.0199201e-06 -1.3733975e-06
0000b0 15 e5 e0 35 19 09 52 b4 30 af 94 36 3a cb d9 b5
       1.6755972e-06 -1.9561084e-07 4.431138e-06 -1.6226907e-06
0000c0 fe 43 c3 b5 c4 76 31 b6 f5 e7 ae b5 b0 e7 81 b5
       -1.454842e-06 -2.6444186e-06 -1.3031519e-06 -9.678679e-07
0000d0 77 31 44 b6 ec cd 06 35 93 9b f0 35 86 41 41 36
       -2.9235068e-06 5.0218546e-07 1.7926671e-06 2.879738e-06
0000e0 eb 3c 46 36 1d 38 05 36 cf 7b 8c b6 52 43 79 36
       2.9539758e-06 1.9851207e-06 -4.1867384e-06 3.7143077e-06
0000f0 23 b5 1f 36 59 a7 2e 35 de 0c dd 35 40 50 ec 36
       2.3798282e-06 6.5063574e-07 1.6469528e-06 7.0426904e-06
000100 e8 cf a4 ba eb 82 6a bc cd 8b 3b bc 08 a9 94 bb
       -0.0012574168 -0.01431344 -0.011446905 -0.0045367517
000110 48 a7 05 bc a9 bb c1 3c 19 25 43 bc c3 31 80 3a
       -0.008157559 0.023649054 -0.0119107 0.0009780455
000120 c7 2d 20 3b 3d fe 08 bc 9c eb 8e bb 63 92 c8 3b
       0.0024441348 -0.008361396 -0.004361583 0.0061209663
000130 4c f6 ce bb 70 01 65 3c ec 47 50 bc 16 95 5c 3b
       -0.006315982 0.0139773935 -0.01271246 0.0033658198
000140 7a 4d bf ba 12 1f b7 bb 8c d8 17 3c c7 bf 2d 3c
       -0.0014595233 -0.0055884207 0.009267937 0.010604805
000150 3c 9c 82 3b 04 43 aa ba 43 a6 26 bc 26 a7 19 bc
       0.0039859097 -0.0012989943 -0.010171476 -0.00937823
000160 86 56 63 3b b8 98 64 bb a3 12 3c 3c 26 5b 26 bb
       0.0034689023 -0.0034881067 0.011479053 -0.0025383919
000170 a2 45 79 3c 41 94 30 bc d9 16 b9 3b 9f b2 c3 ba
       0.015214356 -0.010777534 0.0056484756 -0.0014930553

transformer.encoder.layers.0.self_attn.out_proj.weight f4 [32, 32]
000000 b1 f8 37 3e 5a 58 39 3e 6c 37 1d 3e 11 79 84 be
       0.17965962 0.1810011 0.15353173 -0.25873616
000010 79 d8 37 3e 1c 0f 88 3e 4c 81 68 3c 01 8b 74 be
       0.17953672 0.26574028 0.014190983 -0.23881151
000020 22 7e 89 3e 5d 63 30 be 48 c6 0f 3e 5b b6 7d 3d
       0.26854044 -0.17225404 0.14040482 0.061941486
000030 b1 98 63 3e ba 7c ef bb eb ad 4b bd 39 6e 90 be
       0.22226216 -0.0073085697 -0.049726408 -0.28209093
000040 3c e1 81 be bd 59 fe 3c b5 13 f3 bd 2a bf e4 bd
       -0.25367153 0.03104865 -0.11868993 -0.11169274
000050 ca 58 86 3e 22 b0 5f bd 90 1c b4 3c 73 70 14 be
       0.26239616 -0.054611333 0.021986276 -0.14496021
000060 41 31 8a 3e 33 f1 70 bb 7d 43 8b 3c 71 d9 6e 3d
       0.26990703 -0.003676486 0.016999954 0.058312837
000070 7e a3 0f be 51 3b 22 3d d4 5c 60 3d 63 87 2e be
       -0.14027211 0.03960735 0.054776028 -0.17043833
000080 de 2d 15 be 57 42 97 be 50 51 25 3d 3f 2a ef bc
       -0.14568278 -0.295428 0.04036075 -0.02919495
000090 c4 71 f0 bd 7c aa 62 3e 2c 9a 8a be 2d c1 44 be
       -0.11740449 0.22135347 -0.2707075 -0.19214316
0000a0 c1 7c 61 3e fe fa 3a 3d 02 39 83 be fb 9c 74 3e
       0.22020246 0.04564952 -0.2562943 0.23888008
0000b0 f6 23 e7 bd c2 7a 2a be f2 9e 3f 3e 61 70 6b 3d
       -0.11286156 -0.16648391 0.18712977 0.05748022
0000c0 5a 02 67 3e 1f 8a b8 3b be 3b 4d bd 09 c5 80 bd
       0.22559491 0.0056316997 -0.050105803 -0.062875815
0000d0 2f c6 4d 3e 8f 4b 4a 3e 5d 93 ee 3d dd e9 08 3e
       0.20095132 0.19755386 0.11649201 0.13370462
0000e0 55 b4 09 3e d1 a8 fc bd b6 58 46 bd c2 bc 2a bc
       0.13447697 -0.12336887 -0.048424445 -0.01042098
0000f0 f6 fb 4c be f5 1d 9f 3e 94 38 74 3e 98 e0 34 be
       -0.2001799 0.31077543 0.23849708 -0.176638
000100 56 84 2b 3e ad 5a 36 bd 6f 02 5f 3e e8 e1 02 be
       0.16749701 -0.04452007 0.21778272 -0.12781489
000110 72 14 93 3e ff 19 77 bd 67 0a 66 3e ee a7 83 3e
       0.28726536 -0.060327526 0.22464906 0.25714058
000120 4a 11 02 3c 28 5b e7 bc 87 e8 60 bd a3 34 97 be
       0.007938692 -0.028241709 -0.054909255 -0.29532346
000130 c7 6a 5d 3d 11 b4 7a 3d fa b1 1a be cf a5 a3 3d
       0.05405691 0.06120688 -0.15106955 0.0799061
000140 e9 c0 59 3e de eb 9a be 2b 8b 80 3e c7 7c 0f 3d
       0.21264996 -0.30258077 0.25106177 0.035031106
000150 ce 73 16 3e 76 98 86 3d b8 32 80 3e 4e e2 6b 3e
       0.14692613 0.06572048 0.25038695 0.23035547
000160 2f 21 20 3e 67 88 81 bd 8a 5f 95 bd d5 b1 8b be
       0.15637659 -0.06324845 -0.07293613 -0.27284113
000170 12 0c 8d be d1 02 93 be 67 46 8c 3e c0 12 97 be
       -0.2754827 -0.28713086 0.27397463 -0.29506493
000180 df 2e 5f 3e 73 e7 8f be 56 6b 94 3e ba 0d c0 3d
       0.21795224 -0.2810627 0.2898814 0.09377618
000190 df 6d 9a 3d 09 d9 85 bd d4 46 11 bd 41 76 87 3e
       0.075404875 -0.06535537 -0.035467938 0.26457408
0001a0 d7 8a d4 3b 8e e8 e9 3b e3 d9 8c 3d eb ed 73 3e
       0.0064862776 0.0071383184 0.06877496 0.23821227
0001b0 cf 39 f6 bd bc cf 09 3e c6 0f 9d bc 9b e4 09 be
       -0.12022745 0.1345815 -0.01917256 -0.13466112
0001c0 fa 90 ee 3d f6 62 c0 3d 98 2f 11 be 28 ce 71 be
       0.11648746 0.09393875 -0.14178312 -0.23613799
0001d0 6d df 63 be 8c 14 5c be d3 b3 8e 3e 20 7c 58 3e
       -0.22253199 -0.21492213 0.2787157 0.211411
0001e0 45 26 7a be 94 7b 7c 3e 6c a3 27 bd 02 30 df ba
       -0.24428661 0.24656516 -0.040927336 -0.0017027857
0001f0 54 7b 37 3e 3f e7 83 3e 52 4a 13 3c d9 f3 1a 3d
       0.1791814 0.25762364 0.008989887 0.037830207
000200 ac e5 33 3d 4f 79 94 be 4f ee 2d 3b 72 9f 8e be
       0.043920204 -0.289988 0.0026539748 -0.27856022
000210 cb fa 6b 3e 34 c1 78 be 42 9a 94 3d e8 ff 7a 3e
       0.23044889 -0.24292451 0.07255985 0.24511683
000220 ae e9 7d 3e f8 d9 90 be 14 57 a5 bd 26 40 32 3e
       0.24796173 -0.28291297 -0.080732495 0.17407283
000230 62 50 74 be 48 3e 96 bb f7 bd ea bd 53 02 ca 3c
       -0.23858789 -0.004585061 -0.11462014 0.024659311
000240 9c c5 f4 3d ea b5 9b 3d 1d c9 e3 3d 56 19 84 bd
       0.119517535 0.07603057 0.11122344 -0.06450145
000250 8b 9e 71 be 5a fc 36 3e 60 1b 80 3e 4e 7b 6a 3e
       -0.23595636 0.17869702 0.25020885 0.228986
000260 e9 05 97 be dc 49 da bd 34 fb 49 be 2a 07 4e be
       -0.29496697 -0.10658619 -0.19724733 -0.2011992
000270 c6 d3 93 be 36 2c de 3d 39 af 97 3c 0a 4f 9f 3b
       -0.28872508 0.10848276 0.01851617 0.004861717
000280 44 bf 82 be dc f0 11 3e e5 1e d8 3c 4a 7c 2b 3d
       -0.2553655 0.14252037 0.02638192 0.04186658
000290 14 78 8e bc 8a cb 55 bd 25 07 fd 3d d0 89 b7 3d
       -0.017391242 -0.052196063 0.12354878 0.089618325
0002a0 65 98 4e bd 9c 52 76 3e fd 01 4c 3e 3a 9e a5 3d
       -0.050438304 0.2405495 0.19922633 0.0808682
0002b0 b1 c7 12 3e 65 82 e2 bd a4 a9 c4 bd 27 8e d1 bd
       0.14333989 -0.11060027 -0.09602669 -0.102321915
0002c0 ea b8 f7 3d 0e 16 b9 3d 82 06 89 be bc 85 16 bd
       0.120958164 0.0903741 -0.26762778 -0.036748633
0002d0 b4 0a 5f 3e dd 87 84 3e 87 89 bd 3d 59 b9 3d bb
       0.21781427 0.25884905 0.09254747 -0.0028949587
0002e0 5d 66 23 be ac 31 33 be 9d bf a3 bc 1a f4 15 bd
       -0.15957017 -0.17499417 -0.01998883 -0.036609747
0002f0 62 2d 3e be 88 f0 9f 3e db 5c 12 3e 6a e5 31 3e
       -0.18572 0.31238198 0.14293234 0.17372671
000300 d4 b4 65 be 11 f1 88 3d ba ea 3e 3e ee ff 04 3e
       -0.22432262 0.06686605 0.18644229 0.12988254
000310 94 25 8f 3e f2 5f 4d bd a5 7b 56 be f1 92 17 be
       0.27958357 -0.05014033 -0.20945604 -0.14802147
000320 0c b2 90 be 27 d5 81 3e d1 76 e5 bd 4c 2c 2d 3e
       -0.2826084 0.25357935 -0.11204303 0.16911429
000330 0c c7 21 3e 57 0f bf 3c a6 df b0 3c b3 59 69 be
       0.15798587 0.023322744 0.021591019 -0.22788124
000340 c9 2c 6a 3c 8f 88 06 bd 17 e3 1b 3d b0 de c0 3d
       0.014292904 -0.032845076 0.038058367 0.09417474
000350 95 0b 82 3d b5 18 64 3e 8f 67 02 bd 5a bf 85 3e
       0.06349865 0.2227505 -0.031837042 0.26122552
000360 10 b0 5d be 4d 4f 88 be ad 07 54 3d 2e 91 4a 3e
       -0.21649194 -0.26623002 0.051765133 0.19781944
000370 39 fa 5a 3e a8 03 4b 3e ec 7d 7b 3e b9 5f 9a 3d
       0.21384515 0.19825613 0.24559754 0.07537789
000380 61 9c 1e be e1 b8 18 be 3f 9a d7 3d d8 0a b5 3d
       -0.15489341 -0.14914276 0.10527467 0.08839959
000390 ae c0 d0 3d 96 69 80 bd fa f3 78 bd 87 0c 9a 3d
       0.10193001 -0.06270139 -0.06077955 0.07521921
0003a0 10 40 90 3d 10 ec 5d bd 0a 1f b9 bd 1a f9 12 3e
       0.07043469 -0.054180205 -0.09039123 0.14352837
0003b0 65 53 07 bd a1 b1 bb 3d 95 d7 80 be 08 67 54 3e
       -0.033038516 0.091647394 -0.25164476 0.20742428
0003c0 78 e4 2d be 26 4d 55 be 97 57 22 3d 95 b3 14 3d
       -0.16981685 -0.20830211 0.039634313 0.036304075
0003d0 13 71 ac 3b c8 b4 91 be 8f 63 c9 bd 08 ab 85 3e
       0.005262503 -0.28458238 -0.098334424 0.2610705
0003e0 00 86 1a 3e 63 b7 e3 3d 45 20 86 3e 82 9e 0b bd
       0.1509018 0.111189626 0.26196495 -0.03408671
0003f0 f6 2c 91 be af 1d 91 bd cf 7b 3e be 55 26 7a 3b
       -0.28354615 -0.0708574 -0.18601917 0.003816982

transformer.encoder.layers.0.self_attn.out_proj.bias f4 [32]
000000 d1 19 03 bc 74 59 4a bb 62 67 91 bb 67 1d 93 3a
       -0.008001761 -0.0030876072 -0.004437373 0.0011223973
000010 66 69 37 3b 08 b5 ad bb ef 7e 8d 3b 70 a5 ba b9
       0.0027986406 -0.0053011216 0.00431811 -0.00035599945
000020 b0 fb 10 3b 19 cc 48 bc 09 dd d6 bb 1d e7 bd ba
       0.0022122674 -0.012255692 -0.006557111 -0.0014488433
000030 5c fd 2c bb eb c2 65 3b 05 05 23 bb bc 2b b0 3b
       -0.002639613 0.0035058807 -0.0024874818 0.0053763073
000040 38 65 4c bc de b9 27 bc f3 40 78 3c 9e 5f 1a 3c
       -0.012475304 -0.010237185 0.015152204 0.009422211
000050 ea d2 93 bc 95 c8 86 3c 84 c5 b9 3b 29 1d b8 bb
       -0.018044908 0.016453067 0.0056692977 -0.0056187105
000060 79 a2 82 3a 0b fd 69 3b c8 63 d2 3a 62 d7 be 3a
       0.0009966634 0.0035703804 0.0016051466 0.0014560039
000070 ac b2 37 3c d0 b2 0e 3c 74 7b 19 bc 88 f8 00 3c
       0.011212032 0.008709624 -0.009367812 0.0078717545
