models/2023-06-30 16:35:38.415519/model-110.pt (torch, 405283 bytes, 70 tensors)

input_embedding.weight f4 [16, 32]
000000 dc 6f 85 bc a8 01 ea bc 46 d0 b2 3d ee 60 11 bd
       -0.01628869 -0.028565243 0.08731131 -0.03549283
000010 bb a0 de 3d 48 d6 7e bc e1 f8 8a bd be 6a 88 bd
       0.10870501 -0.015554018 -0.06785751 -0.066609845
000020 f1 de 66 3d 4c 29 87 3c a0 dc 26 3d 97 f0 07 bd
       0.056364957 0.016499184 0.04073775 -0.03318843
000030 f7 6e 66 3d a5 d4 5a bd 3c b9 93 3c 18 ba 09 bc
       0.056258168 -0.05342545 0.018032663 -0.008406185
000040 eb 22 90 bc 63 fa 61 3c 22 0e 7b 3c 3c 71 b7 3b
       -0.017594775 0.013792607 0.015323194 0.0055982154
000050 df ec 5b bd c0 bd d2 bd 38 d2 2f 3d b6 09 79 3c
       -0.053692695 -0.10290098 0.04292509 0.015200069
000060 1b 0e 99 bd f1 81 59 bd f9 20 cb 3d 3e ff ca 3c
       -0.074733935 -0.053102437 0.099183984 0.024779912
000070 c9 e0 2b bc 31 21 99 3d f5 7f 91 3d ef 93 18 3d
       -0.010490605 0.07477034 0.07104484 0.037250455
000080 cd 42 42 bd 8a 89 c2 bd 6b 1d 87 3d 87 fa 82 bc
       -0.047426987 -0.0949889 0.06597408 -0.015988601
000090 ad ca 2b 3d 8a 07 2b 3d 1a 2f 7e 3d 27 20 9a 3c
       0.041941334 0.041755237 0.06205664 0.01881416
0000a0 52 5b 85 bd cf d1 a3 bd 0a 09 1d bd 38 d0 93 3d
       -0.065115586 -0.07999002 -0.0383387 0.07217449
0000b0 00 ab e7 3c 9d c6 2c 3d 20 d6 9c bc 30 33 51 3d
       0.028279781 0.0421816 -0.019145072 0.051074207
0000c0 1a 56 19 bd 88 06 9f bd 83 00 04 bd 50 3c 04 3d
       -0.03743563 -0.077649176 -0.03222705 0.03228408
0000d0 2a 19 45 3d 9f aa 9f 3d 2b 4b cb bd 2a 60 38 bd
       0.0481197 0.07796215 -0.099264465 -0.045013584
0000e0 00 95 33 bb 70 b9 47 bd e0 34 d1 bc 72 fa ab bd
       -0.0027402043 -0.04876083 -0.025537908 -0.08397378
0000f0 db ba 90 3d 2f f3 9e 3d 80 53 aa bd 27 37 27 bc
       0.0706689 0.07761227 -0.083167076 -0.01020602
000100 f5 0c ad 3d f2 7b ba bd 6d a4 46 bd c5 ef 88 bd
       0.08449737 -0.09105672 -0.048496652 -0.066863574
000110 0a 13 10 3d e7 30 ac 3b 0d 88 7d bc 6d 73 b1 bc
       0.035174407 0.005254853 -0.015474332 -0.021661485
000120 67 ec 1e 3d ba 71 c5 3d 22 7a 8e 3d b7 e4 9c bd
       0.03879967 0.09640832 0.06956889 -0.076608114
000130 63 c7 13 3d 00 01 0e bb 93 f4 ea bc 40 0c 06 bd
       0.036078822 -0.0021668077 -0.028681075 -0.032726526
000140 0d 67 93 3d f3 99 47 3d 1f 6b 99 bd 1a d8 87 bd
       0.0719739 0.0487308 -0.07491135 -0.06633015
000150 17 e3 6f bd cb c4 9e 3d 80 72 c1 bc 70 50 6d 3d
       -0.05856618 0.07752379 -0.023614168 0.05793804
000160 ab f3 82 3d 87 6d a1 bd 27 16 89 bd 2d 18 9f bd
       0.06394132 -0.07882219 -0.06693678 -0.07768283
000170 a0 38 f9 bc 33 07 c5 3d 60 e3 a8 3c cd 21 e1 bc
       -0.030422509 0.09620514 0.020616233 -0.027481938
000180 ed 90 7a bd ad 59 62 bd fb c9 81 bd 6a b7 b3 bd
       -0.06117337 -0.055261303 -0.06337353 -0.08775218
000190 8d eb 39 3d f0 bb 42 bd 8d 1b 3e bc cd 8b eb 3b
       0.045390654 -0.047542512 -0.011603248 0.0071882964
0001a0 33 01 b4 bb ca 37 1b bd 2d 83 c7 bd c7 4c ac bd
       -0.005493307 -0.037895 -0.09741817 -0.084130816
0001b0 ed 38 c7 3c 78 6f a3 3d d3 b5 9d bc 2a 27 8d bd
       0.024319137 0.07980245 -0.01925174 -0.068922356
0001c0 c5 09 81 bd 67 9d 44 3c b0 9a 39 3d 67 4d 73 bd
       -0.063006915 0.012000418 0.045313537 -0.05939999
0001d0 67 be 8e 3c 20 c2 01 3d 4a a6 49 bd 8a ff 6b bd
       0.017424775 0.031679273 -0.04923085 -0.057616748
0001e0 a3 0b 8f bd da 5b 51 bd 00 66 dd 3c ba 96 93 bd
       -0.069846414 -0.051112987 0.027026176 -0.07206483
0001f0 93 e2 c8 3d 80 63 38 3c 60 51 be bc 95 bb a8 3d
       0.098088406 0.011254191 -0.023232162 0.082389034
000200 52 f1 83 3d 23 0f be 3d 40 c0 71 bc 8d a1 1f 3d
       0.064425126 0.09280231 -0.014755309 0.038972426
000210 c7 28 5c 3d 33 d5 e4 bc 5d 8a b8 bd 73 64 8e 3c
       0.053749826 -0.027933693 -0.09010766 0.017381882
000220 cd 5b f2 bc e3 25 97 3d 50 7f 2f 3d 53 12 86 3c
       -0.02958479 0.07380273 0.042846024 0.01636616
000230 20 5d 4d 3d 00 21 c8 bb 7a 63 8c bc 65 08 80 3d
       0.05013764 -0.0061074495 -0.017137278 0.06251601
000240 90 52 71 bd 23 00 b4 3d 77 05 21 bd c5 42 a7 3d
       -0.05891663 0.087890886 -0.039311852 0.08167032
000250 60 dd ee 3c 67 ed 0b bc 78 ad bc 3d b8 2c b9 bd
       0.029158294 -0.008540488 0.09212774 -0.090417325
000260 e3 be a8 bd 15 b3 8c bd a0 04 6f bd f0 b2 13 bd
       -0.08239534 -0.06870095 -0.05835402 -0.03605932
000270 4f 85 b7 bd c0 e0 bb 3c 1f 09 b0 bd ad ed be 3d
       -0.089609735 0.022934318 -0.0859549 0.09322677
000280 9a 49 83 bb c7 32 d8 bc 47 d8 e8 3c ca f7 38 bd
       -0.0040065767 -0.0263914 0.028423442 -0.045158185
000290 33 91 95 bb 20 a1 75 3d 8f f1 88 bd 2d f1 b9 bc
       -0.0045644282 0.059968114 -0.06686699 -0.02269801
0002a0 4d a8 89 3b a8 74 b5 3d ca 3e 62 3d 1a 9c 7e bc
       0.004200971 0.08860141 0.05523566 -0.015540147
0002b0 12 b5 8e bd 9a 25 ff 3c 40 eb 8c bd 92 72 9d bd
       -0.0696813 0.03114586 -0.06880808 -0.07687868
0002c0 d7 74 a4 3d 02 4b 98 bd b0 be bb bd 1a 6b bd bb
       0.08030098 -0.074361816 -0.0916723 -0.0057805898
0002d0 f3 54 3a bd 0d 9b fb 3c 9a 1f fa bb 80 4a 9e 3d
       -0.04549117 0.030713582 -0.0076331617 0.077290535
0002e0 ca 73 77 3d 93 cc 87 3d 07 21 b7 3c 20 5e c8 bc
       0.06041316 0.06630816 0.022354616 -0.024458945
0002f0 9b 52 8d 3d 3a 91 a8 3d 7d 69 14 bd ea 4c 47 bd
       0.06900521 0.08230825 -0.036233414 -0.048657335
000300 3a 95 bb bc 3d b1 91 bd 5a 8d 49 3d 1a 6c da bc
       -0.022898305 -0.07113884 0.04920707 -0.026662875
000310 9d 7e 93 bd b3 ba 81 bb 6d c9 98 bc 58 01 a1 3d
       -0.07201884 -0.003959024 -0.018650735 0.078615844
000320 97 cf 12 bd 33 cf ca ba a7 ca 5f bc 00 bb da 3c
       -0.035842504 -0.0015473127 -0.013659156 0.026700497
000330 30 43 a8 bd b8 bb 83 3d 40 16 e5 3c 6a d5 6d bd
       -0.0821594 0.06432289 0.027964711 -0.058064856
000340 ab 74 8a 3d 1a 40 50 bc cd 28 1b ba 13 5a 79 3d
       0.06760534 -0.0127105955 -0.00059188606 0.060876917
000350 aa f5 96 bd 83 21 8d 3d 97 62 0b bd d3 60 08 3d
       -0.073710755 0.068911575 -0.03402957 0.033295464
000360 e0 6d 8c 3d 40 24 4b 3d a7 69 15 bc 92 eb 94 bd
       0.068568945 0.049595118 -0.009119428 -0.07271494
000370 33 6e be 3d c2 17 a1 bd 4a b2 25 3d b0 37 7f bd
       0.092983626 -0.078658596 0.040453233 -0.062308967
000380 07 db b5 bd 00 f8 b1 bb 00 9c 52 bc 85 5c 80 3d
       -0.08879667 -0.005431175 -0.012854576 0.06267647
000390 3a b1 67 bd d7 ae a2 bd e8 5d 96 bd 40 b0 1e bd
       -0.0565655 -0.07943504 -0.0734213 -0.038742304
0003a0 3f 1a 97 bd 9d b4 9f bd cd e8 5c ba 07 da 1a bd
       -0.07378053 -0.07798121 -0.0008427024 -0.037805583
0003b0 03 5b 56 3d 73 61 51 bc 77 a0 a7 bd 73 df 57 bd
       0.05233289 -0.012779581 -0.08184903 -0.052703332
0003c0 8d 84 4e bc 0d 5e 50 3d 0d b1 41 bd 5a 0b d3 3c
       -0.012604845 0.050870944 -0.04728799 0.025762249
0003d0 70 02 ac 3d 53 fc 44 bd 00 ae a3 3d 5a 78 84 bc
       0.083989024 -0.048092198 0.07992172 -0.01617067
0003e0 5d 66 72 3d 5a d5 90 bd cd 16 73 bd 40 b1 e4 bc
       0.059179652 -0.070719436 -0.059347916 -0.02791655
0003f0 7a 8f 8b bd c5 51 8c bd ad b5 09 3d 6d e4 ed bc
       -0.06814475 -0.06851534 0.033620525 -0.029039586

output_embedding.weight f4 [9, 32]
000000 1a a8 b7 bd 0f c1 5c bd 13 93 d9 bc ec 15 51 bd
       -0.0896761 -0.053895053 -0.026559388 -0.051046297
000010 63 72 3d bb 30 d3 85 3d cb ad 85 3d b8 d6 4c bd
       -0.002890729 0.065344214 0.06527289 -0.05000946
000020 c6 dd d9 3d dd ca 5e 3c 1e 6a 5d 3d 2a 3c 71 bd
       0.10638003 0.013598171 0.05405628 -0.058895268
000030 85 35 75 bd 0e 18 c7 bc 1e b8 2a bd 31 2e 8f bd
       -0.059865493 -0.024303462 -0.041679494 -0.06991232
000040 ac 69 95 3d 32 0f 10 bd 28 84 36 3d c1 31 a4 3d
       0.07295546 -0.03517074 0.044559628 0.08017302
000050 13 f2 cb bd 48 c0 85 bd bb de 44 bd 74 e9 1b 3d
       -0.09958281 -0.06530815 -0.048063975 0.038064435
000060 e2 d1 95 bc 89 36 cd 3d a5 12 c5 bd ae 8e 6b 3b
       -0.018288556 0.100201674 -0.09622697 0.0035943198
000070 07 59 a2 3d 9f fe 5b 3d 86 d2 52 3d 47 c2 51 bd
       0.07927137 0.053709622 0.051470302 -0.051210668
000080 ad f0 56 bd 40 dc ab bc 95 31 b0 3d 92 38 86 3d
       -0.05247562 -0.020979047 0.08603207 0.06553759
000090 e0 92 d5 3c 2d 57 03 3d ed bf 11 bd a7 ca e4 bc
       0.026071012 0.03206556 -0.035583425 -0.027928663
0000a0 60 03 c0 bd 6d 46 a8 bc 68 1f a0 bd 8d e9 25 bd
       -0.09375644 -0.020541394 -0.0781849 -0.040505935
0000b0 30 cf 4c 3d b3 27 ef bb 00 33 c8 3b ba 45 22 bd
       0.050002277 -0.0072984337 0.0061095953 -0.039617278
0000c0 7b d5 c0 bd 58 7e bf bd fd a2 9c 3d c3 09 5d 3d
       -0.09415718 -0.0935027 0.07648275 0.053964388
0000d0 d5 5d c6 3d d2 d1 c0 bd 4b e6 ba bd e3 75 b8 bd
       0.09685866 -0.0941502 -0.09125956 -0.0900686
0000e0 b3 44 5b 3c c0 ec b6 bc 53 73 b6 3d cd 9b 6b 3d
       0.013383078 -0.022329688 0.08908715 0.05752163
0000f0 9d f0 2a 3d 25 74 a3 3d 4a cd 9f 3d 1a 42 2b 3d
       0.041733373 0.07981137 0.07802828 0.041811086
000100 b4 c8 cf 3c ec a6 6b 3d d4 32 45 3d 49 f1 c5 bd
       0.025364257 0.057532236 0.048144177 -0.09665162
000110 af 76 dc 39 37 37 a4 bc 06 d2 33 3d 41 af 9c 3d
       0.00042050096 -0.02004586 0.043901466 0.076506145
000120 b0 a7 9a 3d 98 3e ca bd 24 3c 90 bd 6b e6 80 3b
       0.07551515 -0.0987522 -0.07042721 0.003933718
000130 a9 e5 8f 3d a2 6c b1 bd a2 e9 87 bd 79 de 7f 3d
       0.07026226 -0.08663298 -0.06636359 0.062468026
000140 52 2a 66 bd 95 31 06 bc a5 62 8f bd 36 74 47 bc
       -0.056192704 -0.008190532 -0.07001237 -0.012173703
000150 2f d9 50 3d 26 35 cc bc 0b 29 85 bd f1 cb 82 3c
       0.050988372 -0.024927687 -0.06501969 0.015966387
000160 e7 5f d5 bc 69 c5 69 3c 47 40 a8 3d 1c 05 ab 3d
       -0.026046706 0.014268258 0.08215385 0.08350584
000170 d2 04 98 3d 6b fd 83 3d 88 ed 4c 3d 75 fa 32 3c
       0.074227944 0.0644482 0.050031215 0.010923971
000180 b6 56 74 3d 59 c7 19 bc 0f 68 a3 3c 28 37 29 3d
       0.059653006 -0.009385907 0.01994708 0.041312367
000190 84 5d 9a 3d f0 2e 4d bd df e4 d5 3b 15 49 a3 3d
       0.07537368 -0.05009359 0.0065275277 0.07972924
0001a0 97 c1 53 bd 5d 78 50 bd ad c1 53 bd 10 98 b1 bd
       -0.051698294 -0.050896037 -0.051698375 -0.08671582
0001b0 95 b8 f7 bb 6c b3 91 bd 12 5c dc bd 74 17 8a 3b
       -0.0075598457 -0.071143 -0.107597485 0.0042142216
0001c0 8b 2b 81 3d 24 37 ba 3d 35 14 89 bd fa ea bc bb
       0.06307133 0.090925485 -0.06693307 -0.005765316
0001d0 3c dd 05 bc 3a 9f 28 bd 1a a6 89 bd 8d 60 30 bc
       -0.008170422 -0.041167475 -0.067211345 -0.010765207
0001e0 f2 c6 c8 3d 42 cf 84 bd c3 31 cc bd cf dc 85 bd
       0.09803571 -0.06484844 -0.09970429 -0.065362565
0001f0 c7 00 a7 bd c5 35 ab 3d 92 57 ee 3b 34 7a a4 bd
       -0.08154445 0.08359865 0.007273623 -0.08031121
000200 23 d4 7b bd eb 68 94 bd e3 3b 2f 3d 82 7f 90 3d
       -0.061481606 -0.07246574 0.04278172 0.0705557
000210 0b 2d 87 bd 1a ba 36 bd 1f ff 8b 3d c3 27 52 3d
       -0.06600388 -0.044611074 0.0683577 0.05130745
000220 02 c2 b2 3d 9a cc 7b 3d 47 08 84 3d 3b 17 c6 3d
       0.0872841 0.06147442 0.06446891 0.096723996
000230 e7 23 cf bc 4a dc 8d bd b3 fb 54 3d 1a 8c d7 bb
       -0.025285674 -0.069267824 0.05199785 -0.0065779807
000240 a7 b5 31 bd ed 64 ab bd 9a 23 89 3d e3 75 86 3d
       -0.043386128 -0.083688594 0.066962436 0.06565454
000250 30 cb 77 3d e0 4e b9 bd 35 84 a6 bd 73 00 c3 3d
       0.06049651 -0.09048247 -0.08130685 0.0952157
000260 50 ac bd 3d 30 ee 2a bd 1b d1 82 3d c7 04 3d bd
       0.092613816 -0.04173106 0.0638754 -0.046147134
000270 6a b8 96 bd ad 76 86 bc ba 2c 28 3d 8d 98 5e bc
       -0.07359393 -0.01641401 0.04105828 -0.013586176
000280 a0 0d e1 bc dd f3 13 bd 82 a0 c4 bd 9a e3 c3 3c
       -0.027472317 -0.036121238 -0.09600927 0.02391224
000290 8a b4 70 3d 33 f5 3a bb b5 96 a9 3d 47 ba 69 3d
       0.058765925 -0.0028527498 0.08280698 0.057062414
0002a0 0a e4 61 bd a7 19 ee bc 4d 39 9a 3d 60 cd 12 bd
       -0.055149116 -0.029064966 0.075304605 -0.035840392
0002b0 fb 73 a9 bd d7 b3 51 bd 9a 56 d3 bb 37 7f 30 3d
       -0.08274075 -0.0511969 -0.0064495327 0.04309007
0002c0 27 d2 fd 3c 33 dd c8 bb 8b 4a b6 3d 10 6c 69 3d
       0.030983998 -0.0061298846 0.08900937 0.056987822
0002d0 48 c7 9d bd d3 7e a5 bc 30 19 66 bd e0 55 ba 3c
       -0.077040255 -0.020202076 -0.056176364 0.022746027
0002e0 13 40 ca bc e3 38 bd bd 40 b9 7d 3c cd 6a 26 3d
       -0.024688756 -0.09239366 0.015486062 0.040629197
0002f0 9a 46 d2 3b eb 4c 83 3d 80 11 2d bd 87 bc e7 bc
       0.006417108 0.06411155 -0.042253017 -0.028288139
000300 fd 1d 28 3d b7 a3 a8 bc 35 97 c7 bc 45 a6 64 3c
       0.041044224 -0.020585878 -0.024364093 0.013955657
000310 15 5c 30 3c dc 43 d7 bd c2 15 01 3d 09 44 84 3c
       0.010764142 -0.1051099 0.03151489 0.016145723
000320 ca f5 c5 bc 6c 59 72 bd 99 5a ad bd a1 8c 06 3d
       -0.024165053 -0.05916731 -0.08464546 0.032848958
000330 f4 8e 34 bd 09 7c cb bb 87 de 93 bc 17 87 92 3c
       -0.044081643 -0.0062098545 -0.018050445 0.017886681
000340 27 00 1d 3d e7 18 bc 3b 72 75 a4 bc 99 fb b3 bc
       0.038330223 0.0057402733 -0.020075534 -0.021970557
000350 1d ee 8f bc ec 9a 93 3c 3d b3 85 bd 2e 94 a3 bd
       -0.017569596 0.018018208 -0.065283276 -0.079872474
000360 3a ae c2 bd 8f 78 ac 3d 57 9b 22 3d 70 12 b4 3d
       -0.09505887 0.08421432 0.039698925 0.08792579
000370 66 27 94 bd 46 13 8a 3d 73 bd 5f bd d9 48 77 3d
       -0.07234077 0.06741957 -0.054624032 0.060372207
000380 2d 03 07 3d da 44 21 bd ab b3 f8 3c 08 9b 18 3d
       0.032962013 -0.039372303 0.03035911 0.037257224
000390 25 e6 10 bd 1b 73 eb bc 69 27 3b bd 24 b5 08 3d
       -0.035375733 -0.02874141 -0.04569188 0.033375874
0003a0 aa aa cb bd 94 17 09 3d d8 16 0e bd cf 17 a2 3d
       -0.09944661 0.03346975 -0.034689754 0.079146974
0003b0 24 ee 41 bc ae db a7 bd 41 3b 3d 3d b3 db 81 bd
       -0.011836562 -0.081961975 0.046199087 -0.063407324
0003c0 06 c0 27 bd d3 69 95 bb 42 f4 69 3d 86 21 aa 3d
       -0.040954612 -0.0045597344 0.057117708 0.08307175
0003d0 97 0e 50 bd bf 9c 59 bd fd f3 a1 3d 9a 56 3a 3c
       -0.050795164 -0.053128 0.07907865 0.0113731865
0003e0 4f 05 87 3d 34 29 0d bd 62 76 40 3d 6d c0 d2 bc
       0.065928094 -0.034463122 0.0469879 -0.025726521
0003f0 b3 d4 99 bc a1 da 5b 3d 75 cf 91 3d af 8a 7e bd
       -0.01877818 0.053675298 0.071196474 -0.062143978

input_position_embedding.weight f4 [16, 32]
000000 0a 0b 4a bf 35 61 b5 3f a7 82 3e c0 a1 54 19 be
       -0.78923094 1.417029 -2.9767244 -0.1497369
000010 17 fd d9 be 08 1e 8c 3f d5 ca 44 bf 90 96 00 be
       -0.42575905 1.0946665 -0.76872 -0.12557435
000020 ec 63 65 bf 9d df ff 3f 3d 00 d9 bf 85 dc 2c bf
       -0.89605594 1.9990116 -1.6953198 -0.67523986
000030 f5 95 a0 3f 79 18 28 bf ed d7 26 3e d0 35 63 bf
       1.2545763 -0.6566234 0.16293307 -0.88753986
000040 b9 11 1a c0 9f fd 6a bf ed 8c 34 3f fd 19 40 bf
       -2.4073317 -0.91793245 0.70527536 -0.75039655
000050 87 22 80 bf 80 ae d1 be 97 8d 83 3f ee f9 7d be
       -1.0010537 -0.40953445 1.0277585 -0.24802372
000060 70 59 0c c0 8f 2e e5 bd 22 c8 c8 bf 67 de 0f 3f
       -2.1929588 -0.11190521 -1.5686076 0.56198734
000070 a5 48 ac be 26 b9 74 3f ef d3 10 3f bf 53 55 bf
       -0.33649173 0.95595014 0.56573385 -0.8333091
000080 12 5d 84 be f2 05 1b bf 96 c2 40 be c8 a8 75 3f
       -0.25852257 -0.60555947 -0.18824229 0.95960665
000090 47 08 82 bf a1 c8 c3 bf fb e5 9b bf 7e 48 5e 3f
       -1.0158776 -1.5295602 -1.217956 0.86829364
0000a0 ad 91 a1 bf 05 93 16 3f f9 65 60 bf 98 83 84 bf
       -1.2622582 0.58818084 -0.876556 -1.0352659
0000b0 b1 72 17 be 9d 3c 8a bf 82 fd 0e be a8 f3 a0 bf
       -0.14789845 -1.0799748 -0.13963893 -1.2574358
0000c0 8b 9f 8a 3e c4 ea 3a 3f fb da a3 bf 49 63 b7 be
       0.27074847 0.73014474 -1.2801203 -0.35817936
0000d0 6d 45 98 3f 8d d4 37 be ec 5f e9 bf 6c 55 52 bd
       1.1896187 -0.17952175 -1.8232398 -0.051350996
0000e0 e7 b5 47 bf 08 12 c8 bc f2 cb 71 bf 23 d3 9b 3d
       -0.78011936 -0.02442266 -0.9445182 0.076086305
0000f0 72 c3 6f bd 6e db 45 3f 5e 19 f0 3e d5 0f 85 3e
       -0.058536 0.7728795 0.46894354 0.2598864
000100 89 c9 49 3f d1 a8 ae 3f 3b 4f bf 3e 38 0e 80 bf
       0.78823143 1.3645269 0.37365136 -1.0004339
000110 da 02 7e bb 2d 9b 97 3f 99 74 41 3f 05 63 a4 3f
       -0.0038759024 1.1844231 0.7556854 1.2842718
000120 23 2b 36 bf a6 5f f6 bd e2 80 9e 3f a5 49 4b 3e
       -0.7115957 -0.12029962 1.2383082 0.19852312
000130 aa db 44 3c ad 5d 98 3e 75 b6 5e 3f 5a 84 80 be
       0.012015263 0.2975897 0.8699716 -0.25100976
000140 ad af 99 bf bd ae 82 3f 29 21 c6 be e4 03 69 bd
       -1.2006737 1.0209576 -0.38697174 -0.056888476
000150 4f 1c 98 3f 80 ae 22 c0 38 b1 b4 be a0 2c b5 bf
       1.1883639 -2.5419006 -0.35291457 -1.4154243
000160 aa 9c a6 bf bd b8 af bf 79 70 d8 3f 71 a5 ec be
       -1.301656 -1.3728253 1.6909324 -0.46219972
000170 c9 aa e2 3e f0 8d 03 3f 51 bb 1c bf f5 30 f9 bf
       0.44270924 0.51388454 -0.6122332 -1.9468066
000180 c5 75 06 c0 ec a3 c7 3e 25 e1 b2 3d ef 7b 5b bf
       -2.100938 0.3899225 0.08734349 -0.8573598
000190 9f 90 da bf 75 a4 46 bf b3 8d e7 3e fc 09 b8 be
       -1.7075385 -0.7759469 0.45225295 -0.35945117
0001a0 b9 f7 45 3f ec a0 43 40 2a 38 1f c0 42 1c d9 bf
       0.7733112 3.056697 -2.487803 -1.6961749
0001b0 d0 bc 72 bf 07 61 3c bf 82 f7 39 be d0 7e 4a bf
       -0.94819355 -0.7358555 -0.18160823 -0.7909975
0001c0 dd 03 1b 3e ad d1 04 3f 66 f1 16 bf 4a 16 80 3f
       0.15138192 0.5188244 -0.58962095 1.0006802
0001d0 46 c5 98 3f ea de a1 bc 8a 81 8f 3e 42 cf e7 3f
       1.1935203 -0.019759614 0.28028518 1.8110125
0001e0 54 30 a5 be 54 f8 23 3e 5f e5 bd bf a6 c8 52 3f
       -0.32263434 0.16012698 -1.4835624 0.82337415
0001f0 86 e9 91 bf 59 65 f4 bc a0 d5 21 bc d6 53 a3 3d
       -1.1399391 -0.029833483 -0.009877592 0.07974975
000200 66 c9 17 be 29 9f 64 3f 69 07 43 bf 02 f7 c4 bf
       -0.14822921 0.8930536 -0.7618318 -1.5387881
000210 36 59 1f bf 92 6a b6 be a5 4a fb 3f 27 ce 6f 3e
       -0.622455 -0.35628182 1.9632155 0.23418485
000220 5b 53 00 be b1 d6 d7 3f e6 ad 11 40 ba ef 74 bf
       -0.12531798 1.6862394 2.276239 -0.95678294
000230 5b 70 e4 3f 90 ec 45 3e cb 40 a6 3e db 05 2e 3d
       1.7846788 0.19328523 0.32471308 0.042486053
000240 6a e8 b3 bf 63 a3 f4 3d d3 95 a9 be 6b 3a 57 bf
       -1.4055302 0.11945226 -0.3312212 -0.84073514
000250 7e d5 8b 3e 7a a0 b7 be 21 5c dc 3f a5 1f d6 3f
       0.2731132 -0.3586462 1.7215616 1.6728407
000260 45 06 20 bf 28 ef 50 3f 98 31 12 bf ae a3 f4 bd
       -0.62509567 0.81614923 -0.57106924 -0.11945282
000270 d3 e8 ae 3e f2 4a 93 be f6 72 fe be 03 9a b0 3d
       0.34162006 -0.28768116 -0.49697083 0.086231254
000280 26 78 99 3d 5d 1f 17 3f 96 0f cc 3e ba c9 22 bf
       0.074936196 0.5903223 0.3985564 -0.6358906
000290 79 f9 3f 3d 67 fa e8 3f c8 80 ba 3f c2 44 36 3e
       0.046868775 1.8201417 1.4570551 0.17799667
0002a0 f2 55 0c ba c5 9d 92 bf a2 63 00 40 29 4c 35 be
       -0.0005353383 -1.1454397 2.006081 -0.17704834
0002b0 9d 91 af bf 5e 42 35 bf a3 06 be 3c 14 bd ad bf
       -1.3716313 -0.70804393 0.023196524 -1.3573327
0002c0 2d 48 ec be a9 f6 1b 3d 69 7a a9 bf 1d 09 0e 3f
       -0.46148816 0.03807703 -1.3240482 0.55482656
0002d0 ac 76 8a bf 46 0d a9 be fc 23 8b 3e 34 7f 8b bf
       -1.0817466 -0.3301794 0.2717589 -1.0898194
0002e0 a8 87 50 3f cf c3 0e be 4c 3f bc be 61 2a ea be
       0.81456995 -0.13941883 -0.36767042 -0.45735458
0002f0 28 ea 38 bf 98 a5 06 3f 4d 5d df be a8 7c 41 be
       -0.72232294 0.52596426 -0.4362587 -0.18895209
000300 26 0e 86 bf a6 84 66 3e 86 09 2e 3f dd 63 07 3f
       -1.0473068 0.22511539 0.6798328 0.52886754
000310 4a d3 4b bf 58 16 a1 be 19 51 81 bf 12 17 bb be
       -0.79619277 -0.3146236 -1.0102874 -0.3654104
000320 61 fa 56 3f bf c9 61 bf 33 0d 77 3f d0 6b 5e 3f
       0.839758 -0.88198465 0.96504515 0.8688326
000330 25 80 44 3f bf 92 bb 3e d2 2c 18 bf 8e 03 57 be
       0.76758033 0.36635396 -0.5944339 -0.2099745
000340 cc 8e b9 3e 15 72 63 3e 40 dd 8e 3e 69 5e a1 be
       0.36241758 0.22211488 0.27903175 -0.31517342
000350 c9 02 11 c0 ef ae 8c 3f e7 d8 27 3e 21 1e d7 be
       -2.265795 1.0990885 0.16391335 -0.42015174
000360 aa 25 d1 bf cc 94 09 3f 10 93 8a 3f a1 f0 da bf
       -1.6339619 0.5374267 1.082613 -1.7104684
000370 02 c8 01 3f a5 40 46 3e f9 06 2b 3f 17 dc af bf
       0.5069581 0.19360597 0.66807514 -1.3739041
000380 68 07 29 3f 7a be b4 bf 8d d3 ea 3f 5f 92 e9 3e
       0.66026926 -1.4120629 1.834581 0.45619485
000390 fe 0b ed 3e fd 57 61 3f fe 53 48 bf a4 61 9b 3e
       0.46298212 0.88024884 -0.7825316 0.3034793
0003a0 66 ec 1a 3f f2 a8 a8 3f af 16 89 3f 29 61 9c bf
       0.60516965 1.3176558 1.0710047 -1.2217151
0003b0 be 41 81 3f a5 06 7b be 84 5e 52 3f 5a b2 a6 3f
       1.0098188 -0.24514253 0.8217547 1.3023179
0003c0 7b 09 2d 3f e6 cc 5c 3f 70 fd e5 3f 5e fd c0 bf
       0.6759259 0.8625015 1.7967968 -1.5077322
0003d0 43 b5 26 3e 69 65 23 bf 90 e1 65 3f 34 6e c4 be
       0.16280083 -0.63826615 0.89797306 -0.38365328
0003e0 df 87 bf bf 80 83 7b bf a8 e8 37 3f 76 63 e1 3e
       -1.496334 -0.9824753 0.7183938 0.44021195
0003f0 d8 d2 d1 bd 18 ff dc bf a5 21 f8 be 03 4c 36 3f
       -0.102452934 -1.7265348 -0.4846317 0.71209735

target_position_embedding.weight f4 [9, 32]
000000 7b a3 c8 3d 70 7d 88 3e e5 79 f1 bf b5 e2 06 bf
       0.097968064 0.266582 -1.8865324 -0.5268968
000010 58 dd 44 bf 35 88 51 3e 89 6a 21 bf 7f d6 01 3f
       -0.76900244 0.20462115 -0.63053185 0.5071792
000020 ec 45 03 3d f9 29 f9 be 19 6f 40 3f a9 6b a2 3f
       0.032049105 -0.48664835 0.7516952 1.2689105
000030 7c 40 54 3f ef e7 a6 3f e7 86 55 3f 45 87 72 3e
       0.82910895 1.303953 0.8340897 0.23684414
000040 53 85 49 3f 70 c4 8e bf 64 0c 3b bf 55 af 4f 3f
       0.7871906 -1.1153698 -0.7306578 0.8112691
000050 29 6d 30 bf 7b a3 17 bf 16 6d a4 3f 7d 21 98 3f
       -0.68916565 -0.59233826 1.284579 1.188522
000060 7c c1 f1 3f 98 5c 8c bf e3 c2 23 be 5c c6 b5 be
       1.8887172 -1.0965757 -0.15992312 -0.355029
000070 38 e7 bb 3f ba e1 1d 3f da f7 1d bf 6c 3e 4a 3f
       1.4679937 0.61672556 -0.61706316 0.790015
000080 2b 92 7e be a1 30 ac bf c5 8a 99 be 69 6f 0c c0
       -0.24860446 -1.345234 -0.29988685 -2.1943
000090 5d f8 c4 3e e4 d2 23 40 f0 9a d8 3e da 7b 73 3e
       0.38470736 2.5597467 0.42305708 0.23777714
0000a0 7d 6d 9b 3f 1b 54 1f 40 a9 cc 3e bf 2b a2 db bf
       1.2142788 2.4895084 -0.74531037 -1.7158865
0000b0 29 85 17 c0 b4 3a ce be a6 97 81 3f 01 28 1d c0
       -2.3675025 -0.40279162 1.0124404 -2.4555666
0000c0 f9 cb bb 3f b3 1d ba bf 49 1c d1 bf 78 d7 3d bf
       1.4671623 -1.4540313 -1.6336757 -0.74156904
0000d0 72 38 e9 be 3e cb 96 bf 72 49 27 bf 72 2f aa bf
       -0.45550877 -1.1780775 -0.65346444 -1.3295729
0000e0 e1 2d 61 3e 2f e7 60 3f 06 e5 5e bd 91 70 e5 be
       0.21990158 0.8785276 -0.054417633 -0.44812444
0000f0 da 1f f2 bd 9e ba e5 bf 13 1b 74 3e 6d d2 a4 bf
       -0.118224815 -1.7947576 0.23838453 -1.2876717
000100 ab 29 96 3f 49 77 c8 3e b4 56 8c bf 77 da 55 3f
       1.1731466 0.39153507 -1.096396 0.83536476
000110 ff 21 08 3f 8a ae 07 40 bd 1d 68 3f 9b a2 d2 3e
       0.53176874 2.120028 0.90670377 0.41139683
000120 39 ce 41 40 c1 d8 fd be 9a 2e 68 3e 7c 5f 28 be
       3.0282118 -0.49579433 0.22674027 -0.16442674
000130 30 29 13 c0 a6 27 60 bf 03 67 38 bf 68 8a 47 3f
       -2.299389 -0.875605 -0.72032183 0.77945566
000140 58 f0 89 bf 0e 81 4a bf 2f 78 66 3f c1 66 8c be
       -1.0776472 -0.7910317 0.90027136 -0.27422145
000150 6c d4 0a bf 9a 25 a3 3d c2 6c 8b be 16 63 91 bf
       -0.5423038 0.07966156 -0.27231413 -1.1358364
000160 42 e2 73 bf de 4c 5b be c4 58 b5 bf 50 1f 87 3f
       -0.9526712 -0.21416041 -1.4167714 1.0556431
000170 1b 69 92 bf 53 c8 15 3f 06 78 45 be d5 14 80 3f
       -1.1438326 0.58508795 -0.19284067 1.0006357
000180 83 4c f7 bf 5e 62 ea 3f 33 ed d4 be bc 7e 0a be
       -1.9320225 1.8311269 -0.4158722 -0.13524908
000190 2a 01 e5 3f b3 6f 57 bc fd 07 c6 3e 2f 0d c8 be
       1.789098 -0.01314919 0.3867797 -0.39072558
0001a0 39 c5 8d bc f7 85 bb 3f 18 2e 12 40 f2 0a 9c 3f
       -0.017305957 1.4650258 2.2840633 1.219084
0001b0 d0 2c 23 3d 93 48 10 bb 5f 94 18 bf 98 e1 a4 bf
       0.03983766 -0.0022015914 -0.59601396 -1.2881346
0001c0 84 48 3e bf f9 4f 91 3e 02 24 d8 3e 7b 76 9a 3f
       -0.743294 0.28381327 0.42214972 1.2067407
0001d0 77 99 24 be de e1 36 bf de e1 fb be f6 33 2f 3f
       -0.16074167 -0.71438396 -0.4919576 0.6843866
0001e0 2f 71 58 3e a6 2d 54 3d f3 72 15 3e f7 69 91 bd
       0.21136926 0.051801346 0.14594631 -0.07100289
0001f0 49 a6 f3 3f 52 e6 ed 3e 6b 26 0b 3f c9 a1 83 3e
       1.9035121 0.46464783 0.54355496 0.2570937
000200 70 97 0e 3f f1 39 3f bf 1f 88 73 3d d2 3d 8f 3f
       0.55699825 -0.74697787 0.059455987 1.1190741
000210 b9 22 56 bf 3d 91 5c bd a4 5e 63 bf f8 ca 09 bf
       -0.8364673 -0.053849448 -0.88816285 -0.5382533
000220 6d e5 5d bf 01 d5 9f 3f 8a 5d 56 bf 34 1a 66 3e
       -0.866782 1.2486879 -0.8373648 0.22470933
000230 eb a5 52 3f cf dc 23 3d 6b af e4 3f c9 2a 06 c0
       0.8228442 0.0400055 1.7866033 -2.0963614
000240 9c 0c 48 3f 4c 69 08 bf e8 f2 6c bf a5 f7 4f be
       0.7814424 -0.5328567 -0.92558146 -0.20309313
000250 99 0e 85 3f 80 fa c4 3e 86 be c7 3d b4 03 c3 3f
       1.039508 0.38472366 0.09753136 1.5235505
000260 15 05 21 be ee 8f 70 3f ea b7 18 be 72 08 13 be
       -0.15724595 0.9396962 -0.14913908 -0.1435869
000270 cf a1 be bb 19 43 d3 bd 33 55 e2 3f a7 56 45 3f
       -0.005817629 -0.10315532 1.7682251 0.77085346
000280 59 75 a2 3e 0b 3b 21 3f 17 de f0 be 48 36 5c 3e
       0.31730154 0.6298072 -0.4704444 0.21505082
000290 55 fd 0e 40 69 59 f8 bf 93 c3 13 3f 88 b2 2a be
       2.2342122 -1.9402286 0.577203 -0.16669667
0002a0 e7 3e c0 bc 12 f0 e6 be c8 cc 0c c0 a9 0e bc 3f
       -0.023467494 -0.45105034 -2.1999989 1.4691974
0002b0 81 0a e1 bf 65 06 12 bf 5b 2a 85 bf ff ac 20 bf
       -1.758133 -0.5704101 -1.0403551 -0.6276397
0002c0 6f 04 b3 3f 82 dd 8c 3e 8d cc aa be cf 81 2d bf
       1.3985728 0.27512747 -0.33359185 -0.677762
0002d0 69 19 7d be dc d9 94 be 2c a9 7c bf 88 28 32 3e
       -0.24716724 -0.29072464 -0.98695636 0.17398274
0002e0 c8 cf 78 bf df aa 66 3e 12 6e 20 bf 3d 96 d4 3f
       -0.9719205 0.2252612 -0.62667954 1.6608349
0002f0 0b 16 79 3f 4b c9 64 3e 63 26 12 40 f6 ae 92 bf
       0.9729926 0.22342412 2.283593 -1.1459644
000300 2f c0 56 bf 37 1e 03 c0 c0 6b ae bf fb a9 b6 bc
       -0.83887 -2.0487192 -1.3626633 -0.02229785
000310 8c df c2 3e 3c a9 47 3d 77 2a 2a bf b9 50 bd bd
       0.38061178 0.04874538 -0.66471046 -0.09243912
000320 b7 95 0d 3f 7b d2 cb bd 96 e9 8e 3e 37 56 85 3f
       0.5530657 -0.09952255 0.27912587 1.0416936
000330 c0 50 13 bf bc f9 8f be 41 8f 27 3f de f2 85 3e
       -0.5754509 -0.2812022 0.65452963 0.26161855
000340 11 fa cf 3f 71 36 16 c0 83 66 90 be d0 17 88 3e
       1.6248189 -2.3470728 -0.2820321 0.26580667
000350 65 12 0f bf 9b c0 ea be 3d a6 d8 be d5 35 87 bf
       -0.5588744 -0.4585007 -0.4231433 -1.0563303
000360 8e 60 58 bf dc 0f 18 bd 8b 2d de 3d 84 b8 78 3f
       -0.8452233 -0.0371245 0.108485304 0.9715655
000370 89 b0 74 3f df 0d 3b bf f0 dc 0f c0 15 3d f1 3d
       0.9558187 -0.7306804 -2.24786 0.117792286
000380 c8 3f cf 3e 2a 42 60 be bb 4d 9f be 23 3f e6 bf
       0.4047835 -0.2190024 -0.3111399 -1.7988018
000390 fd ad 82 3f 2a fa 84 bf e5 9c 90 bf 4d c3 b4 be
       1.0209347 -1.0388844 -1.129788 -0.35305253
0003a0 8e 06 2c 40 9f 83 06 bf 15 60 c1 3f 0b 04 d9 bf
       2.6879 -0.5254459 1.5107447 -1.6954359
0003b0 ae 4c 1e bd 8a 11 f0 bf 82 b0 b6 3e 8e 2f b4 be
       -0.038647346 -1.8755352 0.3568154 -0.3519253
0003c0 b2 70 8f 3d 26 71 d6 3d 7d 17 e9 be c0 5d af 3e
       0.07003917 0.104708 -0.45525733 0.34251213
0003d0 8c 1e 97 3e 16 e2 a7 be 94 d4 52 3f c8 0b 4c 3d
       0.29515493 -0.32789677 0.8235562 0.049815923
0003e0 98 39 34 bf 3d 7b c4 3e 05 61 7f 3e 37 c5 5d 3e
       -0.7040038 0.38375273 0.24939354 0.21657263
0003f0 42 19 ac 3f c8 48 a8 bf 29 88 49 3e 26 ac 0a 3e
       1.3445208 -1.3147211 0.19680847 0.13542232

transformer.encoder.layers.0.self_attn.in_proj_weight f4 [96, 32]
000000 a9 78 a5 bd 70 b6 0f 3e 77 95 ac bd 2b f8 83 3c
       -0.08079655 0.14034438 -0.08426946 0.016109547
000010 8a 59 1b be ec a0 0e 3d f8 a2 28 3e 87 af 1b 3e
       -0.15170875 0.034821436 0.16468418 0.15203677
000020 e5 72 3d bd ba 0c 13 be ce b9 a9 bd 17 ff 1e 3e
       -0.04625215 -0.14360324 -0.082873926 0.15526997
000030 21 fe 2c be cc 71 4e be 5d 19 2b bd a2 7f 49 be
       -0.16893817 -0.20160598 -0.041772235 -0.19677594
000040 94 c4 28 3e 96 ac 3a be 6e bf 5c be 60 ab 48 3e
       0.16481239 -0.18229899 -0.215574 0.19596624
000050 02 ae 88 3c ab f0 d7 3d c4 b9 19 3e d8 95 8f 3d
       0.016684536 0.10543951 0.1501227 0.07011002
000060 30 6b 31 3e cb d4 ec bc cb 9d 09 3e 4e c0 66 bd
       0.17326045 -0.028910061 0.134391 -0.05633574
000070 13 08 50 3c 9e 62 05 be 5b a8 0f be 1e 11 15 be
       0.012697238 -0.130259 -0.14029066 -0.14557311
000080 d8 17 14 be 34 83 cb bd 1a 7b d1 bc 90 14 fb 3d
       -0.1446222 -0.099371344 -0.025571395 0.12259781
000090 02 74 37 be 09 a7 3d 3e d5 0a 00 3d ff 4f 39 3e
       -0.17915347 0.1852075 0.03126033 0.18096922
0000a0 a3 82 27 3d 2c 7e 1a 3e a5 d6 25 be 99 f5 50 bd
       0.04089607 0.15087193 -0.16195162 -0.05101547
0000b0 96 06 de bc 51 53 f1 bd 4a 21 50 3c c2 7a a7 bc
       -0.02710275 -0.117834695 0.012703249 -0.020444278
0000c0 20 87 3d be de 0f 86 3d 02 10 09 3e 1b ff 00 3e
       -0.18508577 0.06545995 0.13385013 0.12597315
0000d0 1b e0 a2 bd a4 f0 b6 bd 5e d6 5e be 2d 8d d1 3d
       -0.07952901 -0.08932617 -0.21761462 0.10232005
0000e0 63 07 52 be 94 05 56 be 0d 4c 59 3e 5c 0a eb bd
       -0.2051063 -0.20900565 0.21220417 -0.11476585
0000f0 7f db b8 bd 31 c2 38 bd 25 34 99 bd 0c ce 17 be
       -0.090262406 -0.04510707 -0.07480649 -0.14824694
000100 a7 ac 90 3c 39 25 db bd a2 17 a6 bd 25 dd ac 3d
       0.017660452 -0.10700459 -0.08109976 0.084406175
000110 73 61 cb 3c fb 6c 9d bc 59 40 23 bc 54 c9 15 bb
       0.02482674 -0.019217005 -0.009964072 -0.0022855597
000120 b5 53 43 3e 40 20 0d bd ec d8 4e 3e f5 c7 3a 3d
       0.190749 -0.034454584 0.20199937 0.04560085
000130 09 a5 d3 bd 3c 64 0b 3e a4 30 07 be 41 e9 3d 3c
       -0.10334212 0.13612455 -0.13202149 0.011591257
000140 4c fd a0 3c da e2 1c bd 93 b2 35 bd 12 43 3a bd
       0.019652031 -0.03830228 -0.044359755 -0.04547412
000150 14 88 8c 3d db 83 60 3d 0f 89 2b bc d0 58 10 be
       0.06861892 0.054813247 -0.010469689 -0.1409638
000160 79 b0 a9 bd 1c 71 8d 3d 77 81 22 3c 8a c8 18 3e
       -0.082856126 0.069063395 0.009918562 0.1492025
000170 60 9c df bc 24 70 c7 3d 49 45 4b 3e f3 4e 3a be
       -0.027296245 0.09738186 0.19850649 -0.18194179
000180 eb 3d 20 be 51 50 37 3e f2 50 3a 3d 50 b5 26 be
       -0.1564862 0.17901732 0.04548735 -0.16280103
000190 be ec 77 3d 94 98 82 bd 3c 69 1b 3d 89 11 59 bd
       0.06052851 -0.06376758 0.037942156 -0.05299524
0001a0 9e 59 2a be b1 bf 46 be cc 02 50 be e7 44 3b 3e
       -0.16635749 -0.19409062 -0.20313567 0.18288003
0001b0 a1 34 ec bd 8a 97 39 3d fa a7 8f bd 86 ad 1b be
       -0.11533476 0.045310535 -0.07014461 -0.15202913
0001c0 9f 9b 27 3e b4 54 80 bc 96 73 fe bc 37 6c 15 3e
       0.16367958 -0.01566539 -0.031060975 0.14592062
0001d0 90 1c d5 bd 23 fc 2f 3c a2 44 f4 3b c9 b5 fe 3d
       -0.104058385 0.010741266 0.0074544707 0.124370165
0001e0 f9 71 3b be 60 50 13 be 3b 00 3f 3e 72 76 9f 3d
       -0.18305196 -0.1438613 0.18652432 0.077862635
0001f0 e2 f9 12 3e 56 f3 e3 3c 72 60 96 bc 01 a9 90 bd
       0.14353135 0.027825993 -0.018356536 -0.07063485
000200 d9 ad 0b be e4 4c b3 3c 65 a6 0b be c8 11 dd bd
       -0.13640536 0.02188725 -0.13637693 -0.10794407
000210 66 fa 9e bd 12 cb 3b be bb bb 54 3c 07 4e 46 3e
       -0.077626035 -0.18339184 0.012984212 0.19365703
000220 bd f7 39 be 3c 46 d9 3c a1 6a 0f be 08 89 9f b9
       -0.18160911 0.026522748 -0.1400552 -0.0003042894
000230 3c 52 f8 bd ef da 46 be 00 36 b4 bd 99 3d 03 3e
       -0.1212506 -0.19419454 -0.08799362 0.12816466
000240 46 19 32 3e 02 22 37 be b1 70 a1 bb a9 41 59 be
       0.17392454 -0.17884067 -0.004926764 -0.21216454
000250 34 59 97 3d 39 0a 43 3e c8 81 79 bd 6a 9a 8c 3d
       0.07390061 0.19046868 -0.060914785 0.0686539
000260 b6 6b fc bd 03 ea 61 bd 81 b4 2b 3e 26 79 f5 bd
       -0.12325232 -0.05515481 0.16768076 -0.11985998
000270 46 58 37 be 6e ec d2 bd 76 37 b3 bd fa 43 f1 bd
       -0.17904767 -0.10299002 -0.08750813 -0.117805436
000280 80 5a 06 3e b9 0f 8a 3d 52 b2 19 3e b4 55 b9 3d
       0.1312046 0.0674128 0.1500943 0.0904955
000290 cd 39 5b 3e f9 ec fd 3d 21 18 d4 bc 13 bd bd 38
       0.21408768 0.123987146 -0.025890412 9.04744e-05
0002a0 86 8b 8e bd 08 53 26 be c8 59 e5 3b 72 d7 9e ba
       -0.06960206 -0.16242611 0.006999228 -0.0012118651
0002b0 5a fb 21 bd 95 ff 56 bc 99 d5 e6 bd 97 15 20 3e
       -0.03954635 -0.013122459 -0.11271209 0.15633236
0002c0 71 f8 43 be 15 c0 4a 3e 6b 00 59 3e da 02 23 be
       -0.19137742 0.19799836 0.21191566 -0.15919057
0002d0 8c 93 54 3d ba eb dc 3c bc 96 1d be ac 48 f1 3d
       0.051898524 0.026967872 -0.15389532 0.11781439
0002e0 54 a1 41 be 5b 3e 89 3d 40 54 2d be 75 93 28 bd
       -0.18909198 0.067013465 -0.1692667 -0.04115625
0002f0 85 24 41 3e 3b 43 9d 3c 26 d7 11 3e b3 de 9d 3d
       0.18861587 0.019197097 0.14242229 0.07708492
000300 f5 e2 de 3d 33 a9 dd 3c 99 e3 e7 bd 23 b6 87 bd
       0.10883132 0.02705822 -0.11322708 -0.06626537
000310 7b 5a 03 bd 1e 91 c5 bd 56 84 d0 bd bf 98 42 3d
       -0.03206871 -0.096468195 -0.10181491 0.04750895
000320 e3 b8 6a 3c 37 9e f8 3d d0 d4 0e bd bb 22 2b 3e
       0.014326307 0.12139552 -0.034870923 0.16712467
000330 26 68 ea bc b9 6a 1a 3e e8 01 2b 3d 2f 64 41 be
       -0.028614115 0.15079774 0.041749865 -0.18885873
000340 62 5c 2c 3e 27 56 b3 bd 3d 23 17 3e 67 85 62 3c
       0.16832116 -0.08756667 0.14759536 0.013825751
000350 99 ee 18 3e d4 f2 01 bd 4f 21 51 3e b4 70 1b 3e
       0.14934768 -0.03172572 0.20422862 0.15179712
000360 65 ac b7 3d 9c dd 00 3e 98 7d 99 3d 5a 29 62 3d
       0.089684285 0.12584537 0.07494658 0.055215217
000370 4d c0 2e be fa da 1a 3c 6f 92 17 3e 43 11 11 be
       -0.17065544 0.009451622 0.14801954 -0.14166741
000380 b1 57 34 3e d4 4d d7 3d 84 7b ce bc c1 1b f6 bd
       0.17611577 0.105128914 -0.025205381 -0.120170124
000390 40 89 39 be fd 50 14 be 20 d5 4d 3c 86 3f 42 3e
       -0.18118763 -0.1448402 0.01256302 0.18969545
0003a0 87 01 9b bd 7b cd 3c be 37 aa 17 be 86 b0 52 3e
       -0.07568651 -0.1843776 -0.14811026 0.20575151
0003b0 43 83 87 3d 5e 59 0d 3e 81 45 17 be bd 5f cb bc
       0.06616833 0.13803622 -0.14772607 -0.024825925
0003c0 84 1a d7 3d 3e 73 6b bd 12 83 84 bd d5 53 fc bc
       0.10503104 -0.05748295 -0.06470312 -0.030801693
0003d0 69 c7 a6 bc f0 44 17 be 55 2b 22 3e 28 90 9d bd
       -0.020358758 -0.14772391 0.15836842 -0.07693511
0003e0 22 cf 4a 3e 92 97 56 bd d0 02 42 3e cc b1 4c 3e
       0.19805577 -0.052390642 0.18946385 0.19989699
0003f0 cb bd d2 3d 9d 0a bd bc 0f 14 53 3e c4 f0 43 3e
       0.102901064 -0.02307635 0.2061312 0.19134814

transformer.encoder.layers.0.self_attn.in_proj_bias f4 [96]
000000 84 4d 79 bb 38 6d b8 bb 98 10 e7 bb b3 4b 31 bb
       -0.0038040588 -0.0056282543 -0.0070515387 -0.0027053177
000010 9d a7 0f 3a f1 a8 a8 3b 3b 97 ef bb 46 1b 65 39
       0.00054799934 0.0051470925 -0.0073117292 0.00021849302
000020 63 f2 d1 bb f0 d8 01 3b f9 ac 57 3b 87 8b a7 3a
       -0.0064070686 0.0019813143 0.0032909496 0.0012782671
000030 ee ce 80 3a 62 e8 01 bc c8 1b 90 3b 49 64 a9 3b
       0.0009827295 -0.00792894 0.004397843 0.0051694256
000040 3c de 56 ba 36 ec 2f bb 13 bd 48 ba 87 97 02 bb
       -0.00081965677 -0.0026843674 -0.0007657569 -0.0019926743
000050 65 86 8a 3a ec 03 85 3a 68 88 3c 3b d4 07 7a 3a
       0.0010568617 0.0010148264 0.0028767828 0.00095379096
000060 09 16 e0 bb f0 e8 97 3b f4 c8 e7 3b cc a6 d3 bb
       -0.0068385643 0.0046359226 0.007073516 -0.0064590927
000070 a5 60 d7 bb b3 e9 2b bb 9d 02 89 3b dc b9 6f 3b
       -0.0065728 -0.0026231825 0.0041812197 0.0036579287
000080 41 4b 82 b4 21 19 13 36 5d f9 ec b5 ca a2 f4 35
       -2.426914e-07 2.1919334e-06 -1.7655944e-06 1.8226795e-06
000090 06 58 c0 b3 e5 ed 9d b5 b9 d4 d2 35 0c 5c 9c 34
       -8.956708e-08 -1.1766648e-06 1.570813e-06 2.9124237e-07
0000a0 e5 eb f1 b5 08 81 91 b5 85 22 7b b5 de 4a d6 34
       -1.8024554e-06 -1.0840895e-06 -9.355502e-07 3.991508e-07
0000b0 ba 9a 19 34 f7 17 52 b6 d1 10 c5 b5 b3 f5 ec 35
       1.4305525e-07 -3.1306388e-06 -1.4682538e-06 1.7654878e-06
0000c0 ba fd c1 35 c0 fc bd b5 45 c9 8f b5 d6 8b 8a b5
       1.4453465e-06 -1.4155157e-06 -1.0712907e-06 -1.0322499e-06
0000d0 41 c8 17 b6 8f e8 4b b5 1e 3f b8 b3 3a 9b ec 33
       -2.2617317e-06 -7.596181e-07 -8.5796486e-08 1.1017842e-07
0000e0 b2 e7 86 34 7a a5 a5 b5 8b b2 0e b6 8c f7 ae 34
       2.5128026e-07 -1.2341618e-06 -2.1263575e-06 3.259014e-07
0000f0 68 f3 8f 35 14 0c db b4 2d 53 89 b4 cd 60 ec b5
       1.0725171e-06 -4.0800717e-07 -2.5578757e-07 -1.7611543e-06
000100 fb e0 b8 3a 17 64 4e 3a 89 05 a9 b9 26 7c 7d bb
       0.0014105135 0.0007873191 -0.00032238316 -0.0038678735
000110 4d 7d 50 3b 25 ef ba 3a 21 9b 4a bb a7 b7 a9 b8
       0.0031812966 0.0014261944 -0.0030915218 -8.092756e-05
000120 0a a8 99 3b 3c fa fb ba d8 6c 41 bb 99 fe 3d 3b
       0.0046892213 -0.0019224356 -0.0029514339 0.0028990863
000130 c3 6b 88 bb 4f 3e 05 3b c4 7a 96 ba f0 f6 5e 3b
       -0.004163237 0.0020331328 -0.0011480679 0.0034021698
000140 9a 5c 4f bb b8 ca 0a 3b 0b e3 6e ba ae 5e 86 3a
       -0.0031640888 0.0021177959 -0.00091128115 0.0010251605
000150 b7 fd f7 39 d2 b7 d5 b8 e9 24 81 3b af 11 bd ba
       0.00047300544 -0.00010190871 0.0039411676 -0.0014424826
000160 85 71 82 ba 58 c3 18 bb 3e b3 4e bb 0e 0b 84 3b
       -0.0009952044 -0.0023309793 -0.0031539942 0.004029638
000170 26 c0 88 3b 8f 83 a5 3a f3 84 2b 3b d8 55 a0 ba
       0.0041732965 0.0012627708 0.0026171773 -0.0012232615

transformer.encoder.layers.0.self_attn.out_proj.weight f4 [32, 32]
000000 bd 3f 3d 3e a7 e1 4a 3e 22 6b 29 3e 72 6e 81 be
       0.18481345 0.19812642 0.16544774 -0.25279576
000010 a8 40 42 3e cb 51 8f 3e aa ae 0f 3d 67 77 84 be
       0.18969977 0.2799209 0.035078682 -0.25872347
000020 1d 5b 87 3e 64 4d 2d be 21 d3 13 3e 43 f7 41 3d
       0.264367 -0.16924053 0.14436008 0.047354948
000030 25 c9 59 3e ae 4a 48 bc 0c 90 0a bd 48 6b 8a be
       0.21268137 -0.012224836 -0.03382878 -0.27034974
000040 a4 7a 7b be d1 4e 02 3d 6c b9 fb bd 45 84 dd bd
       -0.24558502 0.031813446 -0.12291226 -0.10816244
000050 f6 92 7f 3e ef ce 5a bd 94 69 ce 3c 02 be 04 be
       0.24958405 -0.053420004 0.025196828 -0.12963107
000060 0e 0b 8a 3e 20 e8 37 3c 40 e9 9e 3c 39 d3 8a 3d
       0.2696156 0.0112247765 0.019398332 0.06778569
000070 3a e4 15 be 7d 4e db 3c 00 fa 6d 3d 4a 91 3a be
       -0.14637843 0.026770825 0.058099747 -0.18219486
000080 dd 6e 0a be 3d 11 9a be 4c d7 20 3d ae e3 2d bd
       -0.13518853 -0.30091277 0.039267823 -0.04245346
000090 97 f5 e6 bd 6c 5b 52 3e 18 cf 8f be cb 9c 44 be
       -0.11277311 0.20542687 -0.28087687 -0.19200437
0000a0 53 52 6a 3e ef e8 63 3d 44 95 80 be a8 1e 74 3e
       0.22882967 0.055642065 -0.2511388 0.2383982
0000b0 bd 47 ef bd b3 58 2b be f0 69 45 3e c4 e5 78 3d
       -0.11683605 -0.16733055 0.19278693 0.060765997
0000c0 50 f3 6e 3e 10 5d 85 3c d0 4d 56 bd b6 ff 7e bd
       0.23335004 0.016279727 -0.0523203 -0.062255584
0000d0 1a fc 44 3e d2 48 57 3e 20 f7 fc 3d cc c9 04 3e
       0.19236794 0.21023872 0.12351823 0.12967604
0000e0 b7 19 08 3e e6 e0 fa bd 1b bc 6f bd c2 3a 48 3a
       0.1329106 -0.12249927 -0.058529 0.000763815
0000f0 79 34 47 be 6b 04 9b 3e 8a 75 76 3e d4 41 3c be
       -0.1945361 0.30276808 0.24068275 -0.18384486
000100 76 f7 3d 3e 59 ff 58 bd 90 aa 59 3e 0c 03 18 be
       0.1855143 -0.052977894 0.2125647 -0.14844912
000110 85 07 97 3e eb 0f a4 bd c0 18 5a 3e 0b 59 84 3e
       0.29497924 -0.080108486 0.21298504 0.25849184
000120 e0 9e 86 3c 95 1e e8 bb 11 82 2a bd 0e b9 9a be
       0.01643318 -0.007083724 -0.041627947 -0.3021931
000130 1e 4c 31 3d b5 d3 82 3d 8a 8b 0d be 60 ad af 3d
       0.04328548 0.06388036 -0.13822761 0.085779905
000140 2d af 69 3e 23 fa 8e be 0b 12 80 3e 7d f5 20 3d
       0.2282073 -0.27925214 0.25013766 0.039296616
000150 c3 48 05 3e 88 2c b8 3d 8b fc 85 3e a1 c7 65 3e
       0.13016038 0.08992869 0.26169237 0.22439434
000160 a6 13 1d 3e 36 a0 5e bd 8d 19 b7 bd 8f e3 7f be
       0.15339527 -0.054352008 -0.0894042 -0.2498915
000170 74 6a 86 be 9d 10 9a be ec 0e 90 3e eb 49 9f be
       -0.26253092 -0.300908 0.28136384 -0.31111082
000180 3c 8b 64 3e f8 72 95 be af 85 90 3e e7 58 b4 3d
       0.22318739 -0.29189277 0.28226992 0.08806019
000190 c0 17 92 3d b0 f2 9f bd 9f 56 38 bd 2c f1 8a 3e
       0.07133436 -0.07809961 -0.045004483 0.27137125
0001a0 22 39 d2 3b cf db 3b 3c 53 73 9c 3d 1d a2 70 3e
       0.006415502 0.011465981 0.07639184 0.23499341
0001b0 32 30 01 be 1b a1 11 3e 89 2c 9c bc 02 80 11 be
       -0.12616041 0.14221613 -0.019064205 -0.14208987
0001c0 94 de fb 3d 5e c9 c6 3d a6 4d 17 be 68 d7 76 be
       0.12298313 0.097063765 -0.14775714 -0.24105608
0001d0 b1 5c 6b be 74 19 53 be 1e 39 93 3e 3d 95 59 3e
       -0.22984578 -0.20615178 0.28754514 0.21248336
0001e0 0a 52 81 be 39 2c 7c 3e c3 98 58 bd 50 05 a6 3b
       -0.25257903 0.24626245 -0.05288006 0.0050665513
0001f0 4f c2 37 3e 74 11 80 3e ff 58 9b 3b 63 47 14 3d
       0.17945217 0.25013316 0.004740834 0.036200892
000200 18 59 2b 3d b2 30 93 be 6c 2c 8b 3b d7 f5 89 be
       0.041833013 -0.2874809 0.004247239 -0.26945373
000210 00 36 6a 3e 50 d9 6e be 84 8b 9c 3d f8 58 77 3e
       0.22872162 -0.23325086 0.07643798 0.24155033
000220 02 d4 76 3e 79 f2 92 be 48 a8 a3 bd 64 a4 2d 3e
       0.24104312 -0.28700617 -0.079910815 0.16957241
000230 ce 84 77 be 81 6f 58 bb 96 64 e5 bd 50 ab c1 3c
       -0.24171755 -0.0033025446 -0.11200826 0.023641258
000240 bc f7 01 3e 55 60 91 3d d3 e0 d3 3d a7 55 87 bd
       0.1269216 0.07098452 0.10345616 -0.06608134
000250 80 aa 79 be 4b 32 36 3e 51 31 83 3e 76 dd 75 3e
       -0.24381447 0.17792623 0.25623563 0.24010262
000260 ff a8 98 be c9 c5 d5 bd 87 24 49 be 28 08 4a be
       -0.29816434 -0.10438115 -0.1964284 -0.19729674
000270 df c3 97 be 79 23 c9 3d 6a cd 6b 3c a7 b2 2a 3b
       -0.29641625 0.09821219 0.014392236 0.0026046427
000280 bd b6 85 be 64 97 0e 3e f0 7a b8 3c 91 81 42 3d
       -0.2611598 0.13924938 0.022519559 0.047486845
000290 fd d8 b1 bc b3 60 2c bd a3 71 f5 3d fa 12 bd 3d
       -0.021709913 -0.042084407 0.11984565 0.09232135
0002a0 37 73 50 bd f6 c8 70 3e 4d b3 49 3e 66 5c a7 3d
       -0.050891127 0.2351416 0.19697304 0.081719205
0002b0 cf 73 13 3e d2 89 e0 bd e0 f3 cb bd 98 ce da bd
       0.14399646 -0.10963787 -0.09958625 -0.10683936
0002c0 3b 55 f3 3d 2f f1 a7 3d ed 11 8a be 1e 8f 3d bd
       0.11881491 0.08200299 -0.269668 -0.046279065
0002d0 ea 90 5f 3e 73 9d 81 3e 7d 79 b7 3d b1 6d 60 bb
       0.21832624 0.25315437 0.08958719 -0.0034245069
0002e0 29 6f 26 be 13 af 35 be f7 cb 7e bc ab 92 20 bd
       -0.16253342 -0.17742567 -0.015551559 -0.039202373
0002f0 20 0e 41 be a2 c8 9f 3e a3 51 0b 3e 03 ba 35 3e
       -0.18853045 0.31207758 0.1360536 0.17746739
000300 fe fd 68 be 37 ce 64 3d d9 7c 31 3e c5 34 11 3e
       -0.2275314 0.055860724 0.17332782 0.14180286
000310 6c ca 88 3e 41 69 3f bd c1 86 5c be 34 6f 0f be
       0.26716936 -0.046731237 -0.2153578 -0.14007264
000320 a0 26 9c be 7e 1d 83 3e 23 10 c9 bd f1 8b 22 3e
       -0.3049822 0.25608438 -0.09817531 0.15873696
000330 96 00 17 3e 98 1f 2a 3d a4 fc 9f 3c e2 9d 75 be
       0.14746317 0.041534036 0.019529648 -0.23986009
000340 c3 26 83 3c 48 89 55 bc 3a 54 51 3d d8 e5 f1 3d
       0.016009694 -0.013033219 0.051105715 0.11811417
000350 4e 44 79 3d 5a 81 69 3e b8 aa 14 bd 9c 64 80 3e
       0.060856156 0.2280325 -0.036295623 0.2507676
000360 97 1c 50 be 84 a2 7b be d6 20 71 3d 24 57 54 3e
       -0.20323406 -0.24573714 0.058869205 0.20736367
000370 2b c9 6b 3e bf 6f 4d 3e 1f cd 88 3e cf d8 6a 3d
       0.23025958 0.20062159 0.26718995 0.05733567
000380 68 8f 21 be ee 34 19 be 66 06 d2 3d f1 e1 bb 3d
       -0.15777361 -0.14961597 0.10255127 0.09173954
000390 3b 59 cb 3d a8 39 76 bd 2b a8 80 bd cb 7f 9b 3d
       0.09929129 -0.06011358 -0.062820755 0.07592734
0003a0 c1 30 8b 3d 39 75 6a bd de 79 bb bd 8e 41 14 3e
       0.067964084 -0.0572407 -0.09154104 0.14478132
0003b0 22 a1 05 bd 6a d2 c2 3d 91 f9 81 be 03 45 51 3e
       -0.03262437 0.095127895 -0.25385717 0.20436482
0003c0 00 39 33 be 56 ce 60 be 9c 8d 24 3d ee ec 11 3d
       -0.17502213 -0.21953711 0.04017411 0.035626344
0003d0 9e 72 1d 3c 07 17 96 be cc 81 d4 bd ca 89 86 3e
       0.009609846 -0.29314443 -0.10376319 0.26277
0003e0 8a 27 1e 3e 94 ce dd 3d 7e 40 89 3e 23 97 24 bd
       0.1544477 0.10830417 0.26807016 -0.040183198
0003f0 8e d7 93 be 50 e2 8c bd 65 65 3e be 15 ff f2 3b
       -0.28875393 -0.06879103 -0.18593366 0.007415662

transformer.encoder.layers.0.self_attn.out_proj.bias f4 [32]
000000 ec d1 9b 3b f6 ae bd b9 63 75 41 ba 20 70 12 ba
       0.0047552492 -0.00036179245 -0.00073798577 -0.0005586166
000010 99 ac bb 3b 64 5d 8c bb 14 b0 38 bb fa dd 9e ba
       0.0057273624 -0.004283594 -0.0028181123 -0.0012120598
000020 22 39 a1 3b 65 fb f1 38 89 47 5a 3b 04 db cf ba
       0.004920141 0.000115386014 0.0033306798 -0.0015858118
000030 61 e7 05 bb 5a 66 fa 38 36 05 04 bb d4 9c fb bb
       -0.0020432102 0.000119399934 -0.0020144708 -0.0076786075
000040 c5 41 24 bb e2 dd 3d bb 19 52 89 3a 30 f9 a8 39
       -0.0025063616 -0.0028971364 0.0010476738 0.00032229116
000050 ad b6 d6 3a c8 2d 91 3b 5e b6 7b bb a7 14 1a bb
       0.0016381346 0.0044305064 -0.003840826 -0.0023510845
000060 d0 2e 76 38 e3 c3 9b 3a 95 fc 0f 3b 0a 71 be 3b
       5.8694568e-05 0.001188394 0.002197062 0.005811815
000070 cd ff 2e 3a 2a 0a ab ba c9 6f 32 bb 42 16 a3 3a
       0.00066756905 -0.0013049294 -0.0027227274 0.0012442546
